{"format": "layers-model", "generatedBy": "keras v3.13.1", "convertedBy": "TensorFlow.js Converter v4.22.0", "modelTopology": {"kerasVersion": "3.13.1", "backend": "tensorflow", "modelConfig": {"className": "Functional", "config": {"name": "functional_1", "trainable": true, "layers": [{"className": "InputLayer", "config": {"batchInputShape": [null, 224, 224, 3], "dtype": "float32", "sparse": false, "ragged": false, "name": "input_image", "optional": false}, "name": "input_image", "inboundNodes": []}, {"className": "Conv2D", "config": {"name": "Conv1", "trainable": false, "dtype": {"module": "keras", "className": "DTypePolicy", "config": {"name": "float32"}, "registeredName": null}, "filters": 32, "kernelSize": [3, 3], "strides": [2, 2], "padding": "same", "dataFormat": "channels_last", "dilationRate": [1, 1], "groups": 1, "activation": "linear", "useBias": false, "kernelInitializer": {"module": "keras.initializers", "className": "GlorotUniform", "config": {"seed": null}, "registeredName": null}, "biasInitializer": {"module": "keras.initializers", "className": "Zeros", "config": {}, "registeredName": null}, "kernelRegularizer": null, "biasRegularizer": null, "activityRegularizer": null, "kernelConstraint": null, "biasConstraint": null}, "name": "Conv1", "inboundNodes": [{"args": [{"className": "__keras_tensor__", "config": {"shape": [null, 224, 224, 3], "dtype": "float32", "kerasHistory": ["input_image", 0, 0]}}], "kwargs": {}}]}, {"className": "BatchNormalization", "config": {"name": "bn_Conv1", "trainable": false, "dtype": {"module": "keras", "className": "DTypePolicy", "config": {"name": "float32"}, "registeredName": null}, "axis": -1, "momentum": 0.999, "epsilon": 0.001, "center": true, "scale": true, "betaInitializer": {"module": "keras.initializers", "className": "Zeros", "config": {}, "registeredName": null}, "gammaInitializer": {"module": "keras.initializers", "className": "Ones", "config": {}, "registeredName": null}, "movingMeanInitializer": {"module": "keras.initializers", "className": "Zeros", "config": {}, "registeredName": null}, "movingVarianceInitializer": {"module": "keras.initializers", "className": "Ones", "config": {}, "registeredName": null}, "betaRegularizer": null, "gammaRegularizer": null, "betaConstraint": null, "gammaConstraint": null, "synchronized": false}, "name": "bn_Conv1", "inboundNodes": [{"args": [{"className": "__keras_tensor__", "config": {"shape": [null, 112, 112, 32], "dtype": "float32", "kerasHistory": ["Conv1", 0, 0]}}], "kwargs": {"mask": null}}]}, {"className": "ReLU", "config": {"name": "Conv1_relu", "trainable": false, "dtype": {"module": "keras", "className": "DTypePolicy", "config": {"name": "float32"}, "registeredName": null}, "maxValue": 6.0, "negativeSlope": 0.0, "threshold": 0.0}, "name": "Conv1_relu", "inboundNodes": [{"args": [{"className": "__keras_tensor__", "config": {"shape": [null, 112, 112, 32], "dtype": "float32", "kerasHistory": ["bn_Conv1", 0, 0]}}], "kwargs": {}}]}, {"className": "DepthwiseConv2D", "config": {"name": "expanded_conv_depthwise", "trainable": false, "dtype": {"module": "keras", "className": "DTypePolicy", "config": {"name": "float32"}, "registeredName": null}, "depthMultiplier": 1, "kernelSize": [3, 3], "strides": [1, 1], "padding": "same", "dataFormat": "channels_last", "dilationRate": [1, 1], "activation": "linear", "useBias": false, "depthwiseInitializer": {"module": "keras.initializers", "className": "GlorotUniform", "config": {"seed": null}, "registeredName": null}, "biasInitializer": {"module": "keras.initializers", "className": "Zeros", "config": {}, "registeredName": null}, "depthwiseRegularizer": null, "biasRegularizer": null, "activityRegularizer": null, "depthwiseConstraint": null, "biasConstraint": null}, "name": "expanded_conv_depthwise", "inboundNodes": [{"args": [{"className": "__keras_tensor__", "config": {"shape": [null, 112, 112, 32], "dtype": "float32", "kerasHistory": ["Conv1_relu", 0, 0]}}], "kwargs": {}}]}, {"className": "BatchNormalization", "config": {"name": "expanded_conv_depthwise_BN", "trainable": false, "dtype": {"module": "keras", "className": "DTypePolicy", "config": {"name": "float32"}, "registeredName": null}, "axis": -1, "momentum": 0.999, "epsilon": 0.001, "center": true, "scale": true, "betaInitializer": {"module": "keras.initializers", "className": "Zeros", "config": {}, "registeredName": null}, "gammaInitializer": {"module": "keras.initializers", "className": "Ones", "config": {}, "registeredName": null}, "movingMeanInitializer": {"module": "keras.initializers", "className": "Zeros", "config": {}, "registeredName": null}, "movingVarianceInitializer": {"module": "keras.initializers", "className": "Ones", "config": {}, "registeredName": null}, "betaRegularizer": null, "gammaRegularizer": null, "betaConstraint": null, "gammaConstraint": null, "synchronized": false}, "name": "expanded_conv_depthwise_BN", "inboundNodes": [{"args": [{"className": "__keras_tensor__", "config": {"shape": [null, 112, 112, 32], "dtype": "float32", "kerasHistory": ["expanded_conv_depthwise", 0, 0]}}], "kwargs": {"mask": null}}]}, {"className": "ReLU", "config": {"name": "expanded_conv_depthwise_relu", "trainable": false, "dtype": {"module": "keras", "className": "DTypePolicy", "config": {"name": "float32"}, "registeredName": null}, "maxValue": 6.0, "negativeSlope": 0.0, "threshold": 0.0}, "name": "expanded_conv_depthwise_relu", "inboundNodes": [{"args": [{"className": "__keras_tensor__", "config": {"shape": [null, 112, 112, 32], "dtype": "float32", "kerasHistory": ["expanded_conv_depthwise_BN", 0, 0]}}], "kwargs": {}}]}, {"className": "Conv2D", "config": {"name": "expanded_conv_project", "trainable": false, "dtype": {"module": "keras", "className": "DTypePolicy", "config": {"name": "float32"}, "registeredName": null}, "filters": 16, "kernelSize": [1, 1], "strides": [1, 1], "padding": "same", "dataFormat": "channels_last", "dilationRate": [1, 1], "groups": 1, "activation": "linear", "useBias": false, "kernelInitializer": {"module": "keras.initializers", "className": "GlorotUniform", "config": {"seed": null}, "registeredName": null}, "biasInitializer": {"module": "keras.initializers", "className": "Zeros", "config": {}, "registeredName": null}, "kernelRegularizer": null, "biasRegularizer": null, "activityRegularizer": null, "kernelConstraint": null, "biasConstraint": null}, "name": "expanded_conv_project", "inboundNodes": [{"args": [{"className": "__keras_tensor__", "config": {"shape": [null, 112, 112, 32], "dtype": "float32", "kerasHistory": ["expanded_conv_depthwise_relu", 0, 0]}}], "kwargs": {}}]}, {"className": "BatchNormalization", "config": {"name": "expanded_conv_project_BN", "trainable": false, "dtype": {"module": "keras", "className": "DTypePolicy", "config": {"name": "float32"}, "registeredName": null}, "axis": -1, "momentum": 0.999, "epsilon": 0.001, "center": true, "scale": true, "betaInitializer": {"module": "keras.initializers", "className": "Zeros", "config": {}, "registeredName": null}, "gammaInitializer": {"module": "keras.initializers", "className": "Ones", "config": {}, "registeredName": null}, "movingMeanInitializer": {"module": "keras.initializers", "className": "Zeros", "config": {}, "registeredName": null}, "movingVarianceInitializer": {"module": "keras.initializers", "className": "Ones", "config": {}, "registeredName": null}, "betaRegularizer": null, "gammaRegularizer": null, "betaConstraint": null, "gammaConstraint": null, "synchronized": false}, "name": "expanded_conv_project_BN", "inboundNodes": [{"args": [{"className": "__keras_tensor__", "config": {"shape": [null, 112, 112, 16], "dtype": "float32", "kerasHistory": ["expanded_conv_project", 0, 0]}}], "kwargs": {"mask": null}}]}, {"className": "Conv2D", "config": {"name": "block_1_expand", "trainable": false, "dtype": {"module": "keras", "className": "DTypePolicy", "config": {"name": "float32"}, "registeredName": null}, "filters": 96, "kernelSize": [1, 1], "strides": [1, 1], "padding": "same", "dataFormat": "channels_last", "dilationRate": [1, 1], "groups": 1, "activation": "linear", "useBias": false, "kernelInitializer": {"module": "keras.initializers", "className": "GlorotUniform", "config": {"seed": null}, "registeredName": null}, "biasInitializer": {"module": "keras.initializers", "className": "Zeros", "config": {}, "registeredName": null}, "kernelRegularizer": null, "biasRegularizer": null, "activityRegularizer": null, "kernelConstraint": null, "biasConstraint": null}, "name": "block_1_expand", "inboundNodes": [{"args": [{"className": "__keras_tensor__", "config": {"shape": [null, 112, 112, 16], "dtype": "float32", "kerasHistory": ["expanded_conv_project_BN", 0, 0]}}], "kwargs": {}}]}, {"className": "BatchNormalization", "config": {"name": "block_1_expand_BN", "trainable": false, "dtype": {"module": "keras", "className": "DTypePolicy", "config": {"name": "float32"}, "registeredName": null}, "axis": -1, "momentum": 0.999, "epsilon": 0.001, "center": true, "scale": true, "betaInitializer": {"module": "keras.initializers", "className": "Zeros", "config": {}, "registeredName": null}, "gammaInitializer": {"module": "keras.initializers", "className": "Ones", "config": {}, "registeredName": null}, "movingMeanInitializer": {"module": "keras.initializers", "className": "Zeros", "config": {}, "registeredName": null}, "movingVarianceInitializer": {"module": "keras.initializers", "className": "Ones", "config": {}, "registeredName": null}, "betaRegularizer": null, "gammaRegularizer": null, "betaConstraint": null, "gammaConstraint": null, "synchronized": false}, "name": "block_1_expand_BN", "inboundNodes": [{"args": [{"className": "__keras_tensor__", "config": {"shape": [null, 112, 112, 96], "dtype": "float32", "kerasHistory": ["block_1_expand", 0, 0]}}], "kwargs": {"mask": null}}]}, {"className": "ReLU", "config": {"name": "block_1_expand_relu", "trainable": false, "dtype": {"module": "keras", "className": "DTypePolicy", "config": {"name": "float32"}, "registeredName": null}, "maxValue": 6.0, "negativeSlope": 0.0, "threshold": 0.0}, "name": "block_1_expand_relu", "inboundNodes": [{"args": [{"className": "__keras_tensor__", "config": {"shape": [null, 112, 112, 96], "dtype": "float32", "kerasHistory": ["block_1_expand_BN", 0, 0]}}], "kwargs": {}}]}, {"className": "ZeroPadding2D", "config": {"name": "block_1_pad", "trainable": false, "dtype": {"module": "keras", "className": "DTypePolicy", "config": {"name": "float32"}, "registeredName": null}, "padding": [[0, 1], [0, 1]], "dataFormat": "channels_last"}, "name": "block_1_pad", "inboundNodes": [{"args": [{"className": "__keras_tensor__", "config": {"shape": [null, 112, 112, 96], "dtype": "float32", "kerasHistory": ["block_1_expand_relu", 0, 0]}}], "kwargs": {}}]}, {"className": "DepthwiseConv2D", "config": {"name": "block_1_depthwise", "trainable": false, "dtype": {"module": "keras", "className": "DTypePolicy", "config": {"name": "float32"}, "registeredName": null}, "depthMultiplier": 1, "kernelSize": [3, 3], "strides": [2, 2], "padding": "valid", "dataFormat": "channels_last", "dilationRate": [1, 1], "activation": "linear", "useBias": false, "depthwiseInitializer": {"module": "keras.initializers", "className": "GlorotUniform", "config": {"seed": null}, "registeredName": null}, "biasInitializer": {"module": "keras.initializers", "className": "Zeros", "config": {}, "registeredName": null}, "depthwiseRegularizer": null, "biasRegularizer": null, "activityRegularizer": null, "depthwiseConstraint": null, "biasConstraint": null}, "name": "block_1_depthwise", "inboundNodes": [{"args": [{"className": "__keras_tensor__", "config": {"shape": [null, 113, 113, 96], "dtype": "float32", "kerasHistory": ["block_1_pad", 0, 0]}}], "kwargs": {}}]}, {"className": "BatchNormalization", "config": {"name": "block_1_depthwise_BN", "trainable": false, "dtype": {"module": "keras", "className": "DTypePolicy", "config": {"name": "float32"}, "registeredName": null}, "axis": -1, "momentum": 0.999, "epsilon": 0.001, "center": true, "scale": true, "betaInitializer": {"module": "keras.initializers", "className": "Zeros", "config": {}, "registeredName": null}, "gammaInitializer": {"module": "keras.initializers", "className": "Ones", "config": {}, "registeredName": null}, "movingMeanInitializer": {"module": "keras.initializers", "className": "Zeros", "config": {}, "registeredName": null}, "movingVarianceInitializer": {"module": "keras.initializers", "className": "Ones", "config": {}, "registeredName": null}, "betaRegularizer": null, "gammaRegularizer": null, "betaConstraint": null, "gammaConstraint": null, "synchronized": false}, "name": "block_1_depthwise_BN", "inboundNodes": [{"args": [{"className": "__keras_tensor__", "config": {"shape": [null, 56, 56, 96], "dtype": "float32", "kerasHistory": ["block_1_depthwise", 0, 0]}}], "kwargs": {"mask": null}}]}, {"className": "ReLU", "config": {"name": "block_1_depthwise_relu", "trainable": false, "dtype": {"module": "keras", "className": "DTypePolicy", "config": {"name": "float32"}, "registeredName": null}, "maxValue": 6.0, "negativeSlope": 0.0, "threshold": 0.0}, "name": "block_1_depthwise_relu", "inboundNodes": [{"args": [{"className": "__keras_tensor__", "config": {"shape": [null, 56, 56, 96], "dtype": "float32", "kerasHistory": ["block_1_depthwise_BN", 0, 0]}}], "kwargs": {}}]}, {"className": "Conv2D", "config": {"name": "block_1_project", "trainable": false, "dtype": {"module": "keras", "className": "DTypePolicy", "config": {"name": "float32"}, "registeredName": null}, "filters": 24, "kernelSize": [1, 1], "strides": [1, 1], "padding": "same", "dataFormat": "channels_last", "dilationRate": [1, 1], "groups": 1, "activation": "linear", "useBias": false, "kernelInitializer": {"module": "keras.initializers", "className": "GlorotUniform", "config": {"seed": null}, "registeredName": null}, "biasInitializer": {"module": "keras.initializers", "className": "Zeros", "config": {}, "registeredName": null}, "kernelRegularizer": null, "biasRegularizer": null, "activityRegularizer": null, "kernelConstraint": null, "biasConstraint": null}, "name": "block_1_project", "inboundNodes": [{"args": [{"className": "__keras_tensor__", "config": {"shape": [null, 56, 56, 96], "dtype": "float32", "kerasHistory": ["block_1_depthwise_relu", 0, 0]}}], "kwargs": {}}]}, {"className": "BatchNormalization", "config": {"name": "block_1_project_BN", "trainable": false, "dtype": {"module": "keras", "className": "DTypePolicy", "config": {"name": "float32"}, "registeredName": null}, "axis": -1, "momentum": 0.999, "epsilon": 0.001, "center": true, "scale": true, "betaInitializer": {"module": "keras.initializers", "className": "Zeros", "config": {}, "registeredName": null}, "gammaInitializer": {"module": "keras.initializers", "className": "Ones", "config": {}, "registeredName": null}, "movingMeanInitializer": {"module": "keras.initializers", "className": "Zeros", "config": {}, "registeredName": null}, "movingVarianceInitializer": {"module": "keras.initializers", "className": "Ones", "config": {}, "registeredName": null}, "betaRegularizer": null, "gammaRegularizer": null, "betaConstraint": null, "gammaConstraint": null, "synchronized": false}, "name": "block_1_project_BN", "inboundNodes": [{"args": [{"className": "__keras_tensor__", "config": {"shape": [null, 56, 56, 24], "dtype": "float32", "kerasHistory": ["block_1_project", 0, 0]}}], "kwargs": {"mask": null}}]}, {"className": "Conv2D", "config": {"name": "block_2_expand", "trainable": false, "dtype": {"module": "keras", "className": "DTypePolicy", "config": {"name": "float32"}, "registeredName": null}, "filters": 144, "kernelSize": [1, 1], "strides": [1, 1], "padding": "same", "dataFormat": "channels_last", "dilationRate": [1, 1], "groups": 1, "activation": "linear", "useBias": false, "kernelInitializer": {"module": "keras.initializers", "className": "GlorotUniform", "config": {"seed": null}, "registeredName": null}, "biasInitializer": {"module": "keras.initializers", "className": "Zeros", "config": {}, "registeredName": null}, "kernelRegularizer": null, "biasRegularizer": null, "activityRegularizer": null, "kernelConstraint": null, "biasConstraint": null}, "name": "block_2_expand", "inboundNodes": [{"args": [{"className": "__keras_tensor__", "config": {"shape": [null, 56, 56, 24], "dtype": "float32", "kerasHistory": ["block_1_project_BN", 0, 0]}}], "kwargs": {}}]}, {"className": "BatchNormalization", "config": {"name": "block_2_expand_BN", "trainable": false, "dtype": {"module": "keras", "className": "DTypePolicy", "config": {"name": "float32"}, "registeredName": null}, "axis": -1, "momentum": 0.999, "epsilon": 0.001, "center": true, "scale": true, "betaInitializer": {"module": "keras.initializers", "className": "Zeros", "config": {}, "registeredName": null}, "gammaInitializer": {"module": "keras.initializers", "className": "Ones", "config": {}, "registeredName": null}, "movingMeanInitializer": {"module": "keras.initializers", "className": "Zeros", "config": {}, "registeredName": null}, "movingVarianceInitializer": {"module": "keras.initializers", "className": "Ones", "config": {}, "registeredName": null}, "betaRegularizer": null, "gammaRegularizer": null, "betaConstraint": null, "gammaConstraint": null, "synchronized": false}, "name": "block_2_expand_BN", "inboundNodes": [{"args": [{"className": "__keras_tensor__", "config": {"shape": [null, 56, 56, 144], "dtype": "float32", "kerasHistory": ["block_2_expand", 0, 0]}}], "kwargs": {"mask": null}}]}, {"className": "ReLU", "config": {"name": "block_2_expand_relu", "trainable": false, "dtype": {"module": "keras", "className": "DTypePolicy", "config": {"name": "float32"}, "registeredName": null}, "maxValue": 6.0, "negativeSlope": 0.0, "threshold": 0.0}, "name": "block_2_expand_relu", "inboundNodes": [{"args": [{"className": "__keras_tensor__", "config": {"shape": [null, 56, 56, 144], "dtype": "float32", "kerasHistory": ["block_2_expand_BN", 0, 0]}}], "kwargs": {}}]}, {"className": "DepthwiseConv2D", "config": {"name": "block_2_depthwise", "trainable": false, "dtype": {"module": "keras", "className": "DTypePolicy", "config": {"name": "float32"}, "registeredName": null}, "depthMultiplier": 1, "kernelSize": [3, 3], "strides": [1, 1], "padding": "same", "dataFormat": "channels_last", "dilationRate": [1, 1], "activation": "linear", "useBias": false, "depthwiseInitializer": {"module": "keras.initializers", "className": "GlorotUniform", "config": {"seed": null}, "registeredName": null}, "biasInitializer": {"module": "keras.initializers", "className": "Zeros", "config": {}, "registeredName": null}, "depthwiseRegularizer": null, "biasRegularizer": null, "activityRegularizer": null, "depthwiseConstraint": null, "biasConstraint": null}, "name": "block_2_depthwise", "inboundNodes": [{"args": [{"className": "__keras_tensor__", "config": {"shape": [null, 56, 56, 144], "dtype": "float32", "kerasHistory": ["block_2_expand_relu", 0, 0]}}], "kwargs": {}}]}, {"className": "BatchNormalization", "config": {"name": "block_2_depthwise_BN", "trainable": false, "dtype": {"module": "keras", "className": "DTypePolicy", "config": {"name": "float32"}, "registeredName": null}, "axis": -1, "momentum": 0.999, "epsilon": 0.001, "center": true, "scale": true, "betaInitializer": {"module": "keras.initializers", "className": "Zeros", "config": {}, "registeredName": null}, "gammaInitializer": {"module": "keras.initializers", "className": "Ones", "config": {}, "registeredName": null}, "movingMeanInitializer": {"module": "keras.initializers", "className": "Zeros", "config": {}, "registeredName": null}, "movingVarianceInitializer": {"module": "keras.initializers", "className": "Ones", "config": {}, "registeredName": null}, "betaRegularizer": null, "gammaRegularizer": null, "betaConstraint": null, "gammaConstraint": null, "synchronized": false}, "name": "block_2_depthwise_BN", "inboundNodes": [{"args": [{"className": "__keras_tensor__", "config": {"shape": [null, 56, 56, 144], "dtype": "float32", "kerasHistory": ["block_2_depthwise", 0, 0]}}], "kwargs": {"mask": null}}]}, {"className": "ReLU", "config": {"name": "block_2_depthwise_relu", "trainable": false, "dtype": {"module": "keras", "className": "DTypePolicy", "config": {"name": "float32"}, "registeredName": null}, "maxValue": 6.0, "negativeSlope": 0.0, "threshold": 0.0}, "name": "block_2_depthwise_relu", "inboundNodes": [{"args": [{"className": "__keras_tensor__", "config": {"shape": [null, 56, 56, 144], "dtype": "float32", "kerasHistory": ["block_2_depthwise_BN", 0, 0]}}], "kwargs": {}}]}, {"className": "Conv2D", "config": {"name": "block_2_project", "trainable": false, "dtype": {"module": "keras", "className": "DTypePolicy", "config": {"name": "float32"}, "registeredName": null}, "filters": 24, "kernelSize": [1, 1], "strides": [1, 1], "padding": "same", "dataFormat": "channels_last", "dilationRate": [1, 1], "groups": 1, "activation": "linear", "useBias": false, "kernelInitializer": {"module": "keras.initializers", "className": "GlorotUniform", "config": {"seed": null}, "registeredName": null}, "biasInitializer": {"module": "keras.initializers", "className": "Zeros", "config": {}, "registeredName": null}, "kernelRegularizer": null, "biasRegularizer": null, "activityRegularizer": null, "kernelConstraint": null, "biasConstraint": null}, "name": "block_2_project", "inboundNodes": [{"args": [{"className": "__keras_tensor__", "config": {"shape": [null, 56, 56, 144], "dtype": "float32", "kerasHistory": ["block_2_depthwise_relu", 0, 0]}}], "kwargs": {}}]}, {"className": "BatchNormalization", "config": {"name": "block_2_project_BN", "trainable": false, "dtype": {"module": "keras", "className": "DTypePolicy", "config": {"name": "float32"}, "registeredName": null}, "axis": -1, "momentum": 0.999, "epsilon": 0.001, "center": true, "scale": true, "betaInitializer": {"module": "keras.initializers", "className": "Zeros", "config": {}, "registeredName": null}, "gammaInitializer": {"module": "keras.initializers", "className": "Ones", "config": {}, "registeredName": null}, "movingMeanInitializer": {"module": "keras.initializers", "className": "Zeros", "config": {}, "registeredName": null}, "movingVarianceInitializer": {"module": "keras.initializers", "className": "Ones", "config": {}, "registeredName": null}, "betaRegularizer": null, "gammaRegularizer": null, "betaConstraint": null, "gammaConstraint": null, "synchronized": false}, "name": "block_2_project_BN", "inboundNodes": [{"args": [{"className": "__keras_tensor__", "config": {"shape": [null, 56, 56, 24], "dtype": "float32", "kerasHistory": ["block_2_project", 0, 0]}}], "kwargs": {"mask": null}}]}, {"className": "Add", "config": {"name": "block_2_add", "trainable": false, "dtype": {"module": "keras", "className": "DTypePolicy", "config": {"name": "float32"}, "registeredName": null}}, "name": "block_2_add", "inboundNodes": [{"args": [[{"className": "__keras_tensor__", "config": {"shape": [null, 56, 56, 24], "dtype": "float32", "kerasHistory": ["block_1_project_BN", 0, 0]}}, {"className": "__keras_tensor__", "config": {"shape": [null, 56, 56, 24], "dtype": "float32", "kerasHistory": ["block_2_project_BN", 0, 0]}}]], "kwargs": {}}]}, {"className": "Conv2D", "config": {"name": "block_3_expand", "trainable": false, "dtype": {"module": "keras", "className": "DTypePolicy", "config": {"name": "float32"}, "registeredName": null}, "filters": 144, "kernelSize": [1, 1], "strides": [1, 1], "padding": "same", "dataFormat": "channels_last", "dilationRate": [1, 1], "groups": 1, "activation": "linear", "useBias": false, "kernelInitializer": {"module": "keras.initializers", "className": "GlorotUniform", "config": {"seed": null}, "registeredName": null}, "biasInitializer": {"module": "keras.initializers", "className": "Zeros", "config": {}, "registeredName": null}, "kernelRegularizer": null, "biasRegularizer": null, "activityRegularizer": null, "kernelConstraint": null, "biasConstraint": null}, "name": "block_3_expand", "inboundNodes": [{"args": [{"className": "__keras_tensor__", "config": {"shape": [null, 56, 56, 24], "dtype": "float32", "kerasHistory": ["block_2_add", 0, 0]}}], "kwargs": {}}]}, {"className": "BatchNormalization", "config": {"name": "block_3_expand_BN", "trainable": false, "dtype": {"module": "keras", "className": "DTypePolicy", "config": {"name": "float32"}, "registeredName": null}, "axis": -1, "momentum": 0.999, "epsilon": 0.001, "center": true, "scale": true, "betaInitializer": {"module": "keras.initializers", "className": "Zeros", "config": {}, "registeredName": null}, "gammaInitializer": {"module": "keras.initializers", "className": "Ones", "config": {}, "registeredName": null}, "movingMeanInitializer": {"module": "keras.initializers", "className": "Zeros", "config": {}, "registeredName": null}, "movingVarianceInitializer": {"module": "keras.initializers", "className": "Ones", "config": {}, "registeredName": null}, "betaRegularizer": null, "gammaRegularizer": null, "betaConstraint": null, "gammaConstraint": null, "synchronized": false}, "name": "block_3_expand_BN", "inboundNodes": [{"args": [{"className": "__keras_tensor__", "config": {"shape": [null, 56, 56, 144], "dtype": "float32", "kerasHistory": ["block_3_expand", 0, 0]}}], "kwargs": {"mask": null}}]}, {"className": "ReLU", "config": {"name": "block_3_expand_relu", "trainable": false, "dtype": {"module": "keras", "className": "DTypePolicy", "config": {"name": "float32"}, "registeredName": null}, "maxValue": 6.0, "negativeSlope": 0.0, "threshold": 0.0}, "name": "block_3_expand_relu", "inboundNodes": [{"args": [{"className": "__keras_tensor__", "config": {"shape": [null, 56, 56, 144], "dtype": "float32", "kerasHistory": ["block_3_expand_BN", 0, 0]}}], "kwargs": {}}]}, {"className": "ZeroPadding2D", "config": {"name": "block_3_pad", "trainable": false, "dtype": {"module": "keras", "className": "DTypePolicy", "config": {"name": "float32"}, "registeredName": null}, "padding": [[0, 1], [0, 1]], "dataFormat": "channels_last"}, "name": "block_3_pad", "inboundNodes": [{"args": [{"className": "__keras_tensor__", "config": {"shape": [null, 56, 56, 144], "dtype": "float32", "kerasHistory": ["block_3_expand_relu", 0, 0]}}], "kwargs": {}}]}, {"className": "DepthwiseConv2D", "config": {"name": "block_3_depthwise", "trainable": false, "dtype": {"module": "keras", "className": "DTypePolicy", "config": {"name": "float32"}, "registeredName": null}, "depthMultiplier": 1, "kernelSize": [3, 3], "strides": [2, 2], "padding": "valid", "dataFormat": "channels_last", "dilationRate": [1, 1], "activation": "linear", "useBias": false, "depthwiseInitializer": {"module": "keras.initializers", "className": "GlorotUniform", "config": {"seed": null}, "registeredName": null}, "biasInitializer": {"module": "keras.initializers", "className": "Zeros", "config": {}, "registeredName": null}, "depthwiseRegularizer": null, "biasRegularizer": null, "activityRegularizer": null, "depthwiseConstraint": null, "biasConstraint": null}, "name": "block_3_depthwise", "inboundNodes": [{"args": [{"className": "__keras_tensor__", "config": {"shape": [null, 57, 57, 144], "dtype": "float32", "kerasHistory": ["block_3_pad", 0, 0]}}], "kwargs": {}}]}, {"className": "BatchNormalization", "config": {"name": "block_3_depthwise_BN", "trainable": false, "dtype": {"module": "keras", "className": "DTypePolicy", "config": {"name": "float32"}, "registeredName": null}, "axis": -1, "momentum": 0.999, "epsilon": 0.001, "center": true, "scale": true, "betaInitializer": {"module": "keras.initializers", "className": "Zeros", "config": {}, "registeredName": null}, "gammaInitializer": {"module": "keras.initializers", "className": "Ones", "config": {}, "registeredName": null}, "movingMeanInitializer": {"module": "keras.initializers", "className": "Zeros", "config": {}, "registeredName": null}, "movingVarianceInitializer": {"module": "keras.initializers", "className": "Ones", "config": {}, "registeredName": null}, "betaRegularizer": null, "gammaRegularizer": null, "betaConstraint": null, "gammaConstraint": null, "synchronized": false}, "name": "block_3_depthwise_BN", "inboundNodes": [{"args": [{"className": "__keras_tensor__", "config": {"shape": [null, 28, 28, 144], "dtype": "float32", "kerasHistory": ["block_3_depthwise", 0, 0]}}], "kwargs": {"mask": null}}]}, {"className": "ReLU", "config": {"name": "block_3_depthwise_relu", "trainable": false, "dtype": {"module": "keras", "className": "DTypePolicy", "config": {"name": "float32"}, "registeredName": null}, "maxValue": 6.0, "negativeSlope": 0.0, "threshold": 0.0}, "name": "block_3_depthwise_relu", "inboundNodes": [{"args": [{"className": "__keras_tensor__", "config": {"shape": [null, 28, 28, 144], "dtype": "float32", "kerasHistory": ["block_3_depthwise_BN", 0, 0]}}], "kwargs": {}}]}, {"className": "Conv2D", "config": {"name": "block_3_project", "trainable": false, "dtype": {"module": "keras", "className": "DTypePolicy", "config": {"name": "float32"}, "registeredName": null}, "filters": 32, "kernelSize": [1, 1], "strides": [1, 1], "padding": "same", "dataFormat": "channels_last", "dilationRate": [1, 1], "groups": 1, "activation": "linear", "useBias": false, "kernelInitializer": {"module": "keras.initializers", "className": "GlorotUniform", "config": {"seed": null}, "registeredName": null}, "biasInitializer": {"module": "keras.initializers", "className": "Zeros", "config": {}, "registeredName": null}, "kernelRegularizer": null, "biasRegularizer": null, "activityRegularizer": null, "kernelConstraint": null, "biasConstraint": null}, "name": "block_3_project", "inboundNodes": [{"args": [{"className": "__keras_tensor__", "config": {"shape": [null, 28, 28, 144], "dtype": "float32", "kerasHistory": ["block_3_depthwise_relu", 0, 0]}}], "kwargs": {}}]}, {"className": "BatchNormalization", "config": {"name": "block_3_project_BN", "trainable": false, "dtype": {"module": "keras", "className": "DTypePolicy", "config": {"name": "float32"}, "registeredName": null}, "axis": -1, "momentum": 0.999, "epsilon": 0.001, "center": true, "scale": true, "betaInitializer": {"module": "keras.initializers", "className": "Zeros", "config": {}, "registeredName": null}, "gammaInitializer": {"module": "keras.initializers", "className": "Ones", "config": {}, "registeredName": null}, "movingMeanInitializer": {"module": "keras.initializers", "className": "Zeros", "config": {}, "registeredName": null}, "movingVarianceInitializer": {"module": "keras.initializers", "className": "Ones", "config": {}, "registeredName": null}, "betaRegularizer": null, "gammaRegularizer": null, "betaConstraint": null, "gammaConstraint": null, "synchronized": false}, "name": "block_3_project_BN", "inboundNodes": [{"args": [{"className": "__keras_tensor__", "config": {"shape": [null, 28, 28, 32], "dtype": "float32", "kerasHistory": ["block_3_project", 0, 0]}}], "kwargs": {"mask": null}}]}, {"className": "Conv2D", "config": {"name": "block_4_expand", "trainable": false, "dtype": {"module": "keras", "className": "DTypePolicy", "config": {"name": "float32"}, "registeredName": null}, "filters": 192, "kernelSize": [1, 1], "strides": [1, 1], "padding": "same", "dataFormat": "channels_last", "dilationRate": [1, 1], "groups": 1, "activation": "linear", "useBias": false, "kernelInitializer": {"module": "keras.initializers", "className": "GlorotUniform", "config": {"seed": null}, "registeredName": null}, "biasInitializer": {"module": "keras.initializers", "className": "Zeros", "config": {}, "registeredName": null}, "kernelRegularizer": null, "biasRegularizer": null, "activityRegularizer": null, "kernelConstraint": null, "biasConstraint": null}, "name": "block_4_expand", "inboundNodes": [{"args": [{"className": "__keras_tensor__", "config": {"shape": [null, 28, 28, 32], "dtype": "float32", "kerasHistory": ["block_3_project_BN", 0, 0]}}], "kwargs": {}}]}, {"className": "BatchNormalization", "config": {"name": "block_4_expand_BN", "trainable": false, "dtype": {"module": "keras", "className": "DTypePolicy", "config": {"name": "float32"}, "registeredName": null}, "axis": -1, "momentum": 0.999, "epsilon": 0.001, "center": true, "scale": true, "betaInitializer": {"module": "keras.initializers", "className": "Zeros", "config": {}, "registeredName": null}, "gammaInitializer": {"module": "keras.initializers", "className": "Ones", "config": {}, "registeredName": null}, "movingMeanInitializer": {"module": "keras.initializers", "className": "Zeros", "config": {}, "registeredName": null}, "movingVarianceInitializer": {"module": "keras.initializers", "className": "Ones", "config": {}, "registeredName": null}, "betaRegularizer": null, "gammaRegularizer": null, "betaConstraint": null, "gammaConstraint": null, "synchronized": false}, "name": "block_4_expand_BN", "inboundNodes": [{"args": [{"className": "__keras_tensor__", "config": {"shape": [null, 28, 28, 192], "dtype": "float32", "kerasHistory": ["block_4_expand", 0, 0]}}], "kwargs": {"mask": null}}]}, {"className": "ReLU", "config": {"name": "block_4_expand_relu", "trainable": false, "dtype": {"module": "keras", "className": "DTypePolicy", "config": {"name": "float32"}, "registeredName": null}, "maxValue": 6.0, "negativeSlope": 0.0, "threshold": 0.0}, "name": "block_4_expand_relu", "inboundNodes": [{"args": [{"className": "__keras_tensor__", "config": {"shape": [null, 28, 28, 192], "dtype": "float32", "kerasHistory": ["block_4_expand_BN", 0, 0]}}], "kwargs": {}}]}, {"className": "DepthwiseConv2D", "config": {"name": "block_4_depthwise", "trainable": false, "dtype": {"module": "keras", "className": "DTypePolicy", "config": {"name": "float32"}, "registeredName": null}, "depthMultiplier": 1, "kernelSize": [3, 3], "strides": [1, 1], "padding": "same", "dataFormat": "channels_last", "dilationRate": [1, 1], "activation": "linear", "useBias": false, "depthwiseInitializer": {"module": "keras.initializers", "className": "GlorotUniform", "config": {"seed": null}, "registeredName": null}, "biasInitializer": {"module": "keras.initializers", "className": "Zeros", "config": {}, "registeredName": null}, "depthwiseRegularizer": null, "biasRegularizer": null, "activityRegularizer": null, "depthwiseConstraint": null, "biasConstraint": null}, "name": "block_4_depthwise", "inboundNodes": [{"args": [{"className": "__keras_tensor__", "config": {"shape": [null, 28, 28, 192], "dtype": "float32", "kerasHistory": ["block_4_expand_relu", 0, 0]}}], "kwargs": {}}]}, {"className": "BatchNormalization", "config": {"name": "block_4_depthwise_BN", "trainable": false, "dtype": {"module": "keras", "className": "DTypePolicy", "config": {"name": "float32"}, "registeredName": null}, "axis": -1, "momentum": 0.999, "epsilon": 0.001, "center": true, "scale": true, "betaInitializer": {"module": "keras.initializers", "className": "Zeros", "config": {}, "registeredName": null}, "gammaInitializer": {"module": "keras.initializers", "className": "Ones", "config": {}, "registeredName": null}, "movingMeanInitializer": {"module": "keras.initializers", "className": "Zeros", "config": {}, "registeredName": null}, "movingVarianceInitializer": {"module": "keras.initializers", "className": "Ones", "config": {}, "registeredName": null}, "betaRegularizer": null, "gammaRegularizer": null, "betaConstraint": null, "gammaConstraint": null, "synchronized": false}, "name": "block_4_depthwise_BN", "inboundNodes": [{"args": [{"className": "__keras_tensor__", "config": {"shape": [null, 28, 28, 192], "dtype": "float32", "kerasHistory": ["block_4_depthwise", 0, 0]}}], "kwargs": {"mask": null}}]}, {"className": "ReLU", "config": {"name": "block_4_depthwise_relu", "trainable": false, "dtype": {"module": "keras", "className": "DTypePolicy", "config": {"name": "float32"}, "registeredName": null}, "maxValue": 6.0, "negativeSlope": 0.0, "threshold": 0.0}, "name": "block_4_depthwise_relu", "inboundNodes": [{"args": [{"className": "__keras_tensor__", "config": {"shape": [null, 28, 28, 192], "dtype": "float32", "kerasHistory": ["block_4_depthwise_BN", 0, 0]}}], "kwargs": {}}]}, {"className": "Conv2D", "config": {"name": "block_4_project", "trainable": false, "dtype": {"module": "keras", "className": "DTypePolicy", "config": {"name": "float32"}, "registeredName": null}, "filters": 32, "kernelSize": [1, 1], "strides": [1, 1], "padding": "same", "dataFormat": "channels_last", "dilationRate": [1, 1], "groups": 1, "activation": "linear", "useBias": false, "kernelInitializer": {"module": "keras.initializers", "className": "GlorotUniform", "config": {"seed": null}, "registeredName": null}, "biasInitializer": {"module": "keras.initializers", "className": "Zeros", "config": {}, "registeredName": null}, "kernelRegularizer": null, "biasRegularizer": null, "activityRegularizer": null, "kernelConstraint": null, "biasConstraint": null}, "name": "block_4_project", "inboundNodes": [{"args": [{"className": "__keras_tensor__", "config": {"shape": [null, 28, 28, 192], "dtype": "float32", "kerasHistory": ["block_4_depthwise_relu", 0, 0]}}], "kwargs": {}}]}, {"className": "BatchNormalization", "config": {"name": "block_4_project_BN", "trainable": false, "dtype": {"module": "keras", "className": "DTypePolicy", "config": {"name": "float32"}, "registeredName": null}, "axis": -1, "momentum": 0.999, "epsilon": 0.001, "center": true, "scale": true, "betaInitializer": {"module": "keras.initializers", "className": "Zeros", "config": {}, "registeredName": null}, "gammaInitializer": {"module": "keras.initializers", "className": "Ones", "config": {}, "registeredName": null}, "movingMeanInitializer": {"module": "keras.initializers", "className": "Zeros", "config": {}, "registeredName": null}, "movingVarianceInitializer": {"module": "keras.initializers", "className": "Ones", "config": {}, "registeredName": null}, "betaRegularizer": null, "gammaRegularizer": null, "betaConstraint": null, "gammaConstraint": null, "synchronized": false}, "name": "block_4_project_BN", "inboundNodes": [{"args": [{"className": "__keras_tensor__", "config": {"shape": [null, 28, 28, 32], "dtype": "float32", "kerasHistory": ["block_4_project", 0, 0]}}], "kwargs": {"mask": null}}]}, {"className": "Add", "config": {"name": "block_4_add", "trainable": false, "dtype": {"module": "keras", "className": "DTypePolicy", "config": {"name": "float32"}, "registeredName": null}}, "name": "block_4_add", "inboundNodes": [{"args": [[{"className": "__keras_tensor__", "config": {"shape": [null, 28, 28, 32], "dtype": "float32", "kerasHistory": ["block_3_project_BN", 0, 0]}}, {"className": "__keras_tensor__", "config": {"shape": [null, 28, 28, 32], "dtype": "float32", "kerasHistory": ["block_4_project_BN", 0, 0]}}]], "kwargs": {}}]}, {"className": "Conv2D", "config": {"name": "block_5_expand", "trainable": false, "dtype": {"module": "keras", "className": "DTypePolicy", "config": {"name": "float32"}, "registeredName": null}, "filters": 192, "kernelSize": [1, 1], "strides": [1, 1], "padding": "same", "dataFormat": "channels_last", "dilationRate": [1, 1], "groups": 1, "activation": "linear", "useBias": false, "kernelInitializer": {"module": "keras.initializers", "className": "GlorotUniform", "config": {"seed": null}, "registeredName": null}, "biasInitializer": {"module": "keras.initializers", "className": "Zeros", "config": {}, "registeredName": null}, "kernelRegularizer": null, "biasRegularizer": null, "activityRegularizer": null, "kernelConstraint": null, "biasConstraint": null}, "name": "block_5_expand", "inboundNodes": [{"args": [{"className": "__keras_tensor__", "config": {"shape": [null, 28, 28, 32], "dtype": "float32", "kerasHistory": ["block_4_add", 0, 0]}}], "kwargs": {}}]}, {"className": "BatchNormalization", "config": {"name": "block_5_expand_BN", "trainable": false, "dtype": {"module": "keras", "className": "DTypePolicy", "config": {"name": "float32"}, "registeredName": null}, "axis": -1, "momentum": 0.999, "epsilon": 0.001, "center": true, "scale": true, "betaInitializer": {"module": "keras.initializers", "className": "Zeros", "config": {}, "registeredName": null}, "gammaInitializer": {"module": "keras.initializers", "className": "Ones", "config": {}, "registeredName": null}, "movingMeanInitializer": {"module": "keras.initializers", "className": "Zeros", "config": {}, "registeredName": null}, "movingVarianceInitializer": {"module": "keras.initializers", "className": "Ones", "config": {}, "registeredName": null}, "betaRegularizer": null, "gammaRegularizer": null, "betaConstraint": null, "gammaConstraint": null, "synchronized": false}, "name": "block_5_expand_BN", "inboundNodes": [{"args": [{"className": "__keras_tensor__", "config": {"shape": [null, 28, 28, 192], "dtype": "float32", "kerasHistory": ["block_5_expand", 0, 0]}}], "kwargs": {"mask": null}}]}, {"className": "ReLU", "config": {"name": "block_5_expand_relu", "trainable": false, "dtype": {"module": "keras", "className": "DTypePolicy", "config": {"name": "float32"}, "registeredName": null}, "maxValue": 6.0, "negativeSlope": 0.0, "threshold": 0.0}, "name": "block_5_expand_relu", "inboundNodes": [{"args": [{"className": "__keras_tensor__", "config": {"shape": [null, 28, 28, 192], "dtype": "float32", "kerasHistory": ["block_5_expand_BN", 0, 0]}}], "kwargs": {}}]}, {"className": "DepthwiseConv2D", "config": {"name": "block_5_depthwise", "trainable": false, "dtype": {"module": "keras", "className": "DTypePolicy", "config": {"name": "float32"}, "registeredName": null}, "depthMultiplier": 1, "kernelSize": [3, 3], "strides": [1, 1], "padding": "same", "dataFormat": "channels_last", "dilationRate": [1, 1], "activation": "linear", "useBias": false, "depthwiseInitializer": {"module": "keras.initializers", "className": "GlorotUniform", "config": {"seed": null}, "registeredName": null}, "biasInitializer": {"module": "keras.initializers", "className": "Zeros", "config": {}, "registeredName": null}, "depthwiseRegularizer": null, "biasRegularizer": null, "activityRegularizer": null, "depthwiseConstraint": null, "biasConstraint": null}, "name": "block_5_depthwise", "inboundNodes": [{"args": [{"className": "__keras_tensor__", "config": {"shape": [null, 28, 28, 192], "dtype": "float32", "kerasHistory": ["block_5_expand_relu", 0, 0]}}], "kwargs": {}}]}, {"className": "BatchNormalization", "config": {"name": "block_5_depthwise_BN", "trainable": false, "dtype": {"module": "keras", "className": "DTypePolicy", "config": {"name": "float32"}, "registeredName": null}, "axis": -1, "momentum": 0.999, "epsilon": 0.001, "center": true, "scale": true, "betaInitializer": {"module": "keras.initializers", "className": "Zeros", "config": {}, "registeredName": null}, "gammaInitializer": {"module": "keras.initializers", "className": "Ones", "config": {}, "registeredName": null}, "movingMeanInitializer": {"module": "keras.initializers", "className": "Zeros", "config": {}, "registeredName": null}, "movingVarianceInitializer": {"module": "keras.initializers", "className": "Ones", "config": {}, "registeredName": null}, "betaRegularizer": null, "gammaRegularizer": null, "betaConstraint": null, "gammaConstraint": null, "synchronized": false}, "name": "block_5_depthwise_BN", "inboundNodes": [{"args": [{"className": "__keras_tensor__", "config": {"shape": [null, 28, 28, 192], "dtype": "float32", "kerasHistory": ["block_5_depthwise", 0, 0]}}], "kwargs": {"mask": null}}]}, {"className": "ReLU", "config": {"name": "block_5_depthwise_relu", "trainable": false, "dtype": {"module": "keras", "className": "DTypePolicy", "config": {"name": "float32"}, "registeredName": null}, "maxValue": 6.0, "negativeSlope": 0.0, "threshold": 0.0}, "name": "block_5_depthwise_relu", "inboundNodes": [{"args": [{"className": "__keras_tensor__", "config": {"shape": [null, 28, 28, 192], "dtype": "float32", "kerasHistory": ["block_5_depthwise_BN", 0, 0]}}], "kwargs": {}}]}, {"className": "Conv2D", "config": {"name": "block_5_project", "trainable": false, "dtype": {"module": "keras", "className": "DTypePolicy", "config": {"name": "float32"}, "registeredName": null}, "filters": 32, "kernelSize": [1, 1], "strides": [1, 1], "padding": "same", "dataFormat": "channels_last", "dilationRate": [1, 1], "groups": 1, "activation": "linear", "useBias": false, "kernelInitializer": {"module": "keras.initializers", "className": "GlorotUniform", "config": {"seed": null}, "registeredName": null}, "biasInitializer": {"module": "keras.initializers", "className": "Zeros", "config": {}, "registeredName": null}, "kernelRegularizer": null, "biasRegularizer": null, "activityRegularizer": null, "kernelConstraint": null, "biasConstraint": null}, "name": "block_5_project", "inboundNodes": [{"args": [{"className": "__keras_tensor__", "config": {"shape": [null, 28, 28, 192], "dtype": "float32", "kerasHistory": ["block_5_depthwise_relu", 0, 0]}}], "kwargs": {}}]}, {"className": "BatchNormalization", "config": {"name": "block_5_project_BN", "trainable": false, "dtype": {"module": "keras", "className": "DTypePolicy", "config": {"name": "float32"}, "registeredName": null}, "axis": -1, "momentum": 0.999, "epsilon": 0.001, "center": true, "scale": true, "betaInitializer": {"module": "keras.initializers", "className": "Zeros", "config": {}, "registeredName": null}, "gammaInitializer": {"module": "keras.initializers", "className": "Ones", "config": {}, "registeredName": null}, "movingMeanInitializer": {"module": "keras.initializers", "className": "Zeros", "config": {}, "registeredName": null}, "movingVarianceInitializer": {"module": "keras.initializers", "className": "Ones", "config": {}, "registeredName": null}, "betaRegularizer": null, "gammaRegularizer": null, "betaConstraint": null, "gammaConstraint": null, "synchronized": false}, "name": "block_5_project_BN", "inboundNodes": [{"args": [{"className": "__keras_tensor__", "config": {"shape": [null, 28, 28, 32], "dtype": "float32", "kerasHistory": ["block_5_project", 0, 0]}}], "kwargs": {"mask": null}}]}, {"className": "Add", "config": {"name": "block_5_add", "trainable": false, "dtype": {"module": "keras", "className": "DTypePolicy", "config": {"name": "float32"}, "registeredName": null}}, "name": "block_5_add", "inboundNodes": [{"args": [[{"className": "__keras_tensor__", "config": {"shape": [null, 28, 28, 32], "dtype": "float32", "kerasHistory": ["block_4_add", 0, 0]}}, {"className": "__keras_tensor__", "config": {"shape": [null, 28, 28, 32], "dtype": "float32", "kerasHistory": ["block_5_project_BN", 0, 0]}}]], "kwargs": {}}]}, {"className": "Conv2D", "config": {"name": "block_6_expand", "trainable": true, "dtype": {"module": "keras", "className": "DTypePolicy", "config": {"name": "float32"}, "registeredName": null}, "filters": 192, "kernelSize": [1, 1], "strides": [1, 1], "padding": "same", "dataFormat": "channels_last", "dilationRate": [1, 1], "groups": 1, "activation": "linear", "useBias": false, "kernelInitializer": {"module": "keras.initializers", "className": "GlorotUniform", "config": {"seed": null}, "registeredName": null}, "biasInitializer": {"module": "keras.initializers", "className": "Zeros", "config": {}, "registeredName": null}, "kernelRegularizer": null, "biasRegularizer": null, "activityRegularizer": null, "kernelConstraint": null, "biasConstraint": null}, "name": "block_6_expand", "inboundNodes": [{"args": [{"className": "__keras_tensor__", "config": {"shape": [null, 28, 28, 32], "dtype": "float32", "kerasHistory": ["block_5_add", 0, 0]}}], "kwargs": {}}]}, {"className": "BatchNormalization", "config": {"name": "block_6_expand_BN", "trainable": true, "dtype": {"module": "keras", "className": "DTypePolicy", "config": {"name": "float32"}, "registeredName": null}, "axis": -1, "momentum": 0.999, "epsilon": 0.001, "center": true, "scale": true, "betaInitializer": {"module": "keras.initializers", "className": "Zeros", "config": {}, "registeredName": null}, "gammaInitializer": {"module": "keras.initializers", "className": "Ones", "config": {}, "registeredName": null}, "movingMeanInitializer": {"module": "keras.initializers", "className": "Zeros", "config": {}, "registeredName": null}, "movingVarianceInitializer": {"module": "keras.initializers", "className": "Ones", "config": {}, "registeredName": null}, "betaRegularizer": null, "gammaRegularizer": null, "betaConstraint": null, "gammaConstraint": null, "synchronized": false}, "name": "block_6_expand_BN", "inboundNodes": [{"args": [{"className": "__keras_tensor__", "config": {"shape": [null, 28, 28, 192], "dtype": "float32", "kerasHistory": ["block_6_expand", 0, 0]}}], "kwargs": {"mask": null}}]}, {"className": "ReLU", "config": {"name": "block_6_expand_relu", "trainable": true, "dtype": {"module": "keras", "className": "DTypePolicy", "config": {"name": "float32"}, "registeredName": null}, "maxValue": 6.0, "negativeSlope": 0.0, "threshold": 0.0}, "name": "block_6_expand_relu", "inboundNodes": [{"args": [{"className": "__keras_tensor__", "config": {"shape": [null, 28, 28, 192], "dtype": "float32", "kerasHistory": ["block_6_expand_BN", 0, 0]}}], "kwargs": {}}]}, {"className": "ZeroPadding2D", "config": {"name": "block_6_pad", "trainable": true, "dtype": {"module": "keras", "className": "DTypePolicy", "config": {"name": "float32"}, "registeredName": null}, "padding": [[0, 1], [0, 1]], "dataFormat": "channels_last"}, "name": "block_6_pad", "inboundNodes": [{"args": [{"className": "__keras_tensor__", "config": {"shape": [null, 28, 28, 192], "dtype": "float32", "kerasHistory": ["block_6_expand_relu", 0, 0]}}], "kwargs": {}}]}, {"className": "DepthwiseConv2D", "config": {"name": "block_6_depthwise", "trainable": true, "dtype": {"module": "keras", "className": "DTypePolicy", "config": {"name": "float32"}, "registeredName": null}, "depthMultiplier": 1, "kernelSize": [3, 3], "strides": [2, 2], "padding": "valid", "dataFormat": "channels_last", "dilationRate": [1, 1], "activation": "linear", "useBias": false, "depthwiseInitializer": {"module": "keras.initializers", "className": "GlorotUniform", "config": {"seed": null}, "registeredName": null}, "biasInitializer": {"module": "keras.initializers", "className": "Zeros", "config": {}, "registeredName": null}, "depthwiseRegularizer": null, "biasRegularizer": null, "activityRegularizer": null, "depthwiseConstraint": null, "biasConstraint": null}, "name": "block_6_depthwise", "inboundNodes": [{"args": [{"className": "__keras_tensor__", "config": {"shape": [null, 29, 29, 192], "dtype": "float32", "kerasHistory": ["block_6_pad", 0, 0]}}], "kwargs": {}}]}, {"className": "BatchNormalization", "config": {"name": "block_6_depthwise_BN", "trainable": true, "dtype": {"module": "keras", "className": "DTypePolicy", "config": {"name": "float32"}, "registeredName": null}, "axis": -1, "momentum": 0.999, "epsilon": 0.001, "center": true, "scale": true, "betaInitializer": {"module": "keras.initializers", "className": "Zeros", "config": {}, "registeredName": null}, "gammaInitializer": {"module": "keras.initializers", "className": "Ones", "config": {}, "registeredName": null}, "movingMeanInitializer": {"module": "keras.initializers", "className": "Zeros", "config": {}, "registeredName": null}, "movingVarianceInitializer": {"module": "keras.initializers", "className": "Ones", "config": {}, "registeredName": null}, "betaRegularizer": null, "gammaRegularizer": null, "betaConstraint": null, "gammaConstraint": null, "synchronized": false}, "name": "block_6_depthwise_BN", "inboundNodes": [{"args": [{"className": "__keras_tensor__", "config": {"shape": [null, 14, 14, 192], "dtype": "float32", "kerasHistory": ["block_6_depthwise", 0, 0]}}], "kwargs": {"mask": null}}]}, {"className": "ReLU", "config": {"name": "block_6_depthwise_relu", "trainable": true, "dtype": {"module": "keras", "className": "DTypePolicy", "config": {"name": "float32"}, "registeredName": null}, "maxValue": 6.0, "negativeSlope": 0.0, "threshold": 0.0}, "name": "block_6_depthwise_relu", "inboundNodes": [{"args": [{"className": "__keras_tensor__", "config": {"shape": [null, 14, 14, 192], "dtype": "float32", "kerasHistory": ["block_6_depthwise_BN", 0, 0]}}], "kwargs": {}}]}, {"className": "Conv2D", "config": {"name": "block_6_project", "trainable": true, "dtype": {"module": "keras", "className": "DTypePolicy", "config": {"name": "float32"}, "registeredName": null}, "filters": 64, "kernelSize": [1, 1], "strides": [1, 1], "padding": "same", "dataFormat": "channels_last", "dilationRate": [1, 1], "groups": 1, "activation": "linear", "useBias": false, "kernelInitializer": {"module": "keras.initializers", "className": "GlorotUniform", "config": {"seed": null}, "registeredName": null}, "biasInitializer": {"module": "keras.initializers", "className": "Zeros", "config": {}, "registeredName": null}, "kernelRegularizer": null, "biasRegularizer": null, "activityRegularizer": null, "kernelConstraint": null, "biasConstraint": null}, "name": "block_6_project", "inboundNodes": [{"args": [{"className": "__keras_tensor__", "config": {"shape": [null, 14, 14, 192], "dtype": "float32", "kerasHistory": ["block_6_depthwise_relu", 0, 0]}}], "kwargs": {}}]}, {"className": "BatchNormalization", "config": {"name": "block_6_project_BN", "trainable": true, "dtype": {"module": "keras", "className": "DTypePolicy", "config": {"name": "float32"}, "registeredName": null}, "axis": -1, "momentum": 0.999, "epsilon": 0.001, "center": true, "scale": true, "betaInitializer": {"module": "keras.initializers", "className": "Zeros", "config": {}, "registeredName": null}, "gammaInitializer": {"module": "keras.initializers", "className": "Ones", "config": {}, "registeredName": null}, "movingMeanInitializer": {"module": "keras.initializers", "className": "Zeros", "config": {}, "registeredName": null}, "movingVarianceInitializer": {"module": "keras.initializers", "className": "Ones", "config": {}, "registeredName": null}, "betaRegularizer": null, "gammaRegularizer": null, "betaConstraint": null, "gammaConstraint": null, "synchronized": false}, "name": "block_6_project_BN", "inboundNodes": [{"args": [{"className": "__keras_tensor__", "config": {"shape": [null, 14, 14, 64], "dtype": "float32", "kerasHistory": ["block_6_project", 0, 0]}}], "kwargs": {"mask": null}}]}, {"className": "Conv2D", "config": {"name": "block_7_expand", "trainable": true, "dtype": {"module": "keras", "className": "DTypePolicy", "config": {"name": "float32"}, "registeredName": null}, "filters": 384, "kernelSize": [1, 1], "strides": [1, 1], "padding": "same", "dataFormat": "channels_last", "dilationRate": [1, 1], "groups": 1, "activation": "linear", "useBias": false, "kernelInitializer": {"module": "keras.initializers", "className": "GlorotUniform", "config": {"seed": null}, "registeredName": null}, "biasInitializer": {"module": "keras.initializers", "className": "Zeros", "config": {}, "registeredName": null}, "kernelRegularizer": null, "biasRegularizer": null, "activityRegularizer": null, "kernelConstraint": null, "biasConstraint": null}, "name": "block_7_expand", "inboundNodes": [{"args": [{"className": "__keras_tensor__", "config": {"shape": [null, 14, 14, 64], "dtype": "float32", "kerasHistory": ["block_6_project_BN", 0, 0]}}], "kwargs": {}}]}, {"className": "BatchNormalization", "config": {"name": "block_7_expand_BN", "trainable": true, "dtype": {"module": "keras", "className": "DTypePolicy", "config": {"name": "float32"}, "registeredName": null}, "axis": -1, "momentum": 0.999, "epsilon": 0.001, "center": true, "scale": true, "betaInitializer": {"module": "keras.initializers", "className": "Zeros", "config": {}, "registeredName": null}, "gammaInitializer": {"module": "keras.initializers", "className": "Ones", "config": {}, "registeredName": null}, "movingMeanInitializer": {"module": "keras.initializers", "className": "Zeros", "config": {}, "registeredName": null}, "movingVarianceInitializer": {"module": "keras.initializers", "className": "Ones", "config": {}, "registeredName": null}, "betaRegularizer": null, "gammaRegularizer": null, "betaConstraint": null, "gammaConstraint": null, "synchronized": false}, "name": "block_7_expand_BN", "inboundNodes": [{"args": [{"className": "__keras_tensor__", "config": {"shape": [null, 14, 14, 384], "dtype": "float32", "kerasHistory": ["block_7_expand", 0, 0]}}], "kwargs": {"mask": null}}]}, {"className": "ReLU", "config": {"name": "block_7_expand_relu", "trainable": true, "dtype": {"module": "keras", "className": "DTypePolicy", "config": {"name": "float32"}, "registeredName": null}, "maxValue": 6.0, "negativeSlope": 0.0, "threshold": 0.0}, "name": "block_7_expand_relu", "inboundNodes": [{"args": [{"className": "__keras_tensor__", "config": {"shape": [null, 14, 14, 384], "dtype": "float32", "kerasHistory": ["block_7_expand_BN", 0, 0]}}], "kwargs": {}}]}, {"className": "DepthwiseConv2D", "config": {"name": "block_7_depthwise", "trainable": true, "dtype": {"module": "keras", "className": "DTypePolicy", "config": {"name": "float32"}, "registeredName": null}, "depthMultiplier": 1, "kernelSize": [3, 3], "strides": [1, 1], "padding": "same", "dataFormat": "channels_last", "dilationRate": [1, 1], "activation": "linear", "useBias": false, "depthwiseInitializer": {"module": "keras.initializers", "className": "GlorotUniform", "config": {"seed": null}, "registeredName": null}, "biasInitializer": {"module": "keras.initializers", "className": "Zeros", "config": {}, "registeredName": null}, "depthwiseRegularizer": null, "biasRegularizer": null, "activityRegularizer": null, "depthwiseConstraint": null, "biasConstraint": null}, "name": "block_7_depthwise", "inboundNodes": [{"args": [{"className": "__keras_tensor__", "config": {"shape": [null, 14, 14, 384], "dtype": "float32", "kerasHistory": ["block_7_expand_relu", 0, 0]}}], "kwargs": {}}]}, {"className": "BatchNormalization", "config": {"name": "block_7_depthwise_BN", "trainable": true, "dtype": {"module": "keras", "className": "DTypePolicy", "config": {"name": "float32"}, "registeredName": null}, "axis": -1, "momentum": 0.999, "epsilon": 0.001, "center": true, "scale": true, "betaInitializer": {"module": "keras.initializers", "className": "Zeros", "config": {}, "registeredName": null}, "gammaInitializer": {"module": "keras.initializers", "className": "Ones", "config": {}, "registeredName": null}, "movingMeanInitializer": {"module": "keras.initializers", "className": "Zeros", "config": {}, "registeredName": null}, "movingVarianceInitializer": {"module": "keras.initializers", "className": "Ones", "config": {}, "registeredName": null}, "betaRegularizer": null, "gammaRegularizer": null, "betaConstraint": null, "gammaConstraint": null, "synchronized": false}, "name": "block_7_depthwise_BN", "inboundNodes": [{"args": [{"className": "__keras_tensor__", "config": {"shape": [null, 14, 14, 384], "dtype": "float32", "kerasHistory": ["block_7_depthwise", 0, 0]}}], "kwargs": {"mask": null}}]}, {"className": "ReLU", "config": {"name": "block_7_depthwise_relu", "trainable": true, "dtype": {"module": "keras", "className": "DTypePolicy", "config": {"name": "float32"}, "registeredName": null}, "maxValue": 6.0, "negativeSlope": 0.0, "threshold": 0.0}, "name": "block_7_depthwise_relu", "inboundNodes": [{"args": [{"className": "__keras_tensor__", "config": {"shape": [null, 14, 14, 384], "dtype": "float32", "kerasHistory": ["block_7_depthwise_BN", 0, 0]}}], "kwargs": {}}]}, {"className": "Conv2D", "config": {"name": "block_7_project", "trainable": true, "dtype": {"module": "keras", "className": "DTypePolicy", "config": {"name": "float32"}, "registeredName": null}, "filters": 64, "kernelSize": [1, 1], "strides": [1, 1], "padding": "same", "dataFormat": "channels_last", "dilationRate": [1, 1], "groups": 1, "activation": "linear", "useBias": false, "kernelInitializer": {"module": "keras.initializers", "className": "GlorotUniform", "config": {"seed": null}, "registeredName": null}, "biasInitializer": {"module": "keras.initializers", "className": "Zeros", "config": {}, "registeredName": null}, "kernelRegularizer": null, "biasRegularizer": null, "activityRegularizer": null, "kernelConstraint": null, "biasConstraint": null}, "name": "block_7_project", "inboundNodes": [{"args": [{"className": "__keras_tensor__", "config": {"shape": [null, 14, 14, 384], "dtype": "float32", "kerasHistory": ["block_7_depthwise_relu", 0, 0]}}], "kwargs": {}}]}, {"className": "BatchNormalization", "config": {"name": "block_7_project_BN", "trainable": true, "dtype": {"module": "keras", "className": "DTypePolicy", "config": {"name": "float32"}, "registeredName": null}, "axis": -1, "momentum": 0.999, "epsilon": 0.001, "center": true, "scale": true, "betaInitializer": {"module": "keras.initializers", "className": "Zeros", "config": {}, "registeredName": null}, "gammaInitializer": {"module": "keras.initializers", "className": "Ones", "config": {}, "registeredName": null}, "movingMeanInitializer": {"module": "keras.initializers", "className": "Zeros", "config": {}, "registeredName": null}, "movingVarianceInitializer": {"module": "keras.initializers", "className": "Ones", "config": {}, "registeredName": null}, "betaRegularizer": null, "gammaRegularizer": null, "betaConstraint": null, "gammaConstraint": null, "synchronized": false}, "name": "block_7_project_BN", "inboundNodes": [{"args": [{"className": "__keras_tensor__", "config": {"shape": [null, 14, 14, 64], "dtype": "float32", "kerasHistory": ["block_7_project", 0, 0]}}], "kwargs": {"mask": null}}]}, {"className": "Add", "config": {"name": "block_7_add", "trainable": true, "dtype": {"module": "keras", "className": "DTypePolicy", "config": {"name": "float32"}, "registeredName": null}}, "name": "block_7_add", "inboundNodes": [{"args": [[{"className": "__keras_tensor__", "config": {"shape": [null, 14, 14, 64], "dtype": "float32", "kerasHistory": ["block_6_project_BN", 0, 0]}}, {"className": "__keras_tensor__", "config": {"shape": [null, 14, 14, 64], "dtype": "float32", "kerasHistory": ["block_7_project_BN", 0, 0]}}]], "kwargs": {}}]}, {"className": "Conv2D", "config": {"name": "block_8_expand", "trainable": true, "dtype": {"module": "keras", "className": "DTypePolicy", "config": {"name": "float32"}, "registeredName": null}, "filters": 384, "kernelSize": [1, 1], "strides": [1, 1], "padding": "same", "dataFormat": "channels_last", "dilationRate": [1, 1], "groups": 1, "activation": "linear", "useBias": false, "kernelInitializer": {"module": "keras.initializers", "className": "GlorotUniform", "config": {"seed": null}, "registeredName": null}, "biasInitializer": {"module": "keras.initializers", "className": "Zeros", "config": {}, "registeredName": null}, "kernelRegularizer": null, "biasRegularizer": null, "activityRegularizer": null, "kernelConstraint": null, "biasConstraint": null}, "name": "block_8_expand", "inboundNodes": [{"args": [{"className": "__keras_tensor__", "config": {"shape": [null, 14, 14, 64], "dtype": "float32", "kerasHistory": ["block_7_add", 0, 0]}}], "kwargs": {}}]}, {"className": "BatchNormalization", "config": {"name": "block_8_expand_BN", "trainable": true, "dtype": {"module": "keras", "className": "DTypePolicy", "config": {"name": "float32"}, "registeredName": null}, "axis": -1, "momentum": 0.999, "epsilon": 0.001, "center": true, "scale": true, "betaInitializer": {"module": "keras.initializers", "className": "Zeros", "config": {}, "registeredName": null}, "gammaInitializer": {"module": "keras.initializers", "className": "Ones", "config": {}, "registeredName": null}, "movingMeanInitializer": {"module": "keras.initializers", "className": "Zeros", "config": {}, "registeredName": null}, "movingVarianceInitializer": {"module": "keras.initializers", "className": "Ones", "config": {}, "registeredName": null}, "betaRegularizer": null, "gammaRegularizer": null, "betaConstraint": null, "gammaConstraint": null, "synchronized": false}, "name": "block_8_expand_BN", "inboundNodes": [{"args": [{"className": "__keras_tensor__", "config": {"shape": [null, 14, 14, 384], "dtype": "float32", "kerasHistory": ["block_8_expand", 0, 0]}}], "kwargs": {"mask": null}}]}, {"className": "ReLU", "config": {"name": "block_8_expand_relu", "trainable": true, "dtype": {"module": "keras", "className": "DTypePolicy", "config": {"name": "float32"}, "registeredName": null}, "maxValue": 6.0, "negativeSlope": 0.0, "threshold": 0.0}, "name": "block_8_expand_relu", "inboundNodes": [{"args": [{"className": "__keras_tensor__", "config": {"shape": [null, 14, 14, 384], "dtype": "float32", "kerasHistory": ["block_8_expand_BN", 0, 0]}}], "kwargs": {}}]}, {"className": "DepthwiseConv2D", "config": {"name": "block_8_depthwise", "trainable": true, "dtype": {"module": "keras", "className": "DTypePolicy", "config": {"name": "float32"}, "registeredName": null}, "depthMultiplier": 1, "kernelSize": [3, 3], "strides": [1, 1], "padding": "same", "dataFormat": "channels_last", "dilationRate": [1, 1], "activation": "linear", "useBias": false, "depthwiseInitializer": {"module": "keras.initializers", "className": "GlorotUniform", "config": {"seed": null}, "registeredName": null}, "biasInitializer": {"module": "keras.initializers", "className": "Zeros", "config": {}, "registeredName": null}, "depthwiseRegularizer": null, "biasRegularizer": null, "activityRegularizer": null, "depthwiseConstraint": null, "biasConstraint": null}, "name": "block_8_depthwise", "inboundNodes": [{"args": [{"className": "__keras_tensor__", "config": {"shape": [null, 14, 14, 384], "dtype": "float32", "kerasHistory": ["block_8_expand_relu", 0, 0]}}], "kwargs": {}}]}, {"className": "BatchNormalization", "config": {"name": "block_8_depthwise_BN", "trainable": true, "dtype": {"module": "keras", "className": "DTypePolicy", "config": {"name": "float32"}, "registeredName": null}, "axis": -1, "momentum": 0.999, "epsilon": 0.001, "center": true, "scale": true, "betaInitializer": {"module": "keras.initializers", "className": "Zeros", "config": {}, "registeredName": null}, "gammaInitializer": {"module": "keras.initializers", "className": "Ones", "config": {}, "registeredName": null}, "movingMeanInitializer": {"module": "keras.initializers", "className": "Zeros", "config": {}, "registeredName": null}, "movingVarianceInitializer": {"module": "keras.initializers", "className": "Ones", "config": {}, "registeredName": null}, "betaRegularizer": null, "gammaRegularizer": null, "betaConstraint": null, "gammaConstraint": null, "synchronized": false}, "name": "block_8_depthwise_BN", "inboundNodes": [{"args": [{"className": "__keras_tensor__", "config": {"shape": [null, 14, 14, 384], "dtype": "float32", "kerasHistory": ["block_8_depthwise", 0, 0]}}], "kwargs": {"mask": null}}]}, {"className": "ReLU", "config": {"name": "block_8_depthwise_relu", "trainable": true, "dtype": {"module": "keras", "className": "DTypePolicy", "config": {"name": "float32"}, "registeredName": null}, "maxValue": 6.0, "negativeSlope": 0.0, "threshold": 0.0}, "name": "block_8_depthwise_relu", "inboundNodes": [{"args": [{"className": "__keras_tensor__", "config": {"shape": [null, 14, 14, 384], "dtype": "float32", "kerasHistory": ["block_8_depthwise_BN", 0, 0]}}], "kwargs": {}}]}, {"className": "Conv2D", "config": {"name": "block_8_project", "trainable": true, "dtype": {"module": "keras", "className": "DTypePolicy", "config": {"name": "float32"}, "registeredName": null}, "filters": 64, "kernelSize": [1, 1], "strides": [1, 1], "padding": "same", "dataFormat": "channels_last", "dilationRate": [1, 1], "groups": 1, "activation": "linear", "useBias": false, "kernelInitializer": {"module": "keras.initializers", "className": "GlorotUniform", "config": {"seed": null}, "registeredName": null}, "biasInitializer": {"module": "keras.initializers", "className": "Zeros", "config": {}, "registeredName": null}, "kernelRegularizer": null, "biasRegularizer": null, "activityRegularizer": null, "kernelConstraint": null, "biasConstraint": null}, "name": "block_8_project", "inboundNodes": [{"args": [{"className": "__keras_tensor__", "config": {"shape": [null, 14, 14, 384], "dtype": "float32", "kerasHistory": ["block_8_depthwise_relu", 0, 0]}}], "kwargs": {}}]}, {"className": "BatchNormalization", "config": {"name": "block_8_project_BN", "trainable": true, "dtype": {"module": "keras", "className": "DTypePolicy", "config": {"name": "float32"}, "registeredName": null}, "axis": -1, "momentum": 0.999, "epsilon": 0.001, "center": true, "scale": true, "betaInitializer": {"module": "keras.initializers", "className": "Zeros", "config": {}, "registeredName": null}, "gammaInitializer": {"module": "keras.initializers", "className": "Ones", "config": {}, "registeredName": null}, "movingMeanInitializer": {"module": "keras.initializers", "className": "Zeros", "config": {}, "registeredName": null}, "movingVarianceInitializer": {"module": "keras.initializers", "className": "Ones", "config": {}, "registeredName": null}, "betaRegularizer": null, "gammaRegularizer": null, "betaConstraint": null, "gammaConstraint": null, "synchronized": false}, "name": "block_8_project_BN", "inboundNodes": [{"args": [{"className": "__keras_tensor__", "config": {"shape": [null, 14, 14, 64], "dtype": "float32", "kerasHistory": ["block_8_project", 0, 0]}}], "kwargs": {"mask": null}}]}, {"className": "Add", "config": {"name": "block_8_add", "trainable": true, "dtype": {"module": "keras", "className": "DTypePolicy", "config": {"name": "float32"}, "registeredName": null}}, "name": "block_8_add", "inboundNodes": [{"args": [[{"className": "__keras_tensor__", "config": {"shape": [null, 14, 14, 64], "dtype": "float32", "kerasHistory": ["block_7_add", 0, 0]}}, {"className": "__keras_tensor__", "config": {"shape": [null, 14, 14, 64], "dtype": "float32", "kerasHistory": ["block_8_project_BN", 0, 0]}}]], "kwargs": {}}]}, {"className": "Conv2D", "config": {"name": "block_9_expand", "trainable": true, "dtype": {"module": "keras", "className": "DTypePolicy", "config": {"name": "float32"}, "registeredName": null}, "filters": 384, "kernelSize": [1, 1], "strides": [1, 1], "padding": "same", "dataFormat": "channels_last", "dilationRate": [1, 1], "groups": 1, "activation": "linear", "useBias": false, "kernelInitializer": {"module": "keras.initializers", "className": "GlorotUniform", "config": {"seed": null}, "registeredName": null}, "biasInitializer": {"module": "keras.initializers", "className": "Zeros", "config": {}, "registeredName": null}, "kernelRegularizer": null, "biasRegularizer": null, "activityRegularizer": null, "kernelConstraint": null, "biasConstraint": null}, "name": "block_9_expand", "inboundNodes": [{"args": [{"className": "__keras_tensor__", "config": {"shape": [null, 14, 14, 64], "dtype": "float32", "kerasHistory": ["block_8_add", 0, 0]}}], "kwargs": {}}]}, {"className": "BatchNormalization", "config": {"name": "block_9_expand_BN", "trainable": true, "dtype": {"module": "keras", "className": "DTypePolicy", "config": {"name": "float32"}, "registeredName": null}, "axis": -1, "momentum": 0.999, "epsilon": 0.001, "center": true, "scale": true, "betaInitializer": {"module": "keras.initializers", "className": "Zeros", "config": {}, "registeredName": null}, "gammaInitializer": {"module": "keras.initializers", "className": "Ones", "config": {}, "registeredName": null}, "movingMeanInitializer": {"module": "keras.initializers", "className": "Zeros", "config": {}, "registeredName": null}, "movingVarianceInitializer": {"module": "keras.initializers", "className": "Ones", "config": {}, "registeredName": null}, "betaRegularizer": null, "gammaRegularizer": null, "betaConstraint": null, "gammaConstraint": null, "synchronized": false}, "name": "block_9_expand_BN", "inboundNodes": [{"args": [{"className": "__keras_tensor__", "config": {"shape": [null, 14, 14, 384], "dtype": "float32", "kerasHistory": ["block_9_expand", 0, 0]}}], "kwargs": {"mask": null}}]}, {"className": "ReLU", "config": {"name": "block_9_expand_relu", "trainable": true, "dtype": {"module": "keras", "className": "DTypePolicy", "config": {"name": "float32"}, "registeredName": null}, "maxValue": 6.0, "negativeSlope": 0.0, "threshold": 0.0}, "name": "block_9_expand_relu", "inboundNodes": [{"args": [{"className": "__keras_tensor__", "config": {"shape": [null, 14, 14, 384], "dtype": "float32", "kerasHistory": ["block_9_expand_BN", 0, 0]}}], "kwargs": {}}]}, {"className": "DepthwiseConv2D", "config": {"name": "block_9_depthwise", "trainable": true, "dtype": {"module": "keras", "className": "DTypePolicy", "config": {"name": "float32"}, "registeredName": null}, "depthMultiplier": 1, "kernelSize": [3, 3], "strides": [1, 1], "padding": "same", "dataFormat": "channels_last", "dilationRate": [1, 1], "activation": "linear", "useBias": false, "depthwiseInitializer": {"module": "keras.initializers", "className": "GlorotUniform", "config": {"seed": null}, "registeredName": null}, "biasInitializer": {"module": "keras.initializers", "className": "Zeros", "config": {}, "registeredName": null}, "depthwiseRegularizer": null, "biasRegularizer": null, "activityRegularizer": null, "depthwiseConstraint": null, "biasConstraint": null}, "name": "block_9_depthwise", "inboundNodes": [{"args": [{"className": "__keras_tensor__", "config": {"shape": [null, 14, 14, 384], "dtype": "float32", "kerasHistory": ["block_9_expand_relu", 0, 0]}}], "kwargs": {}}]}, {"className": "BatchNormalization", "config": {"name": "block_9_depthwise_BN", "trainable": true, "dtype": {"module": "keras", "className": "DTypePolicy", "config": {"name": "float32"}, "registeredName": null}, "axis": -1, "momentum": 0.999, "epsilon": 0.001, "center": true, "scale": true, "betaInitializer": {"module": "keras.initializers", "className": "Zeros", "config": {}, "registeredName": null}, "gammaInitializer": {"module": "keras.initializers", "className": "Ones", "config": {}, "registeredName": null}, "movingMeanInitializer": {"module": "keras.initializers", "className": "Zeros", "config": {}, "registeredName": null}, "movingVarianceInitializer": {"module": "keras.initializers", "className": "Ones", "config": {}, "registeredName": null}, "betaRegularizer": null, "gammaRegularizer": null, "betaConstraint": null, "gammaConstraint": null, "synchronized": false}, "name": "block_9_depthwise_BN", "inboundNodes": [{"args": [{"className": "__keras_tensor__", "config": {"shape": [null, 14, 14, 384], "dtype": "float32", "kerasHistory": ["block_9_depthwise", 0, 0]}}], "kwargs": {"mask": null}}]}, {"className": "ReLU", "config": {"name": "block_9_depthwise_relu", "trainable": true, "dtype": {"module": "keras", "className": "DTypePolicy", "config": {"name": "float32"}, "registeredName": null}, "maxValue": 6.0, "negativeSlope": 0.0, "threshold": 0.0}, "name": "block_9_depthwise_relu", "inboundNodes": [{"args": [{"className": "__keras_tensor__", "config": {"shape": [null, 14, 14, 384], "dtype": "float32", "kerasHistory": ["block_9_depthwise_BN", 0, 0]}}], "kwargs": {}}]}, {"className": "Conv2D", "config": {"name": "block_9_project", "trainable": true, "dtype": {"module": "keras", "className": "DTypePolicy", "config": {"name": "float32"}, "registeredName": null}, "filters": 64, "kernelSize": [1, 1], "strides": [1, 1], "padding": "same", "dataFormat": "channels_last", "dilationRate": [1, 1], "groups": 1, "activation": "linear", "useBias": false, "kernelInitializer": {"module": "keras.initializers", "className": "GlorotUniform", "config": {"seed": null}, "registeredName": null}, "biasInitializer": {"module": "keras.initializers", "className": "Zeros", "config": {}, "registeredName": null}, "kernelRegularizer": null, "biasRegularizer": null, "activityRegularizer": null, "kernelConstraint": null, "biasConstraint": null}, "name": "block_9_project", "inboundNodes": [{"args": [{"className": "__keras_tensor__", "config": {"shape": [null, 14, 14, 384], "dtype": "float32", "kerasHistory": ["block_9_depthwise_relu", 0, 0]}}], "kwargs": {}}]}, {"className": "BatchNormalization", "config": {"name": "block_9_project_BN", "trainable": true, "dtype": {"module": "keras", "className": "DTypePolicy", "config": {"name": "float32"}, "registeredName": null}, "axis": -1, "momentum": 0.999, "epsilon": 0.001, "center": true, "scale": true, "betaInitializer": {"module": "keras.initializers", "className": "Zeros", "config": {}, "registeredName": null}, "gammaInitializer": {"module": "keras.initializers", "className": "Ones", "config": {}, "registeredName": null}, "movingMeanInitializer": {"module": "keras.initializers", "className": "Zeros", "config": {}, "registeredName": null}, "movingVarianceInitializer": {"module": "keras.initializers", "className": "Ones", "config": {}, "registeredName": null}, "betaRegularizer": null, "gammaRegularizer": null, "betaConstraint": null, "gammaConstraint": null, "synchronized": false}, "name": "block_9_project_BN", "inboundNodes": [{"args": [{"className": "__keras_tensor__", "config": {"shape": [null, 14, 14, 64], "dtype": "float32", "kerasHistory": ["block_9_project", 0, 0]}}], "kwargs": {"mask": null}}]}, {"className": "Add", "config": {"name": "block_9_add", "trainable": true, "dtype": {"module": "keras", "className": "DTypePolicy", "config": {"name": "float32"}, "registeredName": null}}, "name": "block_9_add", "inboundNodes": [{"args": [[{"className": "__keras_tensor__", "config": {"shape": [null, 14, 14, 64], "dtype": "float32", "kerasHistory": ["block_8_add", 0, 0]}}, {"className": "__keras_tensor__", "config": {"shape": [null, 14, 14, 64], "dtype": "float32", "kerasHistory": ["block_9_project_BN", 0, 0]}}]], "kwargs": {}}]}, {"className": "Conv2D", "config": {"name": "block_10_expand", "trainable": true, "dtype": {"module": "keras", "className": "DTypePolicy", "config": {"name": "float32"}, "registeredName": null}, "filters": 384, "kernelSize": [1, 1], "strides": [1, 1], "padding": "same", "dataFormat": "channels_last", "dilationRate": [1, 1], "groups": 1, "activation": "linear", "useBias": false, "kernelInitializer": {"module": "keras.initializers", "className": "GlorotUniform", "config": {"seed": null}, "registeredName": null}, "biasInitializer": {"module": "keras.initializers", "className": "Zeros", "config": {}, "registeredName": null}, "kernelRegularizer": null, "biasRegularizer": null, "activityRegularizer": null, "kernelConstraint": null, "biasConstraint": null}, "name": "block_10_expand", "inboundNodes": [{"args": [{"className": "__keras_tensor__", "config": {"shape": [null, 14, 14, 64], "dtype": "float32", "kerasHistory": ["block_9_add", 0, 0]}}], "kwargs": {}}]}, {"className": "BatchNormalization", "config": {"name": "block_10_expand_BN", "trainable": true, "dtype": {"module": "keras", "className": "DTypePolicy", "config": {"name": "float32"}, "registeredName": null}, "axis": -1, "momentum": 0.999, "epsilon": 0.001, "center": true, "scale": true, "betaInitializer": {"module": "keras.initializers", "className": "Zeros", "config": {}, "registeredName": null}, "gammaInitializer": {"module": "keras.initializers", "className": "Ones", "config": {}, "registeredName": null}, "movingMeanInitializer": {"module": "keras.initializers", "className": "Zeros", "config": {}, "registeredName": null}, "movingVarianceInitializer": {"module": "keras.initializers", "className": "Ones", "config": {}, "registeredName": null}, "betaRegularizer": null, "gammaRegularizer": null, "betaConstraint": null, "gammaConstraint": null, "synchronized": false}, "name": "block_10_expand_BN", "inboundNodes": [{"args": [{"className": "__keras_tensor__", "config": {"shape": [null, 14, 14, 384], "dtype": "float32", "kerasHistory": ["block_10_expand", 0, 0]}}], "kwargs": {"mask": null}}]}, {"className": "ReLU", "config": {"name": "block_10_expand_relu", "trainable": true, "dtype": {"module": "keras", "className": "DTypePolicy", "config": {"name": "float32"}, "registeredName": null}, "maxValue": 6.0, "negativeSlope": 0.0, "threshold": 0.0}, "name": "block_10_expand_relu", "inboundNodes": [{"args": [{"className": "__keras_tensor__", "config": {"shape": [null, 14, 14, 384], "dtype": "float32", "kerasHistory": ["block_10_expand_BN", 0, 0]}}], "kwargs": {}}]}, {"className": "DepthwiseConv2D", "config": {"name": "block_10_depthwise", "trainable": true, "dtype": {"module": "keras", "className": "DTypePolicy", "config": {"name": "float32"}, "registeredName": null}, "depthMultiplier": 1, "kernelSize": [3, 3], "strides": [1, 1], "padding": "same", "dataFormat": "channels_last", "dilationRate": [1, 1], "activation": "linear", "useBias": false, "depthwiseInitializer": {"module": "keras.initializers", "className": "GlorotUniform", "config": {"seed": null}, "registeredName": null}, "biasInitializer": {"module": "keras.initializers", "className": "Zeros", "config": {}, "registeredName": null}, "depthwiseRegularizer": null, "biasRegularizer": null, "activityRegularizer": null, "depthwiseConstraint": null, "biasConstraint": null}, "name": "block_10_depthwise", "inboundNodes": [{"args": [{"className": "__keras_tensor__", "config": {"shape": [null, 14, 14, 384], "dtype": "float32", "kerasHistory": ["block_10_expand_relu", 0, 0]}}], "kwargs": {}}]}, {"className": "BatchNormalization", "config": {"name": "block_10_depthwise_BN", "trainable": true, "dtype": {"module": "keras", "className": "DTypePolicy", "config": {"name": "float32"}, "registeredName": null}, "axis": -1, "momentum": 0.999, "epsilon": 0.001, "center": true, "scale": true, "betaInitializer": {"module": "keras.initializers", "className": "Zeros", "config": {}, "registeredName": null}, "gammaInitializer": {"module": "keras.initializers", "className": "Ones", "config": {}, "registeredName": null}, "movingMeanInitializer": {"module": "keras.initializers", "className": "Zeros", "config": {}, "registeredName": null}, "movingVarianceInitializer": {"module": "keras.initializers", "className": "Ones", "config": {}, "registeredName": null}, "betaRegularizer": null, "gammaRegularizer": null, "betaConstraint": null, "gammaConstraint": null, "synchronized": false}, "name": "block_10_depthwise_BN", "inboundNodes": [{"args": [{"className": "__keras_tensor__", "config": {"shape": [null, 14, 14, 384], "dtype": "float32", "kerasHistory": ["block_10_depthwise", 0, 0]}}], "kwargs": {"mask": null}}]}, {"className": "ReLU", "config": {"name": "block_10_depthwise_relu", "trainable": true, "dtype": {"module": "keras", "className": "DTypePolicy", "config": {"name": "float32"}, "registeredName": null}, "maxValue": 6.0, "negativeSlope": 0.0, "threshold": 0.0}, "name": "block_10_depthwise_relu", "inboundNodes": [{"args": [{"className": "__keras_tensor__", "config": {"shape": [null, 14, 14, 384], "dtype": "float32", "kerasHistory": ["block_10_depthwise_BN", 0, 0]}}], "kwargs": {}}]}, {"className": "Conv2D", "config": {"name": "block_10_project", "trainable": true, "dtype": {"module": "keras", "className": "DTypePolicy", "config": {"name": "float32"}, "registeredName": null}, "filters": 96, "kernelSize": [1, 1], "strides": [1, 1], "padding": "same", "dataFormat": "channels_last", "dilationRate": [1, 1], "groups": 1, "activation": "linear", "useBias": false, "kernelInitializer": {"module": "keras.initializers", "className": "GlorotUniform", "config": {"seed": null}, "registeredName": null}, "biasInitializer": {"module": "keras.initializers", "className": "Zeros", "config": {}, "registeredName": null}, "kernelRegularizer": null, "biasRegularizer": null, "activityRegularizer": null, "kernelConstraint": null, "biasConstraint": null}, "name": "block_10_project", "inboundNodes": [{"args": [{"className": "__keras_tensor__", "config": {"shape": [null, 14, 14, 384], "dtype": "float32", "kerasHistory": ["block_10_depthwise_relu", 0, 0]}}], "kwargs": {}}]}, {"className": "BatchNormalization", "config": {"name": "block_10_project_BN", "trainable": true, "dtype": {"module": "keras", "className": "DTypePolicy", "config": {"name": "float32"}, "registeredName": null}, "axis": -1, "momentum": 0.999, "epsilon": 0.001, "center": true, "scale": true, "betaInitializer": {"module": "keras.initializers", "className": "Zeros", "config": {}, "registeredName": null}, "gammaInitializer": {"module": "keras.initializers", "className": "Ones", "config": {}, "registeredName": null}, "movingMeanInitializer": {"module": "keras.initializers", "className": "Zeros", "config": {}, "registeredName": null}, "movingVarianceInitializer": {"module": "keras.initializers", "className": "Ones", "config": {}, "registeredName": null}, "betaRegularizer": null, "gammaRegularizer": null, "betaConstraint": null, "gammaConstraint": null, "synchronized": false}, "name": "block_10_project_BN", "inboundNodes": [{"args": [{"className": "__keras_tensor__", "config": {"shape": [null, 14, 14, 96], "dtype": "float32", "kerasHistory": ["block_10_project", 0, 0]}}], "kwargs": {"mask": null}}]}, {"className": "Conv2D", "config": {"name": "block_11_expand", "trainable": true, "dtype": {"module": "keras", "className": "DTypePolicy", "config": {"name": "float32"}, "registeredName": null}, "filters": 576, "kernelSize": [1, 1], "strides": [1, 1], "padding": "same", "dataFormat": "channels_last", "dilationRate": [1, 1], "groups": 1, "activation": "linear", "useBias": false, "kernelInitializer": {"module": "keras.initializers", "className": "GlorotUniform", "config": {"seed": null}, "registeredName": null}, "biasInitializer": {"module": "keras.initializers", "className": "Zeros", "config": {}, "registeredName": null}, "kernelRegularizer": null, "biasRegularizer": null, "activityRegularizer": null, "kernelConstraint": null, "biasConstraint": null}, "name": "block_11_expand", "inboundNodes": [{"args": [{"className": "__keras_tensor__", "config": {"shape": [null, 14, 14, 96], "dtype": "float32", "kerasHistory": ["block_10_project_BN", 0, 0]}}], "kwargs": {}}]}, {"className": "BatchNormalization", "config": {"name": "block_11_expand_BN", "trainable": true, "dtype": {"module": "keras", "className": "DTypePolicy", "config": {"name": "float32"}, "registeredName": null}, "axis": -1, "momentum": 0.999, "epsilon": 0.001, "center": true, "scale": true, "betaInitializer": {"module": "keras.initializers", "className": "Zeros", "config": {}, "registeredName": null}, "gammaInitializer": {"module": "keras.initializers", "className": "Ones", "config": {}, "registeredName": null}, "movingMeanInitializer": {"module": "keras.initializers", "className": "Zeros", "config": {}, "registeredName": null}, "movingVarianceInitializer": {"module": "keras.initializers", "className": "Ones", "config": {}, "registeredName": null}, "betaRegularizer": null, "gammaRegularizer": null, "betaConstraint": null, "gammaConstraint": null, "synchronized": false}, "name": "block_11_expand_BN", "inboundNodes": [{"args": [{"className": "__keras_tensor__", "config": {"shape": [null, 14, 14, 576], "dtype": "float32", "kerasHistory": ["block_11_expand", 0, 0]}}], "kwargs": {"mask": null}}]}, {"className": "ReLU", "config": {"name": "block_11_expand_relu", "trainable": true, "dtype": {"module": "keras", "className": "DTypePolicy", "config": {"name": "float32"}, "registeredName": null}, "maxValue": 6.0, "negativeSlope": 0.0, "threshold": 0.0}, "name": "block_11_expand_relu", "inboundNodes": [{"args": [{"className": "__keras_tensor__", "config": {"shape": [null, 14, 14, 576], "dtype": "float32", "kerasHistory": ["block_11_expand_BN", 0, 0]}}], "kwargs": {}}]}, {"className": "DepthwiseConv2D", "config": {"name": "block_11_depthwise", "trainable": true, "dtype": {"module": "keras", "className": "DTypePolicy", "config": {"name": "float32"}, "registeredName": null}, "depthMultiplier": 1, "kernelSize": [3, 3], "strides": [1, 1], "padding": "same", "dataFormat": "channels_last", "dilationRate": [1, 1], "activation": "linear", "useBias": false, "depthwiseInitializer": {"module": "keras.initializers", "className": "GlorotUniform", "config": {"seed": null}, "registeredName": null}, "biasInitializer": {"module": "keras.initializers", "className": "Zeros", "config": {}, "registeredName": null}, "depthwiseRegularizer": null, "biasRegularizer": null, "activityRegularizer": null, "depthwiseConstraint": null, "biasConstraint": null}, "name": "block_11_depthwise", "inboundNodes": [{"args": [{"className": "__keras_tensor__", "config": {"shape": [null, 14, 14, 576], "dtype": "float32", "kerasHistory": ["block_11_expand_relu", 0, 0]}}], "kwargs": {}}]}, {"className": "BatchNormalization", "config": {"name": "block_11_depthwise_BN", "trainable": true, "dtype": {"module": "keras", "className": "DTypePolicy", "config": {"name": "float32"}, "registeredName": null}, "axis": -1, "momentum": 0.999, "epsilon": 0.001, "center": true, "scale": true, "betaInitializer": {"module": "keras.initializers", "className": "Zeros", "config": {}, "registeredName": null}, "gammaInitializer": {"module": "keras.initializers", "className": "Ones", "config": {}, "registeredName": null}, "movingMeanInitializer": {"module": "keras.initializers", "className": "Zeros", "config": {}, "registeredName": null}, "movingVarianceInitializer": {"module": "keras.initializers", "className": "Ones", "config": {}, "registeredName": null}, "betaRegularizer": null, "gammaRegularizer": null, "betaConstraint": null, "gammaConstraint": null, "synchronized": false}, "name": "block_11_depthwise_BN", "inboundNodes": [{"args": [{"className": "__keras_tensor__", "config": {"shape": [null, 14, 14, 576], "dtype": "float32", "kerasHistory": ["block_11_depthwise", 0, 0]}}], "kwargs": {"mask": null}}]}, {"className": "ReLU", "config": {"name": "block_11_depthwise_relu", "trainable": true, "dtype": {"module": "keras", "className": "DTypePolicy", "config": {"name": "float32"}, "registeredName": null}, "maxValue": 6.0, "negativeSlope": 0.0, "threshold": 0.0}, "name": "block_11_depthwise_relu", "inboundNodes": [{"args": [{"className": "__keras_tensor__", "config": {"shape": [null, 14, 14, 576], "dtype": "float32", "kerasHistory": ["block_11_depthwise_BN", 0, 0]}}], "kwargs": {}}]}, {"className": "Conv2D", "config": {"name": "block_11_project", "trainable": true, "dtype": {"module": "keras", "className": "DTypePolicy", "config": {"name": "float32"}, "registeredName": null}, "filters": 96, "kernelSize": [1, 1], "strides": [1, 1], "padding": "same", "dataFormat": "channels_last", "dilationRate": [1, 1], "groups": 1, "activation": "linear", "useBias": false, "kernelInitializer": {"module": "keras.initializers", "className": "GlorotUniform", "config": {"seed": null}, "registeredName": null}, "biasInitializer": {"module": "keras.initializers", "className": "Zeros", "config": {}, "registeredName": null}, "kernelRegularizer": null, "biasRegularizer": null, "activityRegularizer": null, "kernelConstraint": null, "biasConstraint": null}, "name": "block_11_project", "inboundNodes": [{"args": [{"className": "__keras_tensor__", "config": {"shape": [null, 14, 14, 576], "dtype": "float32", "kerasHistory": ["block_11_depthwise_relu", 0, 0]}}], "kwargs": {}}]}, {"className": "BatchNormalization", "config": {"name": "block_11_project_BN", "trainable": true, "dtype": {"module": "keras", "className": "DTypePolicy", "config": {"name": "float32"}, "registeredName": null}, "axis": -1, "momentum": 0.999, "epsilon": 0.001, "center": true, "scale": true, "betaInitializer": {"module": "keras.initializers", "className": "Zeros", "config": {}, "registeredName": null}, "gammaInitializer": {"module": "keras.initializers", "className": "Ones", "config": {}, "registeredName": null}, "movingMeanInitializer": {"module": "keras.initializers", "className": "Zeros", "config": {}, "registeredName": null}, "movingVarianceInitializer": {"module": "keras.initializers", "className": "Ones", "config": {}, "registeredName": null}, "betaRegularizer": null, "gammaRegularizer": null, "betaConstraint": null, "gammaConstraint": null, "synchronized": false}, "name": "block_11_project_BN", "inboundNodes": [{"args": [{"className": "__keras_tensor__", "config": {"shape": [null, 14, 14, 96], "dtype": "float32", "kerasHistory": ["block_11_project", 0, 0]}}], "kwargs": {"mask": null}}]}, {"className": "Add", "config": {"name": "block_11_add", "trainable": true, "dtype": {"module": "keras", "className": "DTypePolicy", "config": {"name": "float32"}, "registeredName": null}}, "name": "block_11_add", "inboundNodes": [{"args": [[{"className": "__keras_tensor__", "config": {"shape": [null, 14, 14, 96], "dtype": "float32", "kerasHistory": ["block_10_project_BN", 0, 0]}}, {"className": "__keras_tensor__", "config": {"shape": [null, 14, 14, 96], "dtype": "float32", "kerasHistory": ["block_11_project_BN", 0, 0]}}]], "kwargs": {}}]}, {"className": "Conv2D", "config": {"name": "block_12_expand", "trainable": true, "dtype": {"module": "keras", "className": "DTypePolicy", "config": {"name": "float32"}, "registeredName": null}, "filters": 576, "kernelSize": [1, 1], "strides": [1, 1], "padding": "same", "dataFormat": "channels_last", "dilationRate": [1, 1], "groups": 1, "activation": "linear", "useBias": false, "kernelInitializer": {"module": "keras.initializers", "className": "GlorotUniform", "config": {"seed": null}, "registeredName": null}, "biasInitializer": {"module": "keras.initializers", "className": "Zeros", "config": {}, "registeredName": null}, "kernelRegularizer": null, "biasRegularizer": null, "activityRegularizer": null, "kernelConstraint": null, "biasConstraint": null}, "name": "block_12_expand", "inboundNodes": [{"args": [{"className": "__keras_tensor__", "config": {"shape": [null, 14, 14, 96], "dtype": "float32", "kerasHistory": ["block_11_add", 0, 0]}}], "kwargs": {}}]}, {"className": "BatchNormalization", "config": {"name": "block_12_expand_BN", "trainable": true, "dtype": {"module": "keras", "className": "DTypePolicy", "config": {"name": "float32"}, "registeredName": null}, "axis": -1, "momentum": 0.999, "epsilon": 0.001, "center": true, "scale": true, "betaInitializer": {"module": "keras.initializers", "className": "Zeros", "config": {}, "registeredName": null}, "gammaInitializer": {"module": "keras.initializers", "className": "Ones", "config": {}, "registeredName": null}, "movingMeanInitializer": {"module": "keras.initializers", "className": "Zeros", "config": {}, "registeredName": null}, "movingVarianceInitializer": {"module": "keras.initializers", "className": "Ones", "config": {}, "registeredName": null}, "betaRegularizer": null, "gammaRegularizer": null, "betaConstraint": null, "gammaConstraint": null, "synchronized": false}, "name": "block_12_expand_BN", "inboundNodes": [{"args": [{"className": "__keras_tensor__", "config": {"shape": [null, 14, 14, 576], "dtype": "float32", "kerasHistory": ["block_12_expand", 0, 0]}}], "kwargs": {"mask": null}}]}, {"className": "ReLU", "config": {"name": "block_12_expand_relu", "trainable": true, "dtype": {"module": "keras", "className": "DTypePolicy", "config": {"name": "float32"}, "registeredName": null}, "maxValue": 6.0, "negativeSlope": 0.0, "threshold": 0.0}, "name": "block_12_expand_relu", "inboundNodes": [{"args": [{"className": "__keras_tensor__", "config": {"shape": [null, 14, 14, 576], "dtype": "float32", "kerasHistory": ["block_12_expand_BN", 0, 0]}}], "kwargs": {}}]}, {"className": "DepthwiseConv2D", "config": {"name": "block_12_depthwise", "trainable": true, "dtype": {"module": "keras", "className": "DTypePolicy", "config": {"name": "float32"}, "registeredName": null}, "depthMultiplier": 1, "kernelSize": [3, 3], "strides": [1, 1], "padding": "same", "dataFormat": "channels_last", "dilationRate": [1, 1], "activation": "linear", "useBias": false, "depthwiseInitializer": {"module": "keras.initializers", "className": "GlorotUniform", "config": {"seed": null}, "registeredName": null}, "biasInitializer": {"module": "keras.initializers", "className": "Zeros", "config": {}, "registeredName": null}, "depthwiseRegularizer": null, "biasRegularizer": null, "activityRegularizer": null, "depthwiseConstraint": null, "biasConstraint": null}, "name": "block_12_depthwise", "inboundNodes": [{"args": [{"className": "__keras_tensor__", "config": {"shape": [null, 14, 14, 576], "dtype": "float32", "kerasHistory": ["block_12_expand_relu", 0, 0]}}], "kwargs": {}}]}, {"className": "BatchNormalization", "config": {"name": "block_12_depthwise_BN", "trainable": true, "dtype": {"module": "keras", "className": "DTypePolicy", "config": {"name": "float32"}, "registeredName": null}, "axis": -1, "momentum": 0.999, "epsilon": 0.001, "center": true, "scale": true, "betaInitializer": {"module": "keras.initializers", "className": "Zeros", "config": {}, "registeredName": null}, "gammaInitializer": {"module": "keras.initializers", "className": "Ones", "config": {}, "registeredName": null}, "movingMeanInitializer": {"module": "keras.initializers", "className": "Zeros", "config": {}, "registeredName": null}, "movingVarianceInitializer": {"module": "keras.initializers", "className": "Ones", "config": {}, "registeredName": null}, "betaRegularizer": null, "gammaRegularizer": null, "betaConstraint": null, "gammaConstraint": null, "synchronized": false}, "name": "block_12_depthwise_BN", "inboundNodes": [{"args": [{"className": "__keras_tensor__", "config": {"shape": [null, 14, 14, 576], "dtype": "float32", "kerasHistory": ["block_12_depthwise", 0, 0]}}], "kwargs": {"mask": null}}]}, {"className": "ReLU", "config": {"name": "block_12_depthwise_relu", "trainable": true, "dtype": {"module": "keras", "className": "DTypePolicy", "config": {"name": "float32"}, "registeredName": null}, "maxValue": 6.0, "negativeSlope": 0.0, "threshold": 0.0}, "name": "block_12_depthwise_relu", "inboundNodes": [{"args": [{"className": "__keras_tensor__", "config": {"shape": [null, 14, 14, 576], "dtype": "float32", "kerasHistory": ["block_12_depthwise_BN", 0, 0]}}], "kwargs": {}}]}, {"className": "Conv2D", "config": {"name": "block_12_project", "trainable": true, "dtype": {"module": "keras", "className": "DTypePolicy", "config": {"name": "float32"}, "registeredName": null}, "filters": 96, "kernelSize": [1, 1], "strides": [1, 1], "padding": "same", "dataFormat": "channels_last", "dilationRate": [1, 1], "groups": 1, "activation": "linear", "useBias": false, "kernelInitializer": {"module": "keras.initializers", "className": "GlorotUniform", "config": {"seed": null}, "registeredName": null}, "biasInitializer": {"module": "keras.initializers", "className": "Zeros", "config": {}, "registeredName": null}, "kernelRegularizer": null, "biasRegularizer": null, "activityRegularizer": null, "kernelConstraint": null, "biasConstraint": null}, "name": "block_12_project", "inboundNodes": [{"args": [{"className": "__keras_tensor__", "config": {"shape": [null, 14, 14, 576], "dtype": "float32", "kerasHistory": ["block_12_depthwise_relu", 0, 0]}}], "kwargs": {}}]}, {"className": "BatchNormalization", "config": {"name": "block_12_project_BN", "trainable": true, "dtype": {"module": "keras", "className": "DTypePolicy", "config": {"name": "float32"}, "registeredName": null}, "axis": -1, "momentum": 0.999, "epsilon": 0.001, "center": true, "scale": true, "betaInitializer": {"module": "keras.initializers", "className": "Zeros", "config": {}, "registeredName": null}, "gammaInitializer": {"module": "keras.initializers", "className": "Ones", "config": {}, "registeredName": null}, "movingMeanInitializer": {"module": "keras.initializers", "className": "Zeros", "config": {}, "registeredName": null}, "movingVarianceInitializer": {"module": "keras.initializers", "className": "Ones", "config": {}, "registeredName": null}, "betaRegularizer": null, "gammaRegularizer": null, "betaConstraint": null, "gammaConstraint": null, "synchronized": false}, "name": "block_12_project_BN", "inboundNodes": [{"args": [{"className": "__keras_tensor__", "config": {"shape": [null, 14, 14, 96], "dtype": "float32", "kerasHistory": ["block_12_project", 0, 0]}}], "kwargs": {"mask": null}}]}, {"className": "Add", "config": {"name": "block_12_add", "trainable": true, "dtype": {"module": "keras", "className": "DTypePolicy", "config": {"name": "float32"}, "registeredName": null}}, "name": "block_12_add", "inboundNodes": [{"args": [[{"className": "__keras_tensor__", "config": {"shape": [null, 14, 14, 96], "dtype": "float32", "kerasHistory": ["block_11_add", 0, 0]}}, {"className": "__keras_tensor__", "config": {"shape": [null, 14, 14, 96], "dtype": "float32", "kerasHistory": ["block_12_project_BN", 0, 0]}}]], "kwargs": {}}]}, {"className": "Conv2D", "config": {"name": "block_13_expand", "trainable": true, "dtype": {"module": "keras", "className": "DTypePolicy", "config": {"name": "float32"}, "registeredName": null}, "filters": 576, "kernelSize": [1, 1], "strides": [1, 1], "padding": "same", "dataFormat": "channels_last", "dilationRate": [1, 1], "groups": 1, "activation": "linear", "useBias": false, "kernelInitializer": {"module": "keras.initializers", "className": "GlorotUniform", "config": {"seed": null}, "registeredName": null}, "biasInitializer": {"module": "keras.initializers", "className": "Zeros", "config": {}, "registeredName": null}, "kernelRegularizer": null, "biasRegularizer": null, "activityRegularizer": null, "kernelConstraint": null, "biasConstraint": null}, "name": "block_13_expand", "inboundNodes": [{"args": [{"className": "__keras_tensor__", "config": {"shape": [null, 14, 14, 96], "dtype": "float32", "kerasHistory": ["block_12_add", 0, 0]}}], "kwargs": {}}]}, {"className": "BatchNormalization", "config": {"name": "block_13_expand_BN", "trainable": true, "dtype": {"module": "keras", "className": "DTypePolicy", "config": {"name": "float32"}, "registeredName": null}, "axis": -1, "momentum": 0.999, "epsilon": 0.001, "center": true, "scale": true, "betaInitializer": {"module": "keras.initializers", "className": "Zeros", "config": {}, "registeredName": null}, "gammaInitializer": {"module": "keras.initializers", "className": "Ones", "config": {}, "registeredName": null}, "movingMeanInitializer": {"module": "keras.initializers", "className": "Zeros", "config": {}, "registeredName": null}, "movingVarianceInitializer": {"module": "keras.initializers", "className": "Ones", "config": {}, "registeredName": null}, "betaRegularizer": null, "gammaRegularizer": null, "betaConstraint": null, "gammaConstraint": null, "synchronized": false}, "name": "block_13_expand_BN", "inboundNodes": [{"args": [{"className": "__keras_tensor__", "config": {"shape": [null, 14, 14, 576], "dtype": "float32", "kerasHistory": ["block_13_expand", 0, 0]}}], "kwargs": {"mask": null}}]}, {"className": "ReLU", "config": {"name": "block_13_expand_relu", "trainable": true, "dtype": {"module": "keras", "className": "DTypePolicy", "config": {"name": "float32"}, "registeredName": null}, "maxValue": 6.0, "negativeSlope": 0.0, "threshold": 0.0}, "name": "block_13_expand_relu", "inboundNodes": [{"args": [{"className": "__keras_tensor__", "config": {"shape": [null, 14, 14, 576], "dtype": "float32", "kerasHistory": ["block_13_expand_BN", 0, 0]}}], "kwargs": {}}]}, {"className": "ZeroPadding2D", "config": {"name": "block_13_pad", "trainable": true, "dtype": {"module": "keras", "className": "DTypePolicy", "config": {"name": "float32"}, "registeredName": null}, "padding": [[0, 1], [0, 1]], "dataFormat": "channels_last"}, "name": "block_13_pad", "inboundNodes": [{"args": [{"className": "__keras_tensor__", "config": {"shape": [null, 14, 14, 576], "dtype": "float32", "kerasHistory": ["block_13_expand_relu", 0, 0]}}], "kwargs": {}}]}, {"className": "DepthwiseConv2D", "config": {"name": "block_13_depthwise", "trainable": true, "dtype": {"module": "keras", "className": "DTypePolicy", "config": {"name": "float32"}, "registeredName": null}, "depthMultiplier": 1, "kernelSize": [3, 3], "strides": [2, 2], "padding": "valid", "dataFormat": "channels_last", "dilationRate": [1, 1], "activation": "linear", "useBias": false, "depthwiseInitializer": {"module": "keras.initializers", "className": "GlorotUniform", "config": {"seed": null}, "registeredName": null}, "biasInitializer": {"module": "keras.initializers", "className": "Zeros", "config": {}, "registeredName": null}, "depthwiseRegularizer": null, "biasRegularizer": null, "activityRegularizer": null, "depthwiseConstraint": null, "biasConstraint": null}, "name": "block_13_depthwise", "inboundNodes": [{"args": [{"className": "__keras_tensor__", "config": {"shape": [null, 15, 15, 576], "dtype": "float32", "kerasHistory": ["block_13_pad", 0, 0]}}], "kwargs": {}}]}, {"className": "BatchNormalization", "config": {"name": "block_13_depthwise_BN", "trainable": true, "dtype": {"module": "keras", "className": "DTypePolicy", "config": {"name": "float32"}, "registeredName": null}, "axis": -1, "momentum": 0.999, "epsilon": 0.001, "center": true, "scale": true, "betaInitializer": {"module": "keras.initializers", "className": "Zeros", "config": {}, "registeredName": null}, "gammaInitializer": {"module": "keras.initializers", "className": "Ones", "config": {}, "registeredName": null}, "movingMeanInitializer": {"module": "keras.initializers", "className": "Zeros", "config": {}, "registeredName": null}, "movingVarianceInitializer": {"module": "keras.initializers", "className": "Ones", "config": {}, "registeredName": null}, "betaRegularizer": null, "gammaRegularizer": null, "betaConstraint": null, "gammaConstraint": null, "synchronized": false}, "name": "block_13_depthwise_BN", "inboundNodes": [{"args": [{"className": "__keras_tensor__", "config": {"shape": [null, 7, 7, 576], "dtype": "float32", "kerasHistory": ["block_13_depthwise", 0, 0]}}], "kwargs": {"mask": null}}]}, {"className": "ReLU", "config": {"name": "block_13_depthwise_relu", "trainable": true, "dtype": {"module": "keras", "className": "DTypePolicy", "config": {"name": "float32"}, "registeredName": null}, "maxValue": 6.0, "negativeSlope": 0.0, "threshold": 0.0}, "name": "block_13_depthwise_relu", "inboundNodes": [{"args": [{"className": "__keras_tensor__", "config": {"shape": [null, 7, 7, 576], "dtype": "float32", "kerasHistory": ["block_13_depthwise_BN", 0, 0]}}], "kwargs": {}}]}, {"className": "Conv2D", "config": {"name": "block_13_project", "trainable": true, "dtype": {"module": "keras", "className": "DTypePolicy", "config": {"name": "float32"}, "registeredName": null}, "filters": 160, "kernelSize": [1, 1], "strides": [1, 1], "padding": "same", "dataFormat": "channels_last", "dilationRate": [1, 1], "groups": 1, "activation": "linear", "useBias": false, "kernelInitializer": {"module": "keras.initializers", "className": "GlorotUniform", "config": {"seed": null}, "registeredName": null}, "biasInitializer": {"module": "keras.initializers", "className": "Zeros", "config": {}, "registeredName": null}, "kernelRegularizer": null, "biasRegularizer": null, "activityRegularizer": null, "kernelConstraint": null, "biasConstraint": null}, "name": "block_13_project", "inboundNodes": [{"args": [{"className": "__keras_tensor__", "config": {"shape": [null, 7, 7, 576], "dtype": "float32", "kerasHistory": ["block_13_depthwise_relu", 0, 0]}}], "kwargs": {}}]}, {"className": "BatchNormalization", "config": {"name": "block_13_project_BN", "trainable": true, "dtype": {"module": "keras", "className": "DTypePolicy", "config": {"name": "float32"}, "registeredName": null}, "axis": -1, "momentum": 0.999, "epsilon": 0.001, "center": true, "scale": true, "betaInitializer": {"module": "keras.initializers", "className": "Zeros", "config": {}, "registeredName": null}, "gammaInitializer": {"module": "keras.initializers", "className": "Ones", "config": {}, "registeredName": null}, "movingMeanInitializer": {"module": "keras.initializers", "className": "Zeros", "config": {}, "registeredName": null}, "movingVarianceInitializer": {"module": "keras.initializers", "className": "Ones", "config": {}, "registeredName": null}, "betaRegularizer": null, "gammaRegularizer": null, "betaConstraint": null, "gammaConstraint": null, "synchronized": false}, "name": "block_13_project_BN", "inboundNodes": [{"args": [{"className": "__keras_tensor__", "config": {"shape": [null, 7, 7, 160], "dtype": "float32", "kerasHistory": ["block_13_project", 0, 0]}}], "kwargs": {"mask": null}}]}, {"className": "Conv2D", "config": {"name": "block_14_expand", "trainable": true, "dtype": {"module": "keras", "className": "DTypePolicy", "config": {"name": "float32"}, "registeredName": null}, "filters": 960, "kernelSize": [1, 1], "strides": [1, 1], "padding": "same", "dataFormat": "channels_last", "dilationRate": [1, 1], "groups": 1, "activation": "linear", "useBias": false, "kernelInitializer": {"module": "keras.initializers", "className": "GlorotUniform", "config": {"seed": null}, "registeredName": null}, "biasInitializer": {"module": "keras.initializers", "className": "Zeros", "config": {}, "registeredName": null}, "kernelRegularizer": null, "biasRegularizer": null, "activityRegularizer": null, "kernelConstraint": null, "biasConstraint": null}, "name": "block_14_expand", "inboundNodes": [{"args": [{"className": "__keras_tensor__", "config": {"shape": [null, 7, 7, 160], "dtype": "float32", "kerasHistory": ["block_13_project_BN", 0, 0]}}], "kwargs": {}}]}, {"className": "BatchNormalization", "config": {"name": "block_14_expand_BN", "trainable": true, "dtype": {"module": "keras", "className": "DTypePolicy", "config": {"name": "float32"}, "registeredName": null}, "axis": -1, "momentum": 0.999, "epsilon": 0.001, "center": true, "scale": true, "betaInitializer": {"module": "keras.initializers", "className": "Zeros", "config": {}, "registeredName": null}, "gammaInitializer": {"module": "keras.initializers", "className": "Ones", "config": {}, "registeredName": null}, "movingMeanInitializer": {"module": "keras.initializers", "className": "Zeros", "config": {}, "registeredName": null}, "movingVarianceInitializer": {"module": "keras.initializers", "className": "Ones", "config": {}, "registeredName": null}, "betaRegularizer": null, "gammaRegularizer": null, "betaConstraint": null, "gammaConstraint": null, "synchronized": false}, "name": "block_14_expand_BN", "inboundNodes": [{"args": [{"className": "__keras_tensor__", "config": {"shape": [null, 7, 7, 960], "dtype": "float32", "kerasHistory": ["block_14_expand", 0, 0]}}], "kwargs": {"mask": null}}]}, {"className": "ReLU", "config": {"name": "block_14_expand_relu", "trainable": true, "dtype": {"module": "keras", "className": "DTypePolicy", "config": {"name": "float32"}, "registeredName": null}, "maxValue": 6.0, "negativeSlope": 0.0, "threshold": 0.0}, "name": "block_14_expand_relu", "inboundNodes": [{"args": [{"className": "__keras_tensor__", "config": {"shape": [null, 7, 7, 960], "dtype": "float32", "kerasHistory": ["block_14_expand_BN", 0, 0]}}], "kwargs": {}}]}, {"className": "DepthwiseConv2D", "config": {"name": "block_14_depthwise", "trainable": true, "dtype": {"module": "keras", "className": "DTypePolicy", "config": {"name": "float32"}, "registeredName": null}, "depthMultiplier": 1, "kernelSize": [3, 3], "strides": [1, 1], "padding": "same", "dataFormat": "channels_last", "dilationRate": [1, 1], "activation": "linear", "useBias": false, "depthwiseInitializer": {"module": "keras.initializers", "className": "GlorotUniform", "config": {"seed": null}, "registeredName": null}, "biasInitializer": {"module": "keras.initializers", "className": "Zeros", "config": {}, "registeredName": null}, "depthwiseRegularizer": null, "biasRegularizer": null, "activityRegularizer": null, "depthwiseConstraint": null, "biasConstraint": null}, "name": "block_14_depthwise", "inboundNodes": [{"args": [{"className": "__keras_tensor__", "config": {"shape": [null, 7, 7, 960], "dtype": "float32", "kerasHistory": ["block_14_expand_relu", 0, 0]}}], "kwargs": {}}]}, {"className": "BatchNormalization", "config": {"name": "block_14_depthwise_BN", "trainable": true, "dtype": {"module": "keras", "className": "DTypePolicy", "config": {"name": "float32"}, "registeredName": null}, "axis": -1, "momentum": 0.999, "epsilon": 0.001, "center": true, "scale": true, "betaInitializer": {"module": "keras.initializers", "className": "Zeros", "config": {}, "registeredName": null}, "gammaInitializer": {"module": "keras.initializers", "className": "Ones", "config": {}, "registeredName": null}, "movingMeanInitializer": {"module": "keras.initializers", "className": "Zeros", "config": {}, "registeredName": null}, "movingVarianceInitializer": {"module": "keras.initializers", "className": "Ones", "config": {}, "registeredName": null}, "betaRegularizer": null, "gammaRegularizer": null, "betaConstraint": null, "gammaConstraint": null, "synchronized": false}, "name": "block_14_depthwise_BN", "inboundNodes": [{"args": [{"className": "__keras_tensor__", "config": {"shape": [null, 7, 7, 960], "dtype": "float32", "kerasHistory": ["block_14_depthwise", 0, 0]}}], "kwargs": {"mask": null}}]}, {"className": "ReLU", "config": {"name": "block_14_depthwise_relu", "trainable": true, "dtype": {"module": "keras", "className": "DTypePolicy", "config": {"name": "float32"}, "registeredName": null}, "maxValue": 6.0, "negativeSlope": 0.0, "threshold": 0.0}, "name": "block_14_depthwise_relu", "inboundNodes": [{"args": [{"className": "__keras_tensor__", "config": {"shape": [null, 7, 7, 960], "dtype": "float32", "kerasHistory": ["block_14_depthwise_BN", 0, 0]}}], "kwargs": {}}]}, {"className": "Conv2D", "config": {"name": "block_14_project", "trainable": true, "dtype": {"module": "keras", "className": "DTypePolicy", "config": {"name": "float32"}, "registeredName": null}, "filters": 160, "kernelSize": [1, 1], "strides": [1, 1], "padding": "same", "dataFormat": "channels_last", "dilationRate": [1, 1], "groups": 1, "activation": "linear", "useBias": false, "kernelInitializer": {"module": "keras.initializers", "className": "GlorotUniform", "config": {"seed": null}, "registeredName": null}, "biasInitializer": {"module": "keras.initializers", "className": "Zeros", "config": {}, "registeredName": null}, "kernelRegularizer": null, "biasRegularizer": null, "activityRegularizer": null, "kernelConstraint": null, "biasConstraint": null}, "name": "block_14_project", "inboundNodes": [{"args": [{"className": "__keras_tensor__", "config": {"shape": [null, 7, 7, 960], "dtype": "float32", "kerasHistory": ["block_14_depthwise_relu", 0, 0]}}], "kwargs": {}}]}, {"className": "BatchNormalization", "config": {"name": "block_14_project_BN", "trainable": true, "dtype": {"module": "keras", "className": "DTypePolicy", "config": {"name": "float32"}, "registeredName": null}, "axis": -1, "momentum": 0.999, "epsilon": 0.001, "center": true, "scale": true, "betaInitializer": {"module": "keras.initializers", "className": "Zeros", "config": {}, "registeredName": null}, "gammaInitializer": {"module": "keras.initializers", "className": "Ones", "config": {}, "registeredName": null}, "movingMeanInitializer": {"module": "keras.initializers", "className": "Zeros", "config": {}, "registeredName": null}, "movingVarianceInitializer": {"module": "keras.initializers", "className": "Ones", "config": {}, "registeredName": null}, "betaRegularizer": null, "gammaRegularizer": null, "betaConstraint": null, "gammaConstraint": null, "synchronized": false}, "name": "block_14_project_BN", "inboundNodes": [{"args": [{"className": "__keras_tensor__", "config": {"shape": [null, 7, 7, 160], "dtype": "float32", "kerasHistory": ["block_14_project", 0, 0]}}], "kwargs": {"mask": null}}]}, {"className": "Add", "config": {"name": "block_14_add", "trainable": true, "dtype": {"module": "keras", "className": "DTypePolicy", "config": {"name": "float32"}, "registeredName": null}}, "name": "block_14_add", "inboundNodes": [{"args": [[{"className": "__keras_tensor__", "config": {"shape": [null, 7, 7, 160], "dtype": "float32", "kerasHistory": ["block_13_project_BN", 0, 0]}}, {"className": "__keras_tensor__", "config": {"shape": [null, 7, 7, 160], "dtype": "float32", "kerasHistory": ["block_14_project_BN", 0, 0]}}]], "kwargs": {}}]}, {"className": "Conv2D", "config": {"name": "block_15_expand", "trainable": true, "dtype": {"module": "keras", "className": "DTypePolicy", "config": {"name": "float32"}, "registeredName": null}, "filters": 960, "kernelSize": [1, 1], "strides": [1, 1], "padding": "same", "dataFormat": "channels_last", "dilationRate": [1, 1], "groups": 1, "activation": "linear", "useBias": false, "kernelInitializer": {"module": "keras.initializers", "className": "GlorotUniform", "config": {"seed": null}, "registeredName": null}, "biasInitializer": {"module": "keras.initializers", "className": "Zeros", "config": {}, "registeredName": null}, "kernelRegularizer": null, "biasRegularizer": null, "activityRegularizer": null, "kernelConstraint": null, "biasConstraint": null}, "name": "block_15_expand", "inboundNodes": [{"args": [{"className": "__keras_tensor__", "config": {"shape": [null, 7, 7, 160], "dtype": "float32", "kerasHistory": ["block_14_add", 0, 0]}}], "kwargs": {}}]}, {"className": "BatchNormalization", "config": {"name": "block_15_expand_BN", "trainable": true, "dtype": {"module": "keras", "className": "DTypePolicy", "config": {"name": "float32"}, "registeredName": null}, "axis": -1, "momentum": 0.999, "epsilon": 0.001, "center": true, "scale": true, "betaInitializer": {"module": "keras.initializers", "className": "Zeros", "config": {}, "registeredName": null}, "gammaInitializer": {"module": "keras.initializers", "className": "Ones", "config": {}, "registeredName": null}, "movingMeanInitializer": {"module": "keras.initializers", "className": "Zeros", "config": {}, "registeredName": null}, "movingVarianceInitializer": {"module": "keras.initializers", "className": "Ones", "config": {}, "registeredName": null}, "betaRegularizer": null, "gammaRegularizer": null, "betaConstraint": null, "gammaConstraint": null, "synchronized": false}, "name": "block_15_expand_BN", "inboundNodes": [{"args": [{"className": "__keras_tensor__", "config": {"shape": [null, 7, 7, 960], "dtype": "float32", "kerasHistory": ["block_15_expand", 0, 0]}}], "kwargs": {"mask": null}}]}, {"className": "ReLU", "config": {"name": "block_15_expand_relu", "trainable": true, "dtype": {"module": "keras", "className": "DTypePolicy", "config": {"name": "float32"}, "registeredName": null}, "maxValue": 6.0, "negativeSlope": 0.0, "threshold": 0.0}, "name": "block_15_expand_relu", "inboundNodes": [{"args": [{"className": "__keras_tensor__", "config": {"shape": [null, 7, 7, 960], "dtype": "float32", "kerasHistory": ["block_15_expand_BN", 0, 0]}}], "kwargs": {}}]}, {"className": "DepthwiseConv2D", "config": {"name": "block_15_depthwise", "trainable": true, "dtype": {"module": "keras", "className": "DTypePolicy", "config": {"name": "float32"}, "registeredName": null}, "depthMultiplier": 1, "kernelSize": [3, 3], "strides": [1, 1], "padding": "same", "dataFormat": "channels_last", "dilationRate": [1, 1], "activation": "linear", "useBias": false, "depthwiseInitializer": {"module": "keras.initializers", "className": "GlorotUniform", "config": {"seed": null}, "registeredName": null}, "biasInitializer": {"module": "keras.initializers", "className": "Zeros", "config": {}, "registeredName": null}, "depthwiseRegularizer": null, "biasRegularizer": null, "activityRegularizer": null, "depthwiseConstraint": null, "biasConstraint": null}, "name": "block_15_depthwise", "inboundNodes": [{"args": [{"className": "__keras_tensor__", "config": {"shape": [null, 7, 7, 960], "dtype": "float32", "kerasHistory": ["block_15_expand_relu", 0, 0]}}], "kwargs": {}}]}, {"className": "BatchNormalization", "config": {"name": "block_15_depthwise_BN", "trainable": true, "dtype": {"module": "keras", "className": "DTypePolicy", "config": {"name": "float32"}, "registeredName": null}, "axis": -1, "momentum": 0.999, "epsilon": 0.001, "center": true, "scale": true, "betaInitializer": {"module": "keras.initializers", "className": "Zeros", "config": {}, "registeredName": null}, "gammaInitializer": {"module": "keras.initializers", "className": "Ones", "config": {}, "registeredName": null}, "movingMeanInitializer": {"module": "keras.initializers", "className": "Zeros", "config": {}, "registeredName": null}, "movingVarianceInitializer": {"module": "keras.initializers", "className": "Ones", "config": {}, "registeredName": null}, "betaRegularizer": null, "gammaRegularizer": null, "betaConstraint": null, "gammaConstraint": null, "synchronized": false}, "name": "block_15_depthwise_BN", "inboundNodes": [{"args": [{"className": "__keras_tensor__", "config": {"shape": [null, 7, 7, 960], "dtype": "float32", "kerasHistory": ["block_15_depthwise", 0, 0]}}], "kwargs": {"mask": null}}]}, {"className": "ReLU", "config": {"name": "block_15_depthwise_relu", "trainable": true, "dtype": {"module": "keras", "className": "DTypePolicy", "config": {"name": "float32"}, "registeredName": null}, "maxValue": 6.0, "negativeSlope": 0.0, "threshold": 0.0}, "name": "block_15_depthwise_relu", "inboundNodes": [{"args": [{"className": "__keras_tensor__", "config": {"shape": [null, 7, 7, 960], "dtype": "float32", "kerasHistory": ["block_15_depthwise_BN", 0, 0]}}], "kwargs": {}}]}, {"className": "Conv2D", "config": {"name": "block_15_project", "trainable": true, "dtype": {"module": "keras", "className": "DTypePolicy", "config": {"name": "float32"}, "registeredName": null}, "filters": 160, "kernelSize": [1, 1], "strides": [1, 1], "padding": "same", "dataFormat": "channels_last", "dilationRate": [1, 1], "groups": 1, "activation": "linear", "useBias": false, "kernelInitializer": {"module": "keras.initializers", "className": "GlorotUniform", "config": {"seed": null}, "registeredName": null}, "biasInitializer": {"module": "keras.initializers", "className": "Zeros", "config": {}, "registeredName": null}, "kernelRegularizer": null, "biasRegularizer": null, "activityRegularizer": null, "kernelConstraint": null, "biasConstraint": null}, "name": "block_15_project", "inboundNodes": [{"args": [{"className": "__keras_tensor__", "config": {"shape": [null, 7, 7, 960], "dtype": "float32", "kerasHistory": ["block_15_depthwise_relu", 0, 0]}}], "kwargs": {}}]}, {"className": "BatchNormalization", "config": {"name": "block_15_project_BN", "trainable": true, "dtype": {"module": "keras", "className": "DTypePolicy", "config": {"name": "float32"}, "registeredName": null}, "axis": -1, "momentum": 0.999, "epsilon": 0.001, "center": true, "scale": true, "betaInitializer": {"module": "keras.initializers", "className": "Zeros", "config": {}, "registeredName": null}, "gammaInitializer": {"module": "keras.initializers", "className": "Ones", "config": {}, "registeredName": null}, "movingMeanInitializer": {"module": "keras.initializers", "className": "Zeros", "config": {}, "registeredName": null}, "movingVarianceInitializer": {"module": "keras.initializers", "className": "Ones", "config": {}, "registeredName": null}, "betaRegularizer": null, "gammaRegularizer": null, "betaConstraint": null, "gammaConstraint": null, "synchronized": false}, "name": "block_15_project_BN", "inboundNodes": [{"args": [{"className": "__keras_tensor__", "config": {"shape": [null, 7, 7, 160], "dtype": "float32", "kerasHistory": ["block_15_project", 0, 0]}}], "kwargs": {"mask": null}}]}, {"className": "Add", "config": {"name": "block_15_add", "trainable": true, "dtype": {"module": "keras", "className": "DTypePolicy", "config": {"name": "float32"}, "registeredName": null}}, "name": "block_15_add", "inboundNodes": [{"args": [[{"className": "__keras_tensor__", "config": {"shape": [null, 7, 7, 160], "dtype": "float32", "kerasHistory": ["block_14_add", 0, 0]}}, {"className": "__keras_tensor__", "config": {"shape": [null, 7, 7, 160], "dtype": "float32", "kerasHistory": ["block_15_project_BN", 0, 0]}}]], "kwargs": {}}]}, {"className": "Conv2D", "config": {"name": "block_16_expand", "trainable": true, "dtype": {"module": "keras", "className": "DTypePolicy", "config": {"name": "float32"}, "registeredName": null}, "filters": 960, "kernelSize": [1, 1], "strides": [1, 1], "padding": "same", "dataFormat": "channels_last", "dilationRate": [1, 1], "groups": 1, "activation": "linear", "useBias": false, "kernelInitializer": {"module": "keras.initializers", "className": "GlorotUniform", "config": {"seed": null}, "registeredName": null}, "biasInitializer": {"module": "keras.initializers", "className": "Zeros", "config": {}, "registeredName": null}, "kernelRegularizer": null, "biasRegularizer": null, "activityRegularizer": null, "kernelConstraint": null, "biasConstraint": null}, "name": "block_16_expand", "inboundNodes": [{"args": [{"className": "__keras_tensor__", "config": {"shape": [null, 7, 7, 160], "dtype": "float32", "kerasHistory": ["block_15_add", 0, 0]}}], "kwargs": {}}]}, {"className": "BatchNormalization", "config": {"name": "block_16_expand_BN", "trainable": true, "dtype": {"module": "keras", "className": "DTypePolicy", "config": {"name": "float32"}, "registeredName": null}, "axis": -1, "momentum": 0.999, "epsilon": 0.001, "center": true, "scale": true, "betaInitializer": {"module": "keras.initializers", "className": "Zeros", "config": {}, "registeredName": null}, "gammaInitializer": {"module": "keras.initializers", "className": "Ones", "config": {}, "registeredName": null}, "movingMeanInitializer": {"module": "keras.initializers", "className": "Zeros", "config": {}, "registeredName": null}, "movingVarianceInitializer": {"module": "keras.initializers", "className": "Ones", "config": {}, "registeredName": null}, "betaRegularizer": null, "gammaRegularizer": null, "betaConstraint": null, "gammaConstraint": null, "synchronized": false}, "name": "block_16_expand_BN", "inboundNodes": [{"args": [{"className": "__keras_tensor__", "config": {"shape": [null, 7, 7, 960], "dtype": "float32", "kerasHistory": ["block_16_expand", 0, 0]}}], "kwargs": {"mask": null}}]}, {"className": "ReLU", "config": {"name": "block_16_expand_relu", "trainable": true, "dtype": {"module": "keras", "className": "DTypePolicy", "config": {"name": "float32"}, "registeredName": null}, "maxValue": 6.0, "negativeSlope": 0.0, "threshold": 0.0}, "name": "block_16_expand_relu", "inboundNodes": [{"args": [{"className": "__keras_tensor__", "config": {"shape": [null, 7, 7, 960], "dtype": "float32", "kerasHistory": ["block_16_expand_BN", 0, 0]}}], "kwargs": {}}]}, {"className": "DepthwiseConv2D", "config": {"name": "block_16_depthwise", "trainable": true, "dtype": {"module": "keras", "className": "DTypePolicy", "config": {"name": "float32"}, "registeredName": null}, "depthMultiplier": 1, "kernelSize": [3, 3], "strides": [1, 1], "padding": "same", "dataFormat": "channels_last", "dilationRate": [1, 1], "activation": "linear", "useBias": false, "depthwiseInitializer": {"module": "keras.initializers", "className": "GlorotUniform", "config": {"seed": null}, "registeredName": null}, "biasInitializer": {"module": "keras.initializers", "className": "Zeros", "config": {}, "registeredName": null}, "depthwiseRegularizer": null, "biasRegularizer": null, "activityRegularizer": null, "depthwiseConstraint": null, "biasConstraint": null}, "name": "block_16_depthwise", "inboundNodes": [{"args": [{"className": "__keras_tensor__", "config": {"shape": [null, 7, 7, 960], "dtype": "float32", "kerasHistory": ["block_16_expand_relu", 0, 0]}}], "kwargs": {}}]}, {"className": "BatchNormalization", "config": {"name": "block_16_depthwise_BN", "trainable": true, "dtype": {"module": "keras", "className": "DTypePolicy", "config": {"name": "float32"}, "registeredName": null}, "axis": -1, "momentum": 0.999, "epsilon": 0.001, "center": true, "scale": true, "betaInitializer": {"module": "keras.initializers", "className": "Zeros", "config": {}, "registeredName": null}, "gammaInitializer": {"module": "keras.initializers", "className": "Ones", "config": {}, "registeredName": null}, "movingMeanInitializer": {"module": "keras.initializers", "className": "Zeros", "config": {}, "registeredName": null}, "movingVarianceInitializer": {"module": "keras.initializers", "className": "Ones", "config": {}, "registeredName": null}, "betaRegularizer": null, "gammaRegularizer": null, "betaConstraint": null, "gammaConstraint": null, "synchronized": false}, "name": "block_16_depthwise_BN", "inboundNodes": [{"args": [{"className": "__keras_tensor__", "config": {"shape": [null, 7, 7, 960], "dtype": "float32", "kerasHistory": ["block_16_depthwise", 0, 0]}}], "kwargs": {"mask": null}}]}, {"className": "ReLU", "config": {"name": "block_16_depthwise_relu", "trainable": true, "dtype": {"module": "keras", "className": "DTypePolicy", "config": {"name": "float32"}, "registeredName": null}, "maxValue": 6.0, "negativeSlope": 0.0, "threshold": 0.0}, "name": "block_16_depthwise_relu", "inboundNodes": [{"args": [{"className": "__keras_tensor__", "config": {"shape": [null, 7, 7, 960], "dtype": "float32", "kerasHistory": ["block_16_depthwise_BN", 0, 0]}}], "kwargs": {}}]}, {"className": "Conv2D", "config": {"name": "block_16_project", "trainable": true, "dtype": {"module": "keras", "className": "DTypePolicy", "config": {"name": "float32"}, "registeredName": null}, "filters": 320, "kernelSize": [1, 1], "strides": [1, 1], "padding": "same", "dataFormat": "channels_last", "dilationRate": [1, 1], "groups": 1, "activation": "linear", "useBias": false, "kernelInitializer": {"module": "keras.initializers", "className": "GlorotUniform", "config": {"seed": null}, "registeredName": null}, "biasInitializer": {"module": "keras.initializers", "className": "Zeros", "config": {}, "registeredName": null}, "kernelRegularizer": null, "biasRegularizer": null, "activityRegularizer": null, "kernelConstraint": null, "biasConstraint": null}, "name": "block_16_project", "inboundNodes": [{"args": [{"className": "__keras_tensor__", "config": {"shape": [null, 7, 7, 960], "dtype": "float32", "kerasHistory": ["block_16_depthwise_relu", 0, 0]}}], "kwargs": {}}]}, {"className": "BatchNormalization", "config": {"name": "block_16_project_BN", "trainable": true, "dtype": {"module": "keras", "className": "DTypePolicy", "config": {"name": "float32"}, "registeredName": null}, "axis": -1, "momentum": 0.999, "epsilon": 0.001, "center": true, "scale": true, "betaInitializer": {"module": "keras.initializers", "className": "Zeros", "config": {}, "registeredName": null}, "gammaInitializer": {"module": "keras.initializers", "className": "Ones", "config": {}, "registeredName": null}, "movingMeanInitializer": {"module": "keras.initializers", "className": "Zeros", "config": {}, "registeredName": null}, "movingVarianceInitializer": {"module": "keras.initializers", "className": "Ones", "config": {}, "registeredName": null}, "betaRegularizer": null, "gammaRegularizer": null, "betaConstraint": null, "gammaConstraint": null, "synchronized": false}, "name": "block_16_project_BN", "inboundNodes": [{"args": [{"className": "__keras_tensor__", "config": {"shape": [null, 7, 7, 320], "dtype": "float32", "kerasHistory": ["block_16_project", 0, 0]}}], "kwargs": {"mask": null}}]}, {"className": "Conv2D", "config": {"name": "Conv_1", "trainable": true, "dtype": {"module": "keras", "className": "DTypePolicy", "config": {"name": "float32"}, "registeredName": null}, "filters": 1280, "kernelSize": [1, 1], "strides": [1, 1], "padding": "valid", "dataFormat": "channels_last", "dilationRate": [1, 1], "groups": 1, "activation": "linear", "useBias": false, "kernelInitializer": {"module": "keras.initializers", "className": "GlorotUniform", "config": {"seed": null}, "registeredName": null}, "biasInitializer": {"module": "keras.initializers", "className": "Zeros", "config": {}, "registeredName": null}, "kernelRegularizer": null, "biasRegularizer": null, "activityRegularizer": null, "kernelConstraint": null, "biasConstraint": null}, "name": "Conv_1", "inboundNodes": [{"args": [{"className": "__keras_tensor__", "config": {"shape": [null, 7, 7, 320], "dtype": "float32", "kerasHistory": ["block_16_project_BN", 0, 0]}}], "kwargs": {}}]}, {"className": "BatchNormalization", "config": {"name": "Conv_1_bn", "trainable": true, "dtype": {"module": "keras", "className": "DTypePolicy", "config": {"name": "float32"}, "registeredName": null}, "axis": -1, "momentum": 0.999, "epsilon": 0.001, "center": true, "scale": true, "betaInitializer": {"module": "keras.initializers", "className": "Zeros", "config": {}, "registeredName": null}, "gammaInitializer": {"module": "keras.initializers", "className": "Ones", "config": {}, "registeredName": null}, "movingMeanInitializer": {"module": "keras.initializers", "className": "Zeros", "config": {}, "registeredName": null}, "movingVarianceInitializer": {"module": "keras.initializers", "className": "Ones", "config": {}, "registeredName": null}, "betaRegularizer": null, "gammaRegularizer": null, "betaConstraint": null, "gammaConstraint": null, "synchronized": false}, "name": "Conv_1_bn", "inboundNodes": [{"args": [{"className": "__keras_tensor__", "config": {"shape": [null, 7, 7, 1280], "dtype": "float32", "kerasHistory": ["Conv_1", 0, 0]}}], "kwargs": {"mask": null}}]}, {"className": "ReLU", "config": {"name": "out_relu", "trainable": true, "dtype": {"module": "keras", "className": "DTypePolicy", "config": {"name": "float32"}, "registeredName": null}, "maxValue": 6.0, "negativeSlope": 0.0, "threshold": 0.0}, "name": "out_relu", "inboundNodes": [{"args": [{"className": "__keras_tensor__", "config": {"shape": [null, 7, 7, 1280], "dtype": "float32", "kerasHistory": ["Conv_1_bn", 0, 0]}}], "kwargs": {}}]}, {"className": "GlobalAveragePooling2D", "config": {"name": "global_average_pooling2d_1", "trainable": true, "dtype": {"module": "keras", "className": "DTypePolicy", "config": {"name": "float32"}, "registeredName": null}, "dataFormat": "channels_last", "keepdims": false}, "name": "global_average_pooling2d_1", "inboundNodes": [{"args": [{"className": "__keras_tensor__", "config": {"shape": [null, 7, 7, 1280], "dtype": "float32", "kerasHistory": ["out_relu", 0, 0]}}], "kwargs": {}}]}, {"className": "Dropout", "config": {"name": "dropout_1", "trainable": true, "dtype": {"module": "keras", "className": "DTypePolicy", "config": {"name": "float32"}, "registeredName": null}, "rate": 0.4, "seed": null, "noiseShape": null}, "name": "dropout_1", "inboundNodes": [{"args": [{"className": "__keras_tensor__", "config": {"shape": [null, 1280], "dtype": "float32", "kerasHistory": ["global_average_pooling2d_1", 0, 0]}}], "kwargs": {"training": false}}]}, {"className": "Dense", "config": {"name": "dense_1", "trainable": true, "dtype": {"module": "keras", "className": "DTypePolicy", "config": {"name": "float32"}, "registeredName": null}, "units": 4, "activation": "softmax", "useBias": true, "kernelInitializer": {"module": "keras.initializers", "className": "GlorotUniform", "config": {"seed": null}, "registeredName": null}, "biasInitializer": {"module": "keras.initializers", "className": "Zeros", "config": {}, "registeredName": null}, "kernelRegularizer": null, "biasRegularizer": null, "kernelConstraint": null, "biasConstraint": null, "quantizationConfig": null}, "name": "dense_1", "inboundNodes": [{"args": [{"className": "__keras_tensor__", "config": {"shape": [null, 1280], "dtype": "float32", "kerasHistory": ["dropout_1", 0, 0]}}], "kwargs": {}}]}], "inputLayers": [["input_image", 0, 0]], "outputLayers": [["dense_1", 0, 0]]}}, "trainingConfig": {"loss": "categorical_crossentropy", "lossWeights": null, "metrics": ["accuracy"], "weightedMetrics": null, "runEagerly": false, "stepsPerExecution": 1, "jitCompile": false, "optimizerConfig": {"className": "Adam", "config": {"name": "adam", "learningRate": 9.999999747378752e-06, "weightDecay": null, "clipnorm": null, "globalClipnorm": null, "clipvalue": null, "useEma": false, "emaMomentum": 0.99, "emaOverwriteFrequency": null, "lossScaleFactor": null, "gradientAccumulationSteps": null, "beta1": 0.9, "beta2": 0.999, "epsilon": 1e-07, "amsgrad": false}}}}, "weightsManifest": [{"paths": ["group1-shard1of3.bin", "group1-shard2of3.bin", "group1-shard3of3.bin"], "weights": [{"name": "Conv1/kernel", "shape": [3, 3, 3, 32], "dtype": "float32"}, {"name": "Conv_1/kernel", "shape": [1, 1, 320, 1280], "dtype": "float32"}, {"name": "Conv_1_bn/gamma", "shape": [1280], "dtype": "float32"}, {"name": "Conv_1_bn/beta", "shape": [1280], "dtype": "float32"}, {"name": "Conv_1_bn/moving_mean", "shape": [1280], "dtype": "float32"}, {"name": "Conv_1_bn/moving_variance", "shape": [1280], "dtype": "float32"}, {"name": "block_10_depthwise/kernel", "shape": [3, 3, 384, 1], "dtype": "float32"}, {"name": "block_10_depthwise_BN/gamma", "shape": [384], "dtype": "float32"}, {"name": "block_10_depthwise_BN/beta", "shape": [384], "dtype": "float32"}, {"name": "block_10_depthwise_BN/moving_mean", "shape": [384], "dtype": "float32"}, {"name": "block_10_depthwise_BN/moving_variance", "shape": [384], "dtype": "float32"}, {"name": "block_10_expand/kernel", "shape": [1, 1, 64, 384], "dtype": "float32"}, {"name": "block_10_expand_BN/gamma", "shape": [384], "dtype": "float32"}, {"name": "block_10_expand_BN/beta", "shape": [384], "dtype": "float32"}, {"name": "block_10_expand_BN/moving_mean", "shape": [384], "dtype": "float32"}, {"name": "block_10_expand_BN/moving_variance", "shape": [384], "dtype": "float32"}, {"name": "block_10_project/kernel", "shape": [1, 1, 384, 96], "dtype": "float32"}, {"name": "block_10_project_BN/gamma", "shape": [96], "dtype": "float32"}, {"name": "block_10_project_BN/beta", "shape": [96], "dtype": "float32"}, {"name": "block_10_project_BN/moving_mean", "shape": [96], "dtype": "float32"}, {"name": "block_10_project_BN/moving_variance", "shape": [96], "dtype": "float32"}, {"name": "block_11_depthwise/kernel", "shape": [3, 3, 576, 1], "dtype": "float32"}, {"name": "block_11_depthwise_BN/gamma", "shape": [576], "dtype": "float32"}, {"name": "block_11_depthwise_BN/beta", "shape": [576], "dtype": "float32"}, {"name": "block_11_depthwise_BN/moving_mean", "shape": [576], "dtype": "float32"}, {"name": "block_11_depthwise_BN/moving_variance", "shape": [576], "dtype": "float32"}, {"name": "block_11_expand/kernel", "shape": [1, 1, 96, 576], "dtype": "float32"}, {"name": "block_11_expand_BN/gamma", "shape": [576], "dtype": "float32"}, {"name": "block_11_expand_BN/beta", "shape": [576], "dtype": "float32"}, {"name": "block_11_expand_BN/moving_mean", "shape": [576], "dtype": "float32"}, {"name": "block_11_expand_BN/moving_variance", "shape": [576], "dtype": "float32"}, {"name": "block_11_project/kernel", "shape": [1, 1, 576, 96], "dtype": "float32"}, {"name": "block_11_project_BN/gamma", "shape": [96], "dtype": "float32"}, {"name": "block_11_project_BN/beta", "shape": [96], "dtype": "float32"}, {"name": "block_11_project_BN/moving_mean", "shape": [96], "dtype": "float32"}, {"name": "block_11_project_BN/moving_variance", "shape": [96], "dtype": "float32"}, {"name": "block_12_depthwise/kernel", "shape": [3, 3, 576, 1], "dtype": "float32"}, {"name": "block_12_depthwise_BN/gamma", "shape": [576], "dtype": "float32"}, {"name": "block_12_depthwise_BN/beta", "shape": [576], "dtype": "float32"}, {"name": "block_12_depthwise_BN/moving_mean", "shape": [576], "dtype": "float32"}, {"name": "block_12_depthwise_BN/moving_variance", "shape": [576], "dtype": "float32"}, {"name": "block_12_expand/kernel", "shape": [1, 1, 96, 576], "dtype": "float32"}, {"name": "block_12_expand_BN/gamma", "shape": [576], "dtype": "float32"}, {"name": "block_12_expand_BN/beta", "shape": [576], "dtype": "float32"}, {"name": "block_12_expand_BN/moving_mean", "shape": [576], "dtype": "float32"}, {"name": "block_12_expand_BN/moving_variance", "shape": [576], "dtype": "float32"}, {"name": "block_12_project/kernel", "shape": [1, 1, 576, 96], "dtype": "float32"}, {"name": "block_12_project_BN/gamma", "shape": [96], "dtype": "float32"}, {"name": "block_12_project_BN/beta", "shape": [96], "dtype": "float32"}, {"name": "block_12_project_BN/moving_mean", "shape": [96], "dtype": "float32"}, {"name": "block_12_project_BN/moving_variance", "shape": [96], "dtype": "float32"}, {"name": "block_13_depthwise/kernel", "shape": [3, 3, 576, 1], "dtype": "float32"}, {"name": "block_13_depthwise_BN/gamma", "shape": [576], "dtype": "float32"}, {"name": "block_13_depthwise_BN/beta", "shape": [576], "dtype": "float32"}, {"name": "block_13_depthwise_BN/moving_mean", "shape": [576], "dtype": "float32"}, {"name": "block_13_depthwise_BN/moving_variance", "shape": [576], "dtype": "float32"}, {"name": "block_13_expand/kernel", "shape": [1, 1, 96, 576], "dtype": "float32"}, {"name": "block_13_expand_BN/gamma", "shape": [576], "dtype": "float32"}, {"name": "block_13_expand_BN/beta", "shape": [576], "dtype": "float32"}, {"name": "block_13_expand_BN/moving_mean", "shape": [576], "dtype": "float32"}, {"name": "block_13_expand_BN/moving_variance", "shape": [576], "dtype": "float32"}, {"name": "block_13_project/kernel", "shape": [1, 1, 576, 160], "dtype": "float32"}, {"name": "block_13_project_BN/gamma", "shape": [160], "dtype": "float32"}, {"name": "block_13_project_BN/beta", "shape": [160], "dtype": "float32"}, {"name": "block_13_project_BN/moving_mean", "shape": [160], "dtype": "float32"}, {"name": "block_13_project_BN/moving_variance", "shape": [160], "dtype": "float32"}, {"name": "block_14_depthwise/kernel", "shape": [3, 3, 960, 1], "dtype": "float32"}, {"name": "block_14_depthwise_BN/gamma", "shape": [960], "dtype": "float32"}, {"name": "block_14_depthwise_BN/beta", "shape": [960], "dtype": "float32"}, {"name": "block_14_depthwise_BN/moving_mean", "shape": [960], "dtype": "float32"}, {"name": "block_14_depthwise_BN/moving_variance", "shape": [960], "dtype": "float32"}, {"name": "block_14_expand/kernel", "shape": [1, 1, 160, 960], "dtype": "float32"}, {"name": "block_14_expand_BN/gamma", "shape": [960], "dtype": "float32"}, {"name": "block_14_expand_BN/beta", "shape": [960], "dtype": "float32"}, {"name": "block_14_expand_BN/moving_mean", "shape": [960], "dtype": "float32"}, {"name": "block_14_expand_BN/moving_variance", "shape": [960], "dtype": "float32"}, {"name": "block_14_project/kernel", "shape": [1, 1, 960, 160], "dtype": "float32"}, {"name": "block_14_project_BN/gamma", "shape": [160], "dtype": "float32"}, {"name": "block_14_project_BN/beta", "shape": [160], "dtype": "float32"}, {"name": "block_14_project_BN/moving_mean", "shape": [160], "dtype": "float32"}, {"name": "block_14_project_BN/moving_variance", "shape": [160], "dtype": "float32"}, {"name": "block_15_depthwise/kernel", "shape": [3, 3, 960, 1], "dtype": "float32"}, {"name": "block_15_depthwise_BN/gamma", "shape": [960], "dtype": "float32"}, {"name": "block_15_depthwise_BN/beta", "shape": [960], "dtype": "float32"}, {"name": "block_15_depthwise_BN/moving_mean", "shape": [960], "dtype": "float32"}, {"name": "block_15_depthwise_BN/moving_variance", "shape": [960], "dtype": "float32"}, {"name": "block_15_expand/kernel", "shape": [1, 1, 160, 960], "dtype": "float32"}, {"name": "block_15_expand_BN/gamma", "shape": [960], "dtype": "float32"}, {"name": "block_15_expand_BN/beta", "shape": [960], "dtype": "float32"}, {"name": "block_15_expand_BN/moving_mean", "shape": [960], "dtype": "float32"}, {"name": "block_15_expand_BN/moving_variance", "shape": [960], "dtype": "float32"}, {"name": "block_15_project/kernel", "shape": [1, 1, 960, 160], "dtype": "float32"}, {"name": "block_15_project_BN/gamma", "shape": [160], "dtype": "float32"}, {"name": "block_15_project_BN/beta", "shape": [160], "dtype": "float32"}, {"name": "block_15_project_BN/moving_mean", "shape": [160], "dtype": "float32"}, {"name": "block_15_project_BN/moving_variance", "shape": [160], "dtype": "float32"}, {"name": "block_16_depthwise/kernel", "shape": [3, 3, 960, 1], "dtype": "float32"}, {"name": "block_16_depthwise_BN/gamma", "shape": [960], "dtype": "float32"}, {"name": "block_16_depthwise_BN/beta", "shape": [960], "dtype": "float32"}, {"name": "block_16_depthwise_BN/moving_mean", "shape": [960], "dtype": "float32"}, {"name": "block_16_depthwise_BN/moving_variance", "shape": [960], "dtype": "float32"}, {"name": "block_16_expand/kernel", "shape": [1, 1, 160, 960], "dtype": "float32"}, {"name": "block_16_expand_BN/gamma", "shape": [960], "dtype": "float32"}, {"name": "block_16_expand_BN/beta", "shape": [960], "dtype": "float32"}, {"name": "block_16_expand_BN/moving_mean", "shape": [960], "dtype": "float32"}, {"name": "block_16_expand_BN/moving_variance", "shape": [960], "dtype": "float32"}, {"name": "block_16_project/kernel", "shape": [1, 1, 960, 320], "dtype": "float32"}, {"name": "block_16_project_BN/gamma", "shape": [320], "dtype": "float32"}, {"name": "block_16_project_BN/beta", "shape": [320], "dtype": "float32"}, {"name": "block_16_project_BN/moving_mean", "shape": [320], "dtype": "float32"}, {"name": "block_16_project_BN/moving_variance", "shape": [320], "dtype": "float32"}, {"name": "block_1_depthwise/kernel", "shape": [3, 3, 96, 1], "dtype": "float32"}, {"name": "block_1_depthwise_BN/gamma", "shape": [96], "dtype": "float32"}, {"name": "block_1_depthwise_BN/beta", "shape": [96], "dtype": "float32"}, {"name": "block_1_depthwise_BN/moving_mean", "shape": [96], "dtype": "float32"}, {"name": "block_1_depthwise_BN/moving_variance", "shape": [96], "dtype": "float32"}, {"name": "block_1_expand/kernel", "shape": [1, 1, 16, 96], "dtype": "float32"}, {"name": "block_1_expand_BN/gamma", "shape": [96], "dtype": "float32"}, {"name": "block_1_expand_BN/beta", "shape": [96], "dtype": "float32"}, {"name": "block_1_expand_BN/moving_mean", "shape": [96], "dtype": "float32"}, {"name": "block_1_expand_BN/moving_variance", "shape": [96], "dtype": "float32"}, {"name": "block_1_project/kernel", "shape": [1, 1, 96, 24], "dtype": "float32"}, {"name": "block_1_project_BN/gamma", "shape": [24], "dtype": "float32"}, {"name": "block_1_project_BN/beta", "shape": [24], "dtype": "float32"}, {"name": "block_1_project_BN/moving_mean", "shape": [24], "dtype": "float32"}, {"name": "block_1_project_BN/moving_variance", "shape": [24], "dtype": "float32"}, {"name": "block_2_depthwise/kernel", "shape": [3, 3, 144, 1], "dtype": "float32"}, {"name": "block_2_depthwise_BN/gamma", "shape": [144], "dtype": "float32"}, {"name": "block_2_depthwise_BN/beta", "shape": [144], "dtype": "float32"}, {"name": "block_2_depthwise_BN/moving_mean", "shape": [144], "dtype": "float32"}, {"name": "block_2_depthwise_BN/moving_variance", "shape": [144], "dtype": "float32"}, {"name": "block_2_expand/kernel", "shape": [1, 1, 24, 144], "dtype": "float32"}, {"name": "block_2_expand_BN/gamma", "shape": [144], "dtype": "float32"}, {"name": "block_2_expand_BN/beta", "shape": [144], "dtype": "float32"}, {"name": "block_2_expand_BN/moving_mean", "shape": [144], "dtype": "float32"}, {"name": "block_2_expand_BN/moving_variance", "shape": [144], "dtype": "float32"}, {"name": "block_2_project/kernel", "shape": [1, 1, 144, 24], "dtype": "float32"}, {"name": "block_2_project_BN/gamma", "shape": [24], "dtype": "float32"}, {"name": "block_2_project_BN/beta", "shape": [24], "dtype": "float32"}, {"name": "block_2_project_BN/moving_mean", "shape": [24], "dtype": "float32"}, {"name": "block_2_project_BN/moving_variance", "shape": [24], "dtype": "float32"}, {"name": "block_3_depthwise/kernel", "shape": [3, 3, 144, 1], "dtype": "float32"}, {"name": "block_3_depthwise_BN/gamma", "shape": [144], "dtype": "float32"}, {"name": "block_3_depthwise_BN/beta", "shape": [144], "dtype": "float32"}, {"name": "block_3_depthwise_BN/moving_mean", "shape": [144], "dtype": "float32"}, {"name": "block_3_depthwise_BN/moving_variance", "shape": [144], "dtype": "float32"}, {"name": "block_3_expand/kernel", "shape": [1, 1, 24, 144], "dtype": "float32"}, {"name": "block_3_expand_BN/gamma", "shape": [144], "dtype": "float32"}, {"name": "block_3_expand_BN/beta", "shape": [144], "dtype": "float32"}, {"name": "block_3_expand_BN/moving_mean", "shape": [144], "dtype": "float32"}, {"name": "block_3_expand_BN/moving_variance", "shape": [144], "dtype": "float32"}, {"name": "block_3_project/kernel", "shape": [1, 1, 144, 32], "dtype": "float32"}, {"name": "block_3_project_BN/gamma", "shape": [32], "dtype": "float32"}, {"name": "block_3_project_BN/beta", "shape": [32], "dtype": "float32"}, {"name": "block_3_project_BN/moving_mean", "shape": [32], "dtype": "float32"}, {"name": "block_3_project_BN/moving_variance", "shape": [32], "dtype": "float32"}, {"name": "block_4_depthwise/kernel", "shape": [3, 3, 192, 1], "dtype": "float32"}, {"name": "block_4_depthwise_BN/gamma", "shape": [192], "dtype": "float32"}, {"name": "block_4_depthwise_BN/beta", "shape": [192], "dtype": "float32"}, {"name": "block_4_depthwise_BN/moving_mean", "shape": [192], "dtype": "float32"}, {"name": "block_4_depthwise_BN/moving_variance", "shape": [192], "dtype": "float32"}, {"name": "block_4_expand/kernel", "shape": [1, 1, 32, 192], "dtype": "float32"}, {"name": "block_4_expand_BN/gamma", "shape": [192], "dtype": "float32"}, {"name": "block_4_expand_BN/beta", "shape": [192], "dtype": "float32"}, {"name": "block_4_expand_BN/moving_mean", "shape": [192], "dtype": "float32"}, {"name": "block_4_expand_BN/moving_variance", "shape": [192], "dtype": "float32"}, {"name": "block_4_project/kernel", "shape": [1, 1, 192, 32], "dtype": "float32"}, {"name": "block_4_project_BN/gamma", "shape": [32], "dtype": "float32"}, {"name": "block_4_project_BN/beta", "shape": [32], "dtype": "float32"}, {"name": "block_4_project_BN/moving_mean", "shape": [32], "dtype": "float32"}, {"name": "block_4_project_BN/moving_variance", "shape": [32], "dtype": "float32"}, {"name": "block_5_depthwise/kernel", "shape": [3, 3, 192, 1], "dtype": "float32"}, {"name": "block_5_depthwise_BN/gamma", "shape": [192], "dtype": "float32"}, {"name": "block_5_depthwise_BN/beta", "shape": [192], "dtype": "float32"}, {"name": "block_5_depthwise_BN/moving_mean", "shape": [192], "dtype": "float32"}, {"name": "block_5_depthwise_BN/moving_variance", "shape": [192], "dtype": "float32"}, {"name": "block_5_expand/kernel", "shape": [1, 1, 32, 192], "dtype": "float32"}, {"name": "block_5_expand_BN/gamma", "shape": [192], "dtype": "float32"}, {"name": "block_5_expand_BN/beta", "shape": [192], "dtype": "float32"}, {"name": "block_5_expand_BN/moving_mean", "shape": [192], "dtype": "float32"}, {"name": "block_5_expand_BN/moving_variance", "shape": [192], "dtype": "float32"}, {"name": "block_5_project/kernel", "shape": [1, 1, 192, 32], "dtype": "float32"}, {"name": "block_5_project_BN/gamma", "shape": [32], "dtype": "float32"}, {"name": "block_5_project_BN/beta", "shape": [32], "dtype": "float32"}, {"name": "block_5_project_BN/moving_mean", "shape": [32], "dtype": "float32"}, {"name": "block_5_project_BN/moving_variance", "shape": [32], "dtype": "float32"}, {"name": "block_6_depthwise/kernel", "shape": [3, 3, 192, 1], "dtype": "float32"}, {"name": "block_6_depthwise_BN/gamma", "shape": [192], "dtype": "float32"}, {"name": "block_6_depthwise_BN/beta", "shape": [192], "dtype": "float32"}, {"name": "block_6_depthwise_BN/moving_mean", "shape": [192], "dtype": "float32"}, {"name": "block_6_depthwise_BN/moving_variance", "shape": [192], "dtype": "float32"}, {"name": "block_6_expand/kernel", "shape": [1, 1, 32, 192], "dtype": "float32"}, {"name": "block_6_expand_BN/gamma", "shape": [192], "dtype": "float32"}, {"name": "block_6_expand_BN/beta", "shape": [192], "dtype": "float32"}, {"name": "block_6_expand_BN/moving_mean", "shape": [192], "dtype": "float32"}, {"name": "block_6_expand_BN/moving_variance", "shape": [192], "dtype": "float32"}, {"name": "block_6_project/kernel", "shape": [1, 1, 192, 64], "dtype": "float32"}, {"name": "block_6_project_BN/gamma", "shape": [64], "dtype": "float32"}, {"name": "block_6_project_BN/beta", "shape": [64], "dtype": "float32"}, {"name": "block_6_project_BN/moving_mean", "shape": [64], "dtype": "float32"}, {"name": "block_6_project_BN/moving_variance", "shape": [64], "dtype": "float32"}, {"name": "block_7_depthwise/kernel", "shape": [3, 3, 384, 1], "dtype": "float32"}, {"name": "block_7_depthwise_BN/gamma", "shape": [384], "dtype": "float32"}, {"name": "block_7_depthwise_BN/beta", "shape": [384], "dtype": "float32"}, {"name": "block_7_depthwise_BN/moving_mean", "shape": [384], "dtype": "float32"}, {"name": "block_7_depthwise_BN/moving_variance", "shape": [384], "dtype": "float32"}, {"name": "block_7_expand/kernel", "shape": [1, 1, 64, 384], "dtype": "float32"}, {"name": "block_7_expand_BN/gamma", "shape": [384], "dtype": "float32"}, {"name": "block_7_expand_BN/beta", "shape": [384], "dtype": "float32"}, {"name": "block_7_expand_BN/moving_mean", "shape": [384], "dtype": "float32"}, {"name": "block_7_expand_BN/moving_variance", "shape": [384], "dtype": "float32"}, {"name": "block_7_project/kernel", "shape": [1, 1, 384, 64], "dtype": "float32"}, {"name": "block_7_project_BN/gamma", "shape": [64], "dtype": "float32"}, {"name": "block_7_project_BN/beta", "shape": [64], "dtype": "float32"}, {"name": "block_7_project_BN/moving_mean", "shape": [64], "dtype": "float32"}, {"name": "block_7_project_BN/moving_variance", "shape": [64], "dtype": "float32"}, {"name": "block_8_depthwise/kernel", "shape": [3, 3, 384, 1], "dtype": "float32"}, {"name": "block_8_depthwise_BN/gamma", "shape": [384], "dtype": "float32"}, {"name": "block_8_depthwise_BN/beta", "shape": [384], "dtype": "float32"}, {"name": "block_8_depthwise_BN/moving_mean", "shape": [384], "dtype": "float32"}, {"name": "block_8_depthwise_BN/moving_variance", "shape": [384], "dtype": "float32"}, {"name": "block_8_expand/kernel", "shape": [1, 1, 64, 384], "dtype": "float32"}, {"name": "block_8_expand_BN/gamma", "shape": [384], "dtype": "float32"}, {"name": "block_8_expand_BN/beta", "shape": [384], "dtype": "float32"}, {"name": "block_8_expand_BN/moving_mean", "shape": [384], "dtype": "float32"}, {"name": "block_8_expand_BN/moving_variance", "shape": [384], "dtype": "float32"}, {"name": "block_8_project/kernel", "shape": [1, 1, 384, 64], "dtype": "float32"}, {"name": "block_8_project_BN/gamma", "shape": [64], "dtype": "float32"}, {"name": "block_8_project_BN/beta", "shape": [64], "dtype": "float32"}, {"name": "block_8_project_BN/moving_mean", "shape": [64], "dtype": "float32"}, {"name": "block_8_project_BN/moving_variance", "shape": [64], "dtype": "float32"}, {"name": "block_9_depthwise/kernel", "shape": [3, 3, 384, 1], "dtype": "float32"}, {"name": "block_9_depthwise_BN/gamma", "shape": [384], "dtype": "float32"}, {"name": "block_9_depthwise_BN/beta", "shape": [384], "dtype": "float32"}, {"name": "block_9_depthwise_BN/moving_mean", "shape": [384], "dtype": "float32"}, {"name": "block_9_depthwise_BN/moving_variance", "shape": [384], "dtype": "float32"}, {"name": "block_9_expand/kernel", "shape": [1, 1, 64, 384], "dtype": "float32"}, {"name": "block_9_expand_BN/gamma", "shape": [384], "dtype": "float32"}, {"name": "block_9_expand_BN/beta", "shape": [384], "dtype": "float32"}, {"name": "block_9_expand_BN/moving_mean", "shape": [384], "dtype": "float32"}, {"name": "block_9_expand_BN/moving_variance", "shape": [384], "dtype": "float32"}, {"name": "block_9_project/kernel", "shape": [1, 1, 384, 64], "dtype": "float32"}, {"name": "block_9_project_BN/gamma", "shape": [64], "dtype": "float32"}, {"name": "block_9_project_BN/beta", "shape": [64], "dtype": "float32"}, {"name": "block_9_project_BN/moving_mean", "shape": [64], "dtype": "float32"}, {"name": "block_9_project_BN/moving_variance", "shape": [64], "dtype": "float32"}, {"name": "bn_Conv1/gamma", "shape": [32], "dtype": "float32"}, {"name": "bn_Conv1/beta", "shape": [32], "dtype": "float32"}, {"name": "bn_Conv1/moving_mean", "shape": [32], "dtype": "float32"}, {"name": "bn_Conv1/moving_variance", "shape": [32], "dtype": "float32"}, {"name": "dense_1/kernel", "shape": [1280, 4], "dtype": "float32"}, {"name": "dense_1/bias", "shape": [4], "dtype": "float32"}, {"name": "expanded_conv_depthwise/kernel", "shape": [3, 3, 32, 1], "dtype": "float32"}, {"name": "expanded_conv_depthwise_BN/gamma", "shape": [32], "dtype": "float32"}, {"name": "expanded_conv_depthwise_BN/beta", "shape": [32], "dtype": "float32"}, {"name": "expanded_conv_depthwise_BN/moving_mean", "shape": [32], "dtype": "float32"}, {"name": "expanded_conv_depthwise_BN/moving_variance", "shape": [32], "dtype": "float32"}, {"name": "expanded_conv_project/kernel", "shape": [1, 1, 32, 16], "dtype": "float32"}, {"name": "expanded_conv_project_BN/gamma", "shape": [16], "dtype": "float32"}, {"name": "expanded_conv_project_BN/beta", "shape": [16], "dtype": "float32"}, {"name": "expanded_conv_project_BN/moving_mean", "shape": [16], "dtype": "float32"}, {"name": "expanded_conv_project_BN/moving_variance", "shape": [16], "dtype": "float32"}]}]}
