{"format": "layers-model", "generatedBy": "keras v3.10.0", "convertedBy": "TensorFlow.js Converter v4.22.0", "modelTopology": {"keras_version": "3.10.0", "backend": "tensorflow", "model_config": {"class_name": "Functional", "config": {"name": "functional_1", "trainable": true, "layers": [{"config": {"dtype": "float32", "sparse": false, "ragged": false, "name": "input_image", "batchInputShape": [null, 224, 224, 3]}, "name": "input_image", "class_name": "InputLayer", "inbound_nodes": []}, {"config": {"name": "Conv1", "trainable": false, "dtype": {"module": "keras", "config": {"name": "float32"}, "registeredName": null, "class_name": "DTypePolicy"}, "filters": 32, "strides": [2, 2], "padding": "same", "groups": 1, "activation": "linear", "useBias": false, "kernelInitializer": {"module": "keras.initializers", "config": {"seed": null}, "registeredName": null, "class_name": "GlorotUniform"}, "biasInitializer": {"module": "keras.initializers", "config": {}, "registeredName": null, "class_name": "Zeros"}, "kernelRegularizer": null, "biasRegularizer": null, "activityRegularizer": null, "kernelConstraint": null, "biasConstraint": null, "kernelSize": [3, 3], "dilationRate": [1, 1], "dataFormat": "channels_last"}, "name": "Conv1", "class_name": "Conv2D", "inbound_nodes": [[["input_image", 0, 0]]]}, {"config": {"name": "bn_Conv1", "trainable": false, "dtype": {"module": "keras", "config": {"name": "float32"}, "registeredName": null, "class_name": "DTypePolicy"}, "axis": -1, "momentum": 0.999, "epsilon": 0.001, "center": true, "scale": true, "betaInitializer": {"module": "keras.initializers", "config": {}, "registeredName": null, "class_name": "Zeros"}, "gammaInitializer": {"module": "keras.initializers", "config": {}, "registeredName": null, "class_name": "Ones"}, "movingMeanInitializer": {"module": "keras.initializers", "config": {}, "registeredName": null, "class_name": "Zeros"}, "movingVarianceInitializer": {"module": "keras.initializers", "config": {}, "registeredName": null, "class_name": "Ones"}, "betaRegularizer": null, "gammaRegularizer": null, "betaConstraint": null, "gammaConstraint": null, "synchronized": false}, "name": "bn_Conv1", "class_name": "BatchNormalization", "inbound_nodes": [[["Conv1", 0, 0]]]}, {"config": {"name": "Conv1_relu", "trainable": false, "dtype": {"module": "keras", "config": {"name": "float32"}, "registeredName": null, "class_name": "DTypePolicy"}, "threshold": 0.0, "maxValue": 6.0, "negativeSlope": 0.0}, "name": "Conv1_relu", "class_name": "ReLU", "inbound_nodes": [[["bn_Conv1", 0, 0]]]}, {"config": {"name": "expanded_conv_depthwise", "trainable": false, "dtype": {"module": "keras", "config": {"name": "float32"}, "registeredName": null, "class_name": "DTypePolicy"}, "strides": [1, 1], "padding": "same", "activation": "linear", "useBias": false, "depthwiseInitializer": {"module": "keras.initializers", "config": {"seed": null}, "registeredName": null, "class_name": "GlorotUniform"}, "biasInitializer": {"module": "keras.initializers", "config": {}, "registeredName": null, "class_name": "Zeros"}, "depthwiseRegularizer": null, "biasRegularizer": null, "activityRegularizer": null, "depthwiseConstraint": null, "biasConstraint": null, "kernelSize": [3, 3], "dilationRate": [1, 1], "dataFormat": "channels_last", "depthMultiplier": 1}, "name": "expanded_conv_depthwise", "class_name": "DepthwiseConv2D", "inbound_nodes": [[["Conv1_relu", 0, 0]]]}, {"config": {"name": "expanded_conv_depthwise_BN", "trainable": false, "dtype": {"module": "keras", "config": {"name": "float32"}, "registeredName": null, "class_name": "DTypePolicy"}, "axis": -1, "momentum": 0.999, "epsilon": 0.001, "center": true, "scale": true, "betaInitializer": {"module": "keras.initializers", "config": {}, "registeredName": null, "class_name": "Zeros"}, "gammaInitializer": {"module": "keras.initializers", "config": {}, "registeredName": null, "class_name": "Ones"}, "movingMeanInitializer": {"module": "keras.initializers", "config": {}, "registeredName": null, "class_name": "Zeros"}, "movingVarianceInitializer": {"module": "keras.initializers", "config": {}, "registeredName": null, "class_name": "Ones"}, "betaRegularizer": null, "gammaRegularizer": null, "betaConstraint": null, "gammaConstraint": null, "synchronized": false}, "name": "expanded_conv_depthwise_BN", "class_name": "BatchNormalization", "inbound_nodes": [[["expanded_conv_depthwise", 0, 0]]]}, {"config": {"name": "expanded_conv_depthwise_relu", "trainable": false, "dtype": {"module": "keras", "config": {"name": "float32"}, "registeredName": null, "class_name": "DTypePolicy"}, "threshold": 0.0, "maxValue": 6.0, "negativeSlope": 0.0}, "name": "expanded_conv_depthwise_relu", "class_name": "ReLU", "inbound_nodes": [[["expanded_conv_depthwise_BN", 0, 0]]]}, {"config": {"name": "expanded_conv_project", "trainable": false, "dtype": {"module": "keras", "config": {"name": "float32"}, "registeredName": null, "class_name": "DTypePolicy"}, "filters": 16, "strides": [1, 1], "padding": "same", "groups": 1, "activation": "linear", "useBias": false, "kernelInitializer": {"module": "keras.initializers", "config": {"seed": null}, "registeredName": null, "class_name": "GlorotUniform"}, "biasInitializer": {"module": "keras.initializers", "config": {}, "registeredName": null, "class_name": "Zeros"}, "kernelRegularizer": null, "biasRegularizer": null, "activityRegularizer": null, "kernelConstraint": null, "biasConstraint": null, "kernelSize": [1, 1], "dilationRate": [1, 1], "dataFormat": "channels_last"}, "name": "expanded_conv_project", "class_name": "Conv2D", "inbound_nodes": [[["expanded_conv_depthwise_relu", 0, 0]]]}, {"config": {"name": "expanded_conv_project_BN", "trainable": false, "dtype": {"module": "keras", "config": {"name": "float32"}, "registeredName": null, "class_name": "DTypePolicy"}, "axis": -1, "momentum": 0.999, "epsilon": 0.001, "center": true, "scale": true, "betaInitializer": {"module": "keras.initializers", "config": {}, "registeredName": null, "class_name": "Zeros"}, "gammaInitializer": {"module": "keras.initializers", "config": {}, "registeredName": null, "class_name": "Ones"}, "movingMeanInitializer": {"module": "keras.initializers", "config": {}, "registeredName": null, "class_name": "Zeros"}, "movingVarianceInitializer": {"module": "keras.initializers", "config": {}, "registeredName": null, "class_name": "Ones"}, "betaRegularizer": null, "gammaRegularizer": null, "betaConstraint": null, "gammaConstraint": null, "synchronized": false}, "name": "expanded_conv_project_BN", "class_name": "BatchNormalization", "inbound_nodes": [[["expanded_conv_project", 0, 0]]]}, {"config": {"name": "block_1_expand", "trainable": false, "dtype": {"module": "keras", "config": {"name": "float32"}, "registeredName": null, "class_name": "DTypePolicy"}, "filters": 96, "strides": [1, 1], "padding": "same", "groups": 1, "activation": "linear", "useBias": false, "kernelInitializer": {"module": "keras.initializers", "config": {"seed": null}, "registeredName": null, "class_name": "GlorotUniform"}, "biasInitializer": {"module": "keras.initializers", "config": {}, "registeredName": null, "class_name": "Zeros"}, "kernelRegularizer": null, "biasRegularizer": null, "activityRegularizer": null, "kernelConstraint": null, "biasConstraint": null, "kernelSize": [1, 1], "dilationRate": [1, 1], "dataFormat": "channels_last"}, "name": "block_1_expand", "class_name": "Conv2D", "inbound_nodes": [[["expanded_conv_project_BN", 0, 0]]]}, {"config": {"name": "block_1_expand_BN", "trainable": false, "dtype": {"module": "keras", "config": {"name": "float32"}, "registeredName": null, "class_name": "DTypePolicy"}, "axis": -1, "momentum": 0.999, "epsilon": 0.001, "center": true, "scale": true, "betaInitializer": {"module": "keras.initializers", "config": {}, "registeredName": null, "class_name": "Zeros"}, "gammaInitializer": {"module": "keras.initializers", "config": {}, "registeredName": null, "class_name": "Ones"}, "movingMeanInitializer": {"module": "keras.initializers", "config": {}, "registeredName": null, "class_name": "Zeros"}, "movingVarianceInitializer": {"module": "keras.initializers", "config": {}, "registeredName": null, "class_name": "Ones"}, "betaRegularizer": null, "gammaRegularizer": null, "betaConstraint": null, "gammaConstraint": null, "synchronized": false}, "name": "block_1_expand_BN", "class_name": "BatchNormalization", "inbound_nodes": [[["block_1_expand", 0, 0]]]}, {"config": {"name": "block_1_expand_relu", "trainable": false, "dtype": {"module": "keras", "config": {"name": "float32"}, "registeredName": null, "class_name": "DTypePolicy"}, "threshold": 0.0, "maxValue": 6.0, "negativeSlope": 0.0}, "name": "block_1_expand_relu", "class_name": "ReLU", "inbound_nodes": [[["block_1_expand_BN", 0, 0]]]}, {"config": {"name": "block_1_pad", "trainable": false, "dtype": {"module": "keras", "config": {"name": "float32"}, "registeredName": null, "class_name": "DTypePolicy"}, "padding": [[0, 1], [0, 1]], "dataFormat": "channels_last"}, "name": "block_1_pad", "class_name": "ZeroPadding2D", "inbound_nodes": [[["block_1_expand_relu", 0, 0]]]}, {"config": {"name": "block_1_depthwise", "trainable": false, "dtype": {"module": "keras", "config": {"name": "float32"}, "registeredName": null, "class_name": "DTypePolicy"}, "strides": [2, 2], "padding": "valid", "activation": "linear", "useBias": false, "depthwiseInitializer": {"module": "keras.initializers", "config": {"seed": null}, "registeredName": null, "class_name": "GlorotUniform"}, "biasInitializer": {"module": "keras.initializers", "config": {}, "registeredName": null, "class_name": "Zeros"}, "depthwiseRegularizer": null, "biasRegularizer": null, "activityRegularizer": null, "depthwiseConstraint": null, "biasConstraint": null, "kernelSize": [3, 3], "dilationRate": [1, 1], "dataFormat": "channels_last", "depthMultiplier": 1}, "name": "block_1_depthwise", "class_name": "DepthwiseConv2D", "inbound_nodes": [[["block_1_pad", 0, 0]]]}, {"config": {"name": "block_1_depthwise_BN", "trainable": false, "dtype": {"module": "keras", "config": {"name": "float32"}, "registeredName": null, "class_name": "DTypePolicy"}, "axis": -1, "momentum": 0.999, "epsilon": 0.001, "center": true, "scale": true, "betaInitializer": {"module": "keras.initializers", "config": {}, "registeredName": null, "class_name": "Zeros"}, "gammaInitializer": {"module": "keras.initializers", "config": {}, "registeredName": null, "class_name": "Ones"}, "movingMeanInitializer": {"module": "keras.initializers", "config": {}, "registeredName": null, "class_name": "Zeros"}, "movingVarianceInitializer": {"module": "keras.initializers", "config": {}, "registeredName": null, "class_name": "Ones"}, "betaRegularizer": null, "gammaRegularizer": null, "betaConstraint": null, "gammaConstraint": null, "synchronized": false}, "name": "block_1_depthwise_BN", "class_name": "BatchNormalization", "inbound_nodes": [[["block_1_depthwise", 0, 0]]]}, {"config": {"name": "block_1_depthwise_relu", "trainable": false, "dtype": {"module": "keras", "config": {"name": "float32"}, "registeredName": null, "class_name": "DTypePolicy"}, "threshold": 0.0, "maxValue": 6.0, "negativeSlope": 0.0}, "name": "block_1_depthwise_relu", "class_name": "ReLU", "inbound_nodes": [[["block_1_depthwise_BN", 0, 0]]]}, {"config": {"name": "block_1_project", "trainable": false, "dtype": {"module": "keras", "config": {"name": "float32"}, "registeredName": null, "class_name": "DTypePolicy"}, "filters": 24, "strides": [1, 1], "padding": "same", "groups": 1, "activation": "linear", "useBias": false, "kernelInitializer": {"module": "keras.initializers", "config": {"seed": null}, "registeredName": null, "class_name": "GlorotUniform"}, "biasInitializer": {"module": "keras.initializers", "config": {}, "registeredName": null, "class_name": "Zeros"}, "kernelRegularizer": null, "biasRegularizer": null, "activityRegularizer": null, "kernelConstraint": null, "biasConstraint": null, "kernelSize": [1, 1], "dilationRate": [1, 1], "dataFormat": "channels_last"}, "name": "block_1_project", "class_name": "Conv2D", "inbound_nodes": [[["block_1_depthwise_relu", 0, 0]]]}, {"config": {"name": "block_1_project_BN", "trainable": false, "dtype": {"module": "keras", "config": {"name": "float32"}, "registeredName": null, "class_name": "DTypePolicy"}, "axis": -1, "momentum": 0.999, "epsilon": 0.001, "center": true, "scale": true, "betaInitializer": {"module": "keras.initializers", "config": {}, "registeredName": null, "class_name": "Zeros"}, "gammaInitializer": {"module": "keras.initializers", "config": {}, "registeredName": null, "class_name": "Ones"}, "movingMeanInitializer": {"module": "keras.initializers", "config": {}, "registeredName": null, "class_name": "Zeros"}, "movingVarianceInitializer": {"module": "keras.initializers", "config": {}, "registeredName": null, "class_name": "Ones"}, "betaRegularizer": null, "gammaRegularizer": null, "betaConstraint": null, "gammaConstraint": null, "synchronized": false}, "name": "block_1_project_BN", "class_name": "BatchNormalization", "inbound_nodes": [[["block_1_project", 0, 0]]]}, {"config": {"name": "block_2_expand", "trainable": false, "dtype": {"module": "keras", "config": {"name": "float32"}, "registeredName": null, "class_name": "DTypePolicy"}, "filters": 144, "strides": [1, 1], "padding": "same", "groups": 1, "activation": "linear", "useBias": false, "kernelInitializer": {"module": "keras.initializers", "config": {"seed": null}, "registeredName": null, "class_name": "GlorotUniform"}, "biasInitializer": {"module": "keras.initializers", "config": {}, "registeredName": null, "class_name": "Zeros"}, "kernelRegularizer": null, "biasRegularizer": null, "activityRegularizer": null, "kernelConstraint": null, "biasConstraint": null, "kernelSize": [1, 1], "dilationRate": [1, 1], "dataFormat": "channels_last"}, "name": "block_2_expand", "class_name": "Conv2D", "inbound_nodes": [[["block_1_project_BN", 0, 0]]]}, {"config": {"name": "block_2_expand_BN", "trainable": false, "dtype": {"module": "keras", "config": {"name": "float32"}, "registeredName": null, "class_name": "DTypePolicy"}, "axis": -1, "momentum": 0.999, "epsilon": 0.001, "center": true, "scale": true, "betaInitializer": {"module": "keras.initializers", "config": {}, "registeredName": null, "class_name": "Zeros"}, "gammaInitializer": {"module": "keras.initializers", "config": {}, "registeredName": null, "class_name": "Ones"}, "movingMeanInitializer": {"module": "keras.initializers", "config": {}, "registeredName": null, "class_name": "Zeros"}, "movingVarianceInitializer": {"module": "keras.initializers", "config": {}, "registeredName": null, "class_name": "Ones"}, "betaRegularizer": null, "gammaRegularizer": null, "betaConstraint": null, "gammaConstraint": null, "synchronized": false}, "name": "block_2_expand_BN", "class_name": "BatchNormalization", "inbound_nodes": [[["block_2_expand", 0, 0]]]}, {"config": {"name": "block_2_expand_relu", "trainable": false, "dtype": {"module": "keras", "config": {"name": "float32"}, "registeredName": null, "class_name": "DTypePolicy"}, "threshold": 0.0, "maxValue": 6.0, "negativeSlope": 0.0}, "name": "block_2_expand_relu", "class_name": "ReLU", "inbound_nodes": [[["block_2_expand_BN", 0, 0]]]}, {"config": {"name": "block_2_depthwise", "trainable": false, "dtype": {"module": "keras", "config": {"name": "float32"}, "registeredName": null, "class_name": "DTypePolicy"}, "strides": [1, 1], "padding": "same", "activation": "linear", "useBias": false, "depthwiseInitializer": {"module": "keras.initializers", "config": {"seed": null}, "registeredName": null, "class_name": "GlorotUniform"}, "biasInitializer": {"module": "keras.initializers", "config": {}, "registeredName": null, "class_name": "Zeros"}, "depthwiseRegularizer": null, "biasRegularizer": null, "activityRegularizer": null, "depthwiseConstraint": null, "biasConstraint": null, "kernelSize": [3, 3], "dilationRate": [1, 1], "dataFormat": "channels_last", "depthMultiplier": 1}, "name": "block_2_depthwise", "class_name": "DepthwiseConv2D", "inbound_nodes": [[["block_2_expand_relu", 0, 0]]]}, {"config": {"name": "block_2_depthwise_BN", "trainable": false, "dtype": {"module": "keras", "config": {"name": "float32"}, "registeredName": null, "class_name": "DTypePolicy"}, "axis": -1, "momentum": 0.999, "epsilon": 0.001, "center": true, "scale": true, "betaInitializer": {"module": "keras.initializers", "config": {}, "registeredName": null, "class_name": "Zeros"}, "gammaInitializer": {"module": "keras.initializers", "config": {}, "registeredName": null, "class_name": "Ones"}, "movingMeanInitializer": {"module": "keras.initializers", "config": {}, "registeredName": null, "class_name": "Zeros"}, "movingVarianceInitializer": {"module": "keras.initializers", "config": {}, "registeredName": null, "class_name": "Ones"}, "betaRegularizer": null, "gammaRegularizer": null, "betaConstraint": null, "gammaConstraint": null, "synchronized": false}, "name": "block_2_depthwise_BN", "class_name": "BatchNormalization", "inbound_nodes": [[["block_2_depthwise", 0, 0]]]}, {"config": {"name": "block_2_depthwise_relu", "trainable": false, "dtype": {"module": "keras", "config": {"name": "float32"}, "registeredName": null, "class_name": "DTypePolicy"}, "threshold": 0.0, "maxValue": 6.0, "negativeSlope": 0.0}, "name": "block_2_depthwise_relu", "class_name": "ReLU", "inbound_nodes": [[["block_2_depthwise_BN", 0, 0]]]}, {"config": {"name": "block_2_project", "trainable": false, "dtype": {"module": "keras", "config": {"name": "float32"}, "registeredName": null, "class_name": "DTypePolicy"}, "filters": 24, "strides": [1, 1], "padding": "same", "groups": 1, "activation": "linear", "useBias": false, "kernelInitializer": {"module": "keras.initializers", "config": {"seed": null}, "registeredName": null, "class_name": "GlorotUniform"}, "biasInitializer": {"module": "keras.initializers", "config": {}, "registeredName": null, "class_name": "Zeros"}, "kernelRegularizer": null, "biasRegularizer": null, "activityRegularizer": null, "kernelConstraint": null, "biasConstraint": null, "kernelSize": [1, 1], "dilationRate": [1, 1], "dataFormat": "channels_last"}, "name": "block_2_project", "class_name": "Conv2D", "inbound_nodes": [[["block_2_depthwise_relu", 0, 0]]]}, {"config": {"name": "block_2_project_BN", "trainable": false, "dtype": {"module": "keras", "config": {"name": "float32"}, "registeredName": null, "class_name": "DTypePolicy"}, "axis": -1, "momentum": 0.999, "epsilon": 0.001, "center": true, "scale": true, "betaInitializer": {"module": "keras.initializers", "config": {}, "registeredName": null, "class_name": "Zeros"}, "gammaInitializer": {"module": "keras.initializers", "config": {}, "registeredName": null, "class_name": "Ones"}, "movingMeanInitializer": {"module": "keras.initializers", "config": {}, "registeredName": null, "class_name": "Zeros"}, "movingVarianceInitializer": {"module": "keras.initializers", "config": {}, "registeredName": null, "class_name": "Ones"}, "betaRegularizer": null, "gammaRegularizer": null, "betaConstraint": null, "gammaConstraint": null, "synchronized": false}, "name": "block_2_project_BN", "class_name": "BatchNormalization", "inbound_nodes": [[["block_2_project", 0, 0]]]}, {"config": {"name": "block_2_add", "trainable": false, "dtype": {"module": "keras", "config": {"name": "float32"}, "registeredName": null, "class_name": "DTypePolicy"}}, "name": "block_2_add", "class_name": "Add", "inbound_nodes": [[["block_1_project_BN", 0, 0], ["block_2_project_BN", 0, 0]]]}, {"config": {"name": "block_3_expand", "trainable": false, "dtype": {"module": "keras", "config": {"name": "float32"}, "registeredName": null, "class_name": "DTypePolicy"}, "filters": 144, "strides": [1, 1], "padding": "same", "groups": 1, "activation": "linear", "useBias": false, "kernelInitializer": {"module": "keras.initializers", "config": {"seed": null}, "registeredName": null, "class_name": "GlorotUniform"}, "biasInitializer": {"module": "keras.initializers", "config": {}, "registeredName": null, "class_name": "Zeros"}, "kernelRegularizer": null, "biasRegularizer": null, "activityRegularizer": null, "kernelConstraint": null, "biasConstraint": null, "kernelSize": [1, 1], "dilationRate": [1, 1], "dataFormat": "channels_last"}, "name": "block_3_expand", "class_name": "Conv2D", "inbound_nodes": [[["block_2_add", 0, 0]]]}, {"config": {"name": "block_3_expand_BN", "trainable": false, "dtype": {"module": "keras", "config": {"name": "float32"}, "registeredName": null, "class_name": "DTypePolicy"}, "axis": -1, "momentum": 0.999, "epsilon": 0.001, "center": true, "scale": true, "betaInitializer": {"module": "keras.initializers", "config": {}, "registeredName": null, "class_name": "Zeros"}, "gammaInitializer": {"module": "keras.initializers", "config": {}, "registeredName": null, "class_name": "Ones"}, "movingMeanInitializer": {"module": "keras.initializers", "config": {}, "registeredName": null, "class_name": "Zeros"}, "movingVarianceInitializer": {"module": "keras.initializers", "config": {}, "registeredName": null, "class_name": "Ones"}, "betaRegularizer": null, "gammaRegularizer": null, "betaConstraint": null, "gammaConstraint": null, "synchronized": false}, "name": "block_3_expand_BN", "class_name": "BatchNormalization", "inbound_nodes": [[["block_3_expand", 0, 0]]]}, {"config": {"name": "block_3_expand_relu", "trainable": false, "dtype": {"module": "keras", "config": {"name": "float32"}, "registeredName": null, "class_name": "DTypePolicy"}, "threshold": 0.0, "maxValue": 6.0, "negativeSlope": 0.0}, "name": "block_3_expand_relu", "class_name": "ReLU", "inbound_nodes": [[["block_3_expand_BN", 0, 0]]]}, {"config": {"name": "block_3_pad", "trainable": false, "dtype": {"module": "keras", "config": {"name": "float32"}, "registeredName": null, "class_name": "DTypePolicy"}, "padding": [[0, 1], [0, 1]], "dataFormat": "channels_last"}, "name": "block_3_pad", "class_name": "ZeroPadding2D", "inbound_nodes": [[["block_3_expand_relu", 0, 0]]]}, {"config": {"name": "block_3_depthwise", "trainable": false, "dtype": {"module": "keras", "config": {"name": "float32"}, "registeredName": null, "class_name": "DTypePolicy"}, "strides": [2, 2], "padding": "valid", "activation": "linear", "useBias": false, "depthwiseInitializer": {"module": "keras.initializers", "config": {"seed": null}, "registeredName": null, "class_name": "GlorotUniform"}, "biasInitializer": {"module": "keras.initializers", "config": {}, "registeredName": null, "class_name": "Zeros"}, "depthwiseRegularizer": null, "biasRegularizer": null, "activityRegularizer": null, "depthwiseConstraint": null, "biasConstraint": null, "kernelSize": [3, 3], "dilationRate": [1, 1], "dataFormat": "channels_last", "depthMultiplier": 1}, "name": "block_3_depthwise", "class_name": "DepthwiseConv2D", "inbound_nodes": [[["block_3_pad", 0, 0]]]}, {"config": {"name": "block_3_depthwise_BN", "trainable": false, "dtype": {"module": "keras", "config": {"name": "float32"}, "registeredName": null, "class_name": "DTypePolicy"}, "axis": -1, "momentum": 0.999, "epsilon": 0.001, "center": true, "scale": true, "betaInitializer": {"module": "keras.initializers", "config": {}, "registeredName": null, "class_name": "Zeros"}, "gammaInitializer": {"module": "keras.initializers", "config": {}, "registeredName": null, "class_name": "Ones"}, "movingMeanInitializer": {"module": "keras.initializers", "config": {}, "registeredName": null, "class_name": "Zeros"}, "movingVarianceInitializer": {"module": "keras.initializers", "config": {}, "registeredName": null, "class_name": "Ones"}, "betaRegularizer": null, "gammaRegularizer": null, "betaConstraint": null, "gammaConstraint": null, "synchronized": false}, "name": "block_3_depthwise_BN", "class_name": "BatchNormalization", "inbound_nodes": [[["block_3_depthwise", 0, 0]]]}, {"config": {"name": "block_3_depthwise_relu", "trainable": false, "dtype": {"module": "keras", "config": {"name": "float32"}, "registeredName": null, "class_name": "DTypePolicy"}, "threshold": 0.0, "maxValue": 6.0, "negativeSlope": 0.0}, "name": "block_3_depthwise_relu", "class_name": "ReLU", "inbound_nodes": [[["block_3_depthwise_BN", 0, 0]]]}, {"config": {"name": "block_3_project", "trainable": false, "dtype": {"module": "keras", "config": {"name": "float32"}, "registeredName": null, "class_name": "DTypePolicy"}, "filters": 32, "strides": [1, 1], "padding": "same", "groups": 1, "activation": "linear", "useBias": false, "kernelInitializer": {"module": "keras.initializers", "config": {"seed": null}, "registeredName": null, "class_name": "GlorotUniform"}, "biasInitializer": {"module": "keras.initializers", "config": {}, "registeredName": null, "class_name": "Zeros"}, "kernelRegularizer": null, "biasRegularizer": null, "activityRegularizer": null, "kernelConstraint": null, "biasConstraint": null, "kernelSize": [1, 1], "dilationRate": [1, 1], "dataFormat": "channels_last"}, "name": "block_3_project", "class_name": "Conv2D", "inbound_nodes": [[["block_3_depthwise_relu", 0, 0]]]}, {"config": {"name": "block_3_project_BN", "trainable": false, "dtype": {"module": "keras", "config": {"name": "float32"}, "registeredName": null, "class_name": "DTypePolicy"}, "axis": -1, "momentum": 0.999, "epsilon": 0.001, "center": true, "scale": true, "betaInitializer": {"module": "keras.initializers", "config": {}, "registeredName": null, "class_name": "Zeros"}, "gammaInitializer": {"module": "keras.initializers", "config": {}, "registeredName": null, "class_name": "Ones"}, "movingMeanInitializer": {"module": "keras.initializers", "config": {}, "registeredName": null, "class_name": "Zeros"}, "movingVarianceInitializer": {"module": "keras.initializers", "config": {}, "registeredName": null, "class_name": "Ones"}, "betaRegularizer": null, "gammaRegularizer": null, "betaConstraint": null, "gammaConstraint": null, "synchronized": false}, "name": "block_3_project_BN", "class_name": "BatchNormalization", "inbound_nodes": [[["block_3_project", 0, 0]]]}, {"config": {"name": "block_4_expand", "trainable": false, "dtype": {"module": "keras", "config": {"name": "float32"}, "registeredName": null, "class_name": "DTypePolicy"}, "filters": 192, "strides": [1, 1], "padding": "same", "groups": 1, "activation": "linear", "useBias": false, "kernelInitializer": {"module": "keras.initializers", "config": {"seed": null}, "registeredName": null, "class_name": "GlorotUniform"}, "biasInitializer": {"module": "keras.initializers", "config": {}, "registeredName": null, "class_name": "Zeros"}, "kernelRegularizer": null, "biasRegularizer": null, "activityRegularizer": null, "kernelConstraint": null, "biasConstraint": null, "kernelSize": [1, 1], "dilationRate": [1, 1], "dataFormat": "channels_last"}, "name": "block_4_expand", "class_name": "Conv2D", "inbound_nodes": [[["block_3_project_BN", 0, 0]]]}, {"config": {"name": "block_4_expand_BN", "trainable": false, "dtype": {"module": "keras", "config": {"name": "float32"}, "registeredName": null, "class_name": "DTypePolicy"}, "axis": -1, "momentum": 0.999, "epsilon": 0.001, "center": true, "scale": true, "betaInitializer": {"module": "keras.initializers", "config": {}, "registeredName": null, "class_name": "Zeros"}, "gammaInitializer": {"module": "keras.initializers", "config": {}, "registeredName": null, "class_name": "Ones"}, "movingMeanInitializer": {"module": "keras.initializers", "config": {}, "registeredName": null, "class_name": "Zeros"}, "movingVarianceInitializer": {"module": "keras.initializers", "config": {}, "registeredName": null, "class_name": "Ones"}, "betaRegularizer": null, "gammaRegularizer": null, "betaConstraint": null, "gammaConstraint": null, "synchronized": false}, "name": "block_4_expand_BN", "class_name": "BatchNormalization", "inbound_nodes": [[["block_4_expand", 0, 0]]]}, {"config": {"name": "block_4_expand_relu", "trainable": false, "dtype": {"module": "keras", "config": {"name": "float32"}, "registeredName": null, "class_name": "DTypePolicy"}, "threshold": 0.0, "maxValue": 6.0, "negativeSlope": 0.0}, "name": "block_4_expand_relu", "class_name": "ReLU", "inbound_nodes": [[["block_4_expand_BN", 0, 0]]]}, {"config": {"name": "block_4_depthwise", "trainable": false, "dtype": {"module": "keras", "config": {"name": "float32"}, "registeredName": null, "class_name": "DTypePolicy"}, "strides": [1, 1], "padding": "same", "activation": "linear", "useBias": false, "depthwiseInitializer": {"module": "keras.initializers", "config": {"seed": null}, "registeredName": null, "class_name": "GlorotUniform"}, "biasInitializer": {"module": "keras.initializers", "config": {}, "registeredName": null, "class_name": "Zeros"}, "depthwiseRegularizer": null, "biasRegularizer": null, "activityRegularizer": null, "depthwiseConstraint": null, "biasConstraint": null, "kernelSize": [3, 3], "dilationRate": [1, 1], "dataFormat": "channels_last", "depthMultiplier": 1}, "name": "block_4_depthwise", "class_name": "DepthwiseConv2D", "inbound_nodes": [[["block_4_expand_relu", 0, 0]]]}, {"config": {"name": "block_4_depthwise_BN", "trainable": false, "dtype": {"module": "keras", "config": {"name": "float32"}, "registeredName": null, "class_name": "DTypePolicy"}, "axis": -1, "momentum": 0.999, "epsilon": 0.001, "center": true, "scale": true, "betaInitializer": {"module": "keras.initializers", "config": {}, "registeredName": null, "class_name": "Zeros"}, "gammaInitializer": {"module": "keras.initializers", "config": {}, "registeredName": null, "class_name": "Ones"}, "movingMeanInitializer": {"module": "keras.initializers", "config": {}, "registeredName": null, "class_name": "Zeros"}, "movingVarianceInitializer": {"module": "keras.initializers", "config": {}, "registeredName": null, "class_name": "Ones"}, "betaRegularizer": null, "gammaRegularizer": null, "betaConstraint": null, "gammaConstraint": null, "synchronized": false}, "name": "block_4_depthwise_BN", "class_name": "BatchNormalization", "inbound_nodes": [[["block_4_depthwise", 0, 0]]]}, {"config": {"name": "block_4_depthwise_relu", "trainable": false, "dtype": {"module": "keras", "config": {"name": "float32"}, "registeredName": null, "class_name": "DTypePolicy"}, "threshold": 0.0, "maxValue": 6.0, "negativeSlope": 0.0}, "name": "block_4_depthwise_relu", "class_name": "ReLU", "inbound_nodes": [[["block_4_depthwise_BN", 0, 0]]]}, {"config": {"name": "block_4_project", "trainable": false, "dtype": {"module": "keras", "config": {"name": "float32"}, "registeredName": null, "class_name": "DTypePolicy"}, "filters": 32, "strides": [1, 1], "padding": "same", "groups": 1, "activation": "linear", "useBias": false, "kernelInitializer": {"module": "keras.initializers", "config": {"seed": null}, "registeredName": null, "class_name": "GlorotUniform"}, "biasInitializer": {"module": "keras.initializers", "config": {}, "registeredName": null, "class_name": "Zeros"}, "kernelRegularizer": null, "biasRegularizer": null, "activityRegularizer": null, "kernelConstraint": null, "biasConstraint": null, "kernelSize": [1, 1], "dilationRate": [1, 1], "dataFormat": "channels_last"}, "name": "block_4_project", "class_name": "Conv2D", "inbound_nodes": [[["block_4_depthwise_relu", 0, 0]]]}, {"config": {"name": "block_4_project_BN", "trainable": false, "dtype": {"module": "keras", "config": {"name": "float32"}, "registeredName": null, "class_name": "DTypePolicy"}, "axis": -1, "momentum": 0.999, "epsilon": 0.001, "center": true, "scale": true, "betaInitializer": {"module": "keras.initializers", "config": {}, "registeredName": null, "class_name": "Zeros"}, "gammaInitializer": {"module": "keras.initializers", "config": {}, "registeredName": null, "class_name": "Ones"}, "movingMeanInitializer": {"module": "keras.initializers", "config": {}, "registeredName": null, "class_name": "Zeros"}, "movingVarianceInitializer": {"module": "keras.initializers", "config": {}, "registeredName": null, "class_name": "Ones"}, "betaRegularizer": null, "gammaRegularizer": null, "betaConstraint": null, "gammaConstraint": null, "synchronized": false}, "name": "block_4_project_BN", "class_name": "BatchNormalization", "inbound_nodes": [[["block_4_project", 0, 0]]]}, {"config": {"name": "block_4_add", "trainable": false, "dtype": {"module": "keras", "config": {"name": "float32"}, "registeredName": null, "class_name": "DTypePolicy"}}, "name": "block_4_add", "class_name": "Add", "inbound_nodes": [[["block_3_project_BN", 0, 0], ["block_4_project_BN", 0, 0]]]}, {"config": {"name": "block_5_expand", "trainable": false, "dtype": {"module": "keras", "config": {"name": "float32"}, "registeredName": null, "class_name": "DTypePolicy"}, "filters": 192, "strides": [1, 1], "padding": "same", "groups": 1, "activation": "linear", "useBias": false, "kernelInitializer": {"module": "keras.initializers", "config": {"seed": null}, "registeredName": null, "class_name": "GlorotUniform"}, "biasInitializer": {"module": "keras.initializers", "config": {}, "registeredName": null, "class_name": "Zeros"}, "kernelRegularizer": null, "biasRegularizer": null, "activityRegularizer": null, "kernelConstraint": null, "biasConstraint": null, "kernelSize": [1, 1], "dilationRate": [1, 1], "dataFormat": "channels_last"}, "name": "block_5_expand", "class_name": "Conv2D", "inbound_nodes": [[["block_4_add", 0, 0]]]}, {"config": {"name": "block_5_expand_BN", "trainable": false, "dtype": {"module": "keras", "config": {"name": "float32"}, "registeredName": null, "class_name": "DTypePolicy"}, "axis": -1, "momentum": 0.999, "epsilon": 0.001, "center": true, "scale": true, "betaInitializer": {"module": "keras.initializers", "config": {}, "registeredName": null, "class_name": "Zeros"}, "gammaInitializer": {"module": "keras.initializers", "config": {}, "registeredName": null, "class_name": "Ones"}, "movingMeanInitializer": {"module": "keras.initializers", "config": {}, "registeredName": null, "class_name": "Zeros"}, "movingVarianceInitializer": {"module": "keras.initializers", "config": {}, "registeredName": null, "class_name": "Ones"}, "betaRegularizer": null, "gammaRegularizer": null, "betaConstraint": null, "gammaConstraint": null, "synchronized": false}, "name": "block_5_expand_BN", "class_name": "BatchNormalization", "inbound_nodes": [[["block_5_expand", 0, 0]]]}, {"config": {"name": "block_5_expand_relu", "trainable": false, "dtype": {"module": "keras", "config": {"name": "float32"}, "registeredName": null, "class_name": "DTypePolicy"}, "threshold": 0.0, "maxValue": 6.0, "negativeSlope": 0.0}, "name": "block_5_expand_relu", "class_name": "ReLU", "inbound_nodes": [[["block_5_expand_BN", 0, 0]]]}, {"config": {"name": "block_5_depthwise", "trainable": false, "dtype": {"module": "keras", "config": {"name": "float32"}, "registeredName": null, "class_name": "DTypePolicy"}, "strides": [1, 1], "padding": "same", "activation": "linear", "useBias": false, "depthwiseInitializer": {"module": "keras.initializers", "config": {"seed": null}, "registeredName": null, "class_name": "GlorotUniform"}, "biasInitializer": {"module": "keras.initializers", "config": {}, "registeredName": null, "class_name": "Zeros"}, "depthwiseRegularizer": null, "biasRegularizer": null, "activityRegularizer": null, "depthwiseConstraint": null, "biasConstraint": null, "kernelSize": [3, 3], "dilationRate": [1, 1], "dataFormat": "channels_last", "depthMultiplier": 1}, "name": "block_5_depthwise", "class_name": "DepthwiseConv2D", "inbound_nodes": [[["block_5_expand_relu", 0, 0]]]}, {"config": {"name": "block_5_depthwise_BN", "trainable": false, "dtype": {"module": "keras", "config": {"name": "float32"}, "registeredName": null, "class_name": "DTypePolicy"}, "axis": -1, "momentum": 0.999, "epsilon": 0.001, "center": true, "scale": true, "betaInitializer": {"module": "keras.initializers", "config": {}, "registeredName": null, "class_name": "Zeros"}, "gammaInitializer": {"module": "keras.initializers", "config": {}, "registeredName": null, "class_name": "Ones"}, "movingMeanInitializer": {"module": "keras.initializers", "config": {}, "registeredName": null, "class_name": "Zeros"}, "movingVarianceInitializer": {"module": "keras.initializers", "config": {}, "registeredName": null, "class_name": "Ones"}, "betaRegularizer": null, "gammaRegularizer": null, "betaConstraint": null, "gammaConstraint": null, "synchronized": false}, "name": "block_5_depthwise_BN", "class_name": "BatchNormalization", "inbound_nodes": [[["block_5_depthwise", 0, 0]]]}, {"config": {"name": "block_5_depthwise_relu", "trainable": false, "dtype": {"module": "keras", "config": {"name": "float32"}, "registeredName": null, "class_name": "DTypePolicy"}, "threshold": 0.0, "maxValue": 6.0, "negativeSlope": 0.0}, "name": "block_5_depthwise_relu", "class_name": "ReLU", "inbound_nodes": [[["block_5_depthwise_BN", 0, 0]]]}, {"config": {"name": "block_5_project", "trainable": false, "dtype": {"module": "keras", "config": {"name": "float32"}, "registeredName": null, "class_name": "DTypePolicy"}, "filters": 32, "strides": [1, 1], "padding": "same", "groups": 1, "activation": "linear", "useBias": false, "kernelInitializer": {"module": "keras.initializers", "config": {"seed": null}, "registeredName": null, "class_name": "GlorotUniform"}, "biasInitializer": {"module": "keras.initializers", "config": {}, "registeredName": null, "class_name": "Zeros"}, "kernelRegularizer": null, "biasRegularizer": null, "activityRegularizer": null, "kernelConstraint": null, "biasConstraint": null, "kernelSize": [1, 1], "dilationRate": [1, 1], "dataFormat": "channels_last"}, "name": "block_5_project", "class_name": "Conv2D", "inbound_nodes": [[["block_5_depthwise_relu", 0, 0]]]}, {"config": {"name": "block_5_project_BN", "trainable": false, "dtype": {"module": "keras", "config": {"name": "float32"}, "registeredName": null, "class_name": "DTypePolicy"}, "axis": -1, "momentum": 0.999, "epsilon": 0.001, "center": true, "scale": true, "betaInitializer": {"module": "keras.initializers", "config": {}, "registeredName": null, "class_name": "Zeros"}, "gammaInitializer": {"module": "keras.initializers", "config": {}, "registeredName": null, "class_name": "Ones"}, "movingMeanInitializer": {"module": "keras.initializers", "config": {}, "registeredName": null, "class_name": "Zeros"}, "movingVarianceInitializer": {"module": "keras.initializers", "config": {}, "registeredName": null, "class_name": "Ones"}, "betaRegularizer": null, "gammaRegularizer": null, "betaConstraint": null, "gammaConstraint": null, "synchronized": false}, "name": "block_5_project_BN", "class_name": "BatchNormalization", "inbound_nodes": [[["block_5_project", 0, 0]]]}, {"config": {"name": "block_5_add", "trainable": false, "dtype": {"module": "keras", "config": {"name": "float32"}, "registeredName": null, "class_name": "DTypePolicy"}}, "name": "block_5_add", "class_name": "Add", "inbound_nodes": [[["block_4_add", 0, 0], ["block_5_project_BN", 0, 0]]]}, {"config": {"name": "block_6_expand", "trainable": true, "dtype": {"module": "keras", "config": {"name": "float32"}, "registeredName": null, "class_name": "DTypePolicy"}, "filters": 192, "strides": [1, 1], "padding": "same", "groups": 1, "activation": "linear", "useBias": false, "kernelInitializer": {"module": "keras.initializers", "config": {"seed": null}, "registeredName": null, "class_name": "GlorotUniform"}, "biasInitializer": {"module": "keras.initializers", "config": {}, "registeredName": null, "class_name": "Zeros"}, "kernelRegularizer": null, "biasRegularizer": null, "activityRegularizer": null, "kernelConstraint": null, "biasConstraint": null, "kernelSize": [1, 1], "dilationRate": [1, 1], "dataFormat": "channels_last"}, "name": "block_6_expand", "class_name": "Conv2D", "inbound_nodes": [[["block_5_add", 0, 0]]]}, {"config": {"name": "block_6_expand_BN", "trainable": true, "dtype": {"module": "keras", "config": {"name": "float32"}, "registeredName": null, "class_name": "DTypePolicy"}, "axis": -1, "momentum": 0.999, "epsilon": 0.001, "center": true, "scale": true, "betaInitializer": {"module": "keras.initializers", "config": {}, "registeredName": null, "class_name": "Zeros"}, "gammaInitializer": {"module": "keras.initializers", "config": {}, "registeredName": null, "class_name": "Ones"}, "movingMeanInitializer": {"module": "keras.initializers", "config": {}, "registeredName": null, "class_name": "Zeros"}, "movingVarianceInitializer": {"module": "keras.initializers", "config": {}, "registeredName": null, "class_name": "Ones"}, "betaRegularizer": null, "gammaRegularizer": null, "betaConstraint": null, "gammaConstraint": null, "synchronized": false}, "name": "block_6_expand_BN", "class_name": "BatchNormalization", "inbound_nodes": [[["block_6_expand", 0, 0]]]}, {"config": {"name": "block_6_expand_relu", "trainable": true, "dtype": {"module": "keras", "config": {"name": "float32"}, "registeredName": null, "class_name": "DTypePolicy"}, "threshold": 0.0, "maxValue": 6.0, "negativeSlope": 0.0}, "name": "block_6_expand_relu", "class_name": "ReLU", "inbound_nodes": [[["block_6_expand_BN", 0, 0]]]}, {"config": {"name": "block_6_pad", "trainable": true, "dtype": {"module": "keras", "config": {"name": "float32"}, "registeredName": null, "class_name": "DTypePolicy"}, "padding": [[0, 1], [0, 1]], "dataFormat": "channels_last"}, "name": "block_6_pad", "class_name": "ZeroPadding2D", "inbound_nodes": [[["block_6_expand_relu", 0, 0]]]}, {"config": {"name": "block_6_depthwise", "trainable": true, "dtype": {"module": "keras", "config": {"name": "float32"}, "registeredName": null, "class_name": "DTypePolicy"}, "strides": [2, 2], "padding": "valid", "activation": "linear", "useBias": false, "depthwiseInitializer": {"module": "keras.initializers", "config": {"seed": null}, "registeredName": null, "class_name": "GlorotUniform"}, "biasInitializer": {"module": "keras.initializers", "config": {}, "registeredName": null, "class_name": "Zeros"}, "depthwiseRegularizer": null, "biasRegularizer": null, "activityRegularizer": null, "depthwiseConstraint": null, "biasConstraint": null, "kernelSize": [3, 3], "dilationRate": [1, 1], "dataFormat": "channels_last", "depthMultiplier": 1}, "name": "block_6_depthwise", "class_name": "DepthwiseConv2D", "inbound_nodes": [[["block_6_pad", 0, 0]]]}, {"config": {"name": "block_6_depthwise_BN", "trainable": true, "dtype": {"module": "keras", "config": {"name": "float32"}, "registeredName": null, "class_name": "DTypePolicy"}, "axis": -1, "momentum": 0.999, "epsilon": 0.001, "center": true, "scale": true, "betaInitializer": {"module": "keras.initializers", "config": {}, "registeredName": null, "class_name": "Zeros"}, "gammaInitializer": {"module": "keras.initializers", "config": {}, "registeredName": null, "class_name": "Ones"}, "movingMeanInitializer": {"module": "keras.initializers", "config": {}, "registeredName": null, "class_name": "Zeros"}, "movingVarianceInitializer": {"module": "keras.initializers", "config": {}, "registeredName": null, "class_name": "Ones"}, "betaRegularizer": null, "gammaRegularizer": null, "betaConstraint": null, "gammaConstraint": null, "synchronized": false}, "name": "block_6_depthwise_BN", "class_name": "BatchNormalization", "inbound_nodes": [[["block_6_depthwise", 0, 0]]]}, {"config": {"name": "block_6_depthwise_relu", "trainable": true, "dtype": {"module": "keras", "config": {"name": "float32"}, "registeredName": null, "class_name": "DTypePolicy"}, "threshold": 0.0, "maxValue": 6.0, "negativeSlope": 0.0}, "name": "block_6_depthwise_relu", "class_name": "ReLU", "inbound_nodes": [[["block_6_depthwise_BN", 0, 0]]]}, {"config": {"name": "block_6_project", "trainable": true, "dtype": {"module": "keras", "config": {"name": "float32"}, "registeredName": null, "class_name": "DTypePolicy"}, "filters": 64, "strides": [1, 1], "padding": "same", "groups": 1, "activation": "linear", "useBias": false, "kernelInitializer": {"module": "keras.initializers", "config": {"seed": null}, "registeredName": null, "class_name": "GlorotUniform"}, "biasInitializer": {"module": "keras.initializers", "config": {}, "registeredName": null, "class_name": "Zeros"}, "kernelRegularizer": null, "biasRegularizer": null, "activityRegularizer": null, "kernelConstraint": null, "biasConstraint": null, "kernelSize": [1, 1], "dilationRate": [1, 1], "dataFormat": "channels_last"}, "name": "block_6_project", "class_name": "Conv2D", "inbound_nodes": [[["block_6_depthwise_relu", 0, 0]]]}, {"config": {"name": "block_6_project_BN", "trainable": true, "dtype": {"module": "keras", "config": {"name": "float32"}, "registeredName": null, "class_name": "DTypePolicy"}, "axis": -1, "momentum": 0.999, "epsilon": 0.001, "center": true, "scale": true, "betaInitializer": {"module": "keras.initializers", "config": {}, "registeredName": null, "class_name": "Zeros"}, "gammaInitializer": {"module": "keras.initializers", "config": {}, "registeredName": null, "class_name": "Ones"}, "movingMeanInitializer": {"module": "keras.initializers", "config": {}, "registeredName": null, "class_name": "Zeros"}, "movingVarianceInitializer": {"module": "keras.initializers", "config": {}, "registeredName": null, "class_name": "Ones"}, "betaRegularizer": null, "gammaRegularizer": null, "betaConstraint": null, "gammaConstraint": null, "synchronized": false}, "name": "block_6_project_BN", "class_name": "BatchNormalization", "inbound_nodes": [[["block_6_project", 0, 0]]]}, {"config": {"name": "block_7_expand", "trainable": true, "dtype": {"module": "keras", "config": {"name": "float32"}, "registeredName": null, "class_name": "DTypePolicy"}, "filters": 384, "strides": [1, 1], "padding": "same", "groups": 1, "activation": "linear", "useBias": false, "kernelInitializer": {"module": "keras.initializers", "config": {"seed": null}, "registeredName": null, "class_name": "GlorotUniform"}, "biasInitializer": {"module": "keras.initializers", "config": {}, "registeredName": null, "class_name": "Zeros"}, "kernelRegularizer": null, "biasRegularizer": null, "activityRegularizer": null, "kernelConstraint": null, "biasConstraint": null, "kernelSize": [1, 1], "dilationRate": [1, 1], "dataFormat": "channels_last"}, "name": "block_7_expand", "class_name": "Conv2D", "inbound_nodes": [[["block_6_project_BN", 0, 0]]]}, {"config": {"name": "block_7_expand_BN", "trainable": true, "dtype": {"module": "keras", "config": {"name": "float32"}, "registeredName": null, "class_name": "DTypePolicy"}, "axis": -1, "momentum": 0.999, "epsilon": 0.001, "center": true, "scale": true, "betaInitializer": {"module": "keras.initializers", "config": {}, "registeredName": null, "class_name": "Zeros"}, "gammaInitializer": {"module": "keras.initializers", "config": {}, "registeredName": null, "class_name": "Ones"}, "movingMeanInitializer": {"module": "keras.initializers", "config": {}, "registeredName": null, "class_name": "Zeros"}, "movingVarianceInitializer": {"module": "keras.initializers", "config": {}, "registeredName": null, "class_name": "Ones"}, "betaRegularizer": null, "gammaRegularizer": null, "betaConstraint": null, "gammaConstraint": null, "synchronized": false}, "name": "block_7_expand_BN", "class_name": "BatchNormalization", "inbound_nodes": [[["block_7_expand", 0, 0]]]}, {"config": {"name": "block_7_expand_relu", "trainable": true, "dtype": {"module": "keras", "config": {"name": "float32"}, "registeredName": null, "class_name": "DTypePolicy"}, "threshold": 0.0, "maxValue": 6.0, "negativeSlope": 0.0}, "name": "block_7_expand_relu", "class_name": "ReLU", "inbound_nodes": [[["block_7_expand_BN", 0, 0]]]}, {"config": {"name": "block_7_depthwise", "trainable": true, "dtype": {"module": "keras", "config": {"name": "float32"}, "registeredName": null, "class_name": "DTypePolicy"}, "strides": [1, 1], "padding": "same", "activation": "linear", "useBias": false, "depthwiseInitializer": {"module": "keras.initializers", "config": {"seed": null}, "registeredName": null, "class_name": "GlorotUniform"}, "biasInitializer": {"module": "keras.initializers", "config": {}, "registeredName": null, "class_name": "Zeros"}, "depthwiseRegularizer": null, "biasRegularizer": null, "activityRegularizer": null, "depthwiseConstraint": null, "biasConstraint": null, "kernelSize": [3, 3], "dilationRate": [1, 1], "dataFormat": "channels_last", "depthMultiplier": 1}, "name": "block_7_depthwise", "class_name": "DepthwiseConv2D", "inbound_nodes": [[["block_7_expand_relu", 0, 0]]]}, {"config": {"name": "block_7_depthwise_BN", "trainable": true, "dtype": {"module": "keras", "config": {"name": "float32"}, "registeredName": null, "class_name": "DTypePolicy"}, "axis": -1, "momentum": 0.999, "epsilon": 0.001, "center": true, "scale": true, "betaInitializer": {"module": "keras.initializers", "config": {}, "registeredName": null, "class_name": "Zeros"}, "gammaInitializer": {"module": "keras.initializers", "config": {}, "registeredName": null, "class_name": "Ones"}, "movingMeanInitializer": {"module": "keras.initializers", "config": {}, "registeredName": null, "class_name": "Zeros"}, "movingVarianceInitializer": {"module": "keras.initializers", "config": {}, "registeredName": null, "class_name": "Ones"}, "betaRegularizer": null, "gammaRegularizer": null, "betaConstraint": null, "gammaConstraint": null, "synchronized": false}, "name": "block_7_depthwise_BN", "class_name": "BatchNormalization", "inbound_nodes": [[["block_7_depthwise", 0, 0]]]}, {"config": {"name": "block_7_depthwise_relu", "trainable": true, "dtype": {"module": "keras", "config": {"name": "float32"}, "registeredName": null, "class_name": "DTypePolicy"}, "threshold": 0.0, "maxValue": 6.0, "negativeSlope": 0.0}, "name": "block_7_depthwise_relu", "class_name": "ReLU", "inbound_nodes": [[["block_7_depthwise_BN", 0, 0]]]}, {"config": {"name": "block_7_project", "trainable": true, "dtype": {"module": "keras", "config": {"name": "float32"}, "registeredName": null, "class_name": "DTypePolicy"}, "filters": 64, "strides": [1, 1], "padding": "same", "groups": 1, "activation": "linear", "useBias": false, "kernelInitializer": {"module": "keras.initializers", "config": {"seed": null}, "registeredName": null, "class_name": "GlorotUniform"}, "biasInitializer": {"module": "keras.initializers", "config": {}, "registeredName": null, "class_name": "Zeros"}, "kernelRegularizer": null, "biasRegularizer": null, "activityRegularizer": null, "kernelConstraint": null, "biasConstraint": null, "kernelSize": [1, 1], "dilationRate": [1, 1], "dataFormat": "channels_last"}, "name": "block_7_project", "class_name": "Conv2D", "inbound_nodes": [[["block_7_depthwise_relu", 0, 0]]]}, {"config": {"name": "block_7_project_BN", "trainable": true, "dtype": {"module": "keras", "config": {"name": "float32"}, "registeredName": null, "class_name": "DTypePolicy"}, "axis": -1, "momentum": 0.999, "epsilon": 0.001, "center": true, "scale": true, "betaInitializer": {"module": "keras.initializers", "config": {}, "registeredName": null, "class_name": "Zeros"}, "gammaInitializer": {"module": "keras.initializers", "config": {}, "registeredName": null, "class_name": "Ones"}, "movingMeanInitializer": {"module": "keras.initializers", "config": {}, "registeredName": null, "class_name": "Zeros"}, "movingVarianceInitializer": {"module": "keras.initializers", "config": {}, "registeredName": null, "class_name": "Ones"}, "betaRegularizer": null, "gammaRegularizer": null, "betaConstraint": null, "gammaConstraint": null, "synchronized": false}, "name": "block_7_project_BN", "class_name": "BatchNormalization", "inbound_nodes": [[["block_7_project", 0, 0]]]}, {"config": {"name": "block_7_add", "trainable": true, "dtype": {"module": "keras", "config": {"name": "float32"}, "registeredName": null, "class_name": "DTypePolicy"}}, "name": "block_7_add", "class_name": "Add", "inbound_nodes": [[["block_6_project_BN", 0, 0], ["block_7_project_BN", 0, 0]]]}, {"config": {"name": "block_8_expand", "trainable": true, "dtype": {"module": "keras", "config": {"name": "float32"}, "registeredName": null, "class_name": "DTypePolicy"}, "filters": 384, "strides": [1, 1], "padding": "same", "groups": 1, "activation": "linear", "useBias": false, "kernelInitializer": {"module": "keras.initializers", "config": {"seed": null}, "registeredName": null, "class_name": "GlorotUniform"}, "biasInitializer": {"module": "keras.initializers", "config": {}, "registeredName": null, "class_name": "Zeros"}, "kernelRegularizer": null, "biasRegularizer": null, "activityRegularizer": null, "kernelConstraint": null, "biasConstraint": null, "kernelSize": [1, 1], "dilationRate": [1, 1], "dataFormat": "channels_last"}, "name": "block_8_expand", "class_name": "Conv2D", "inbound_nodes": [[["block_7_add", 0, 0]]]}, {"config": {"name": "block_8_expand_BN", "trainable": true, "dtype": {"module": "keras", "config": {"name": "float32"}, "registeredName": null, "class_name": "DTypePolicy"}, "axis": -1, "momentum": 0.999, "epsilon": 0.001, "center": true, "scale": true, "betaInitializer": {"module": "keras.initializers", "config": {}, "registeredName": null, "class_name": "Zeros"}, "gammaInitializer": {"module": "keras.initializers", "config": {}, "registeredName": null, "class_name": "Ones"}, "movingMeanInitializer": {"module": "keras.initializers", "config": {}, "registeredName": null, "class_name": "Zeros"}, "movingVarianceInitializer": {"module": "keras.initializers", "config": {}, "registeredName": null, "class_name": "Ones"}, "betaRegularizer": null, "gammaRegularizer": null, "betaConstraint": null, "gammaConstraint": null, "synchronized": false}, "name": "block_8_expand_BN", "class_name": "BatchNormalization", "inbound_nodes": [[["block_8_expand", 0, 0]]]}, {"config": {"name": "block_8_expand_relu", "trainable": true, "dtype": {"module": "keras", "config": {"name": "float32"}, "registeredName": null, "class_name": "DTypePolicy"}, "threshold": 0.0, "maxValue": 6.0, "negativeSlope": 0.0}, "name": "block_8_expand_relu", "class_name": "ReLU", "inbound_nodes": [[["block_8_expand_BN", 0, 0]]]}, {"config": {"name": "block_8_depthwise", "trainable": true, "dtype": {"module": "keras", "config": {"name": "float32"}, "registeredName": null, "class_name": "DTypePolicy"}, "strides": [1, 1], "padding": "same", "activation": "linear", "useBias": false, "depthwiseInitializer": {"module": "keras.initializers", "config": {"seed": null}, "registeredName": null, "class_name": "GlorotUniform"}, "biasInitializer": {"module": "keras.initializers", "config": {}, "registeredName": null, "class_name": "Zeros"}, "depthwiseRegularizer": null, "biasRegularizer": null, "activityRegularizer": null, "depthwiseConstraint": null, "biasConstraint": null, "kernelSize": [3, 3], "dilationRate": [1, 1], "dataFormat": "channels_last", "depthMultiplier": 1}, "name": "block_8_depthwise", "class_name": "DepthwiseConv2D", "inbound_nodes": [[["block_8_expand_relu", 0, 0]]]}, {"config": {"name": "block_8_depthwise_BN", "trainable": true, "dtype": {"module": "keras", "config": {"name": "float32"}, "registeredName": null, "class_name": "DTypePolicy"}, "axis": -1, "momentum": 0.999, "epsilon": 0.001, "center": true, "scale": true, "betaInitializer": {"module": "keras.initializers", "config": {}, "registeredName": null, "class_name": "Zeros"}, "gammaInitializer": {"module": "keras.initializers", "config": {}, "registeredName": null, "class_name": "Ones"}, "movingMeanInitializer": {"module": "keras.initializers", "config": {}, "registeredName": null, "class_name": "Zeros"}, "movingVarianceInitializer": {"module": "keras.initializers", "config": {}, "registeredName": null, "class_name": "Ones"}, "betaRegularizer": null, "gammaRegularizer": null, "betaConstraint": null, "gammaConstraint": null, "synchronized": false}, "name": "block_8_depthwise_BN", "class_name": "BatchNormalization", "inbound_nodes": [[["block_8_depthwise", 0, 0]]]}, {"config": {"name": "block_8_depthwise_relu", "trainable": true, "dtype": {"module": "keras", "config": {"name": "float32"}, "registeredName": null, "class_name": "DTypePolicy"}, "threshold": 0.0, "maxValue": 6.0, "negativeSlope": 0.0}, "name": "block_8_depthwise_relu", "class_name": "ReLU", "inbound_nodes": [[["block_8_depthwise_BN", 0, 0]]]}, {"config": {"name": "block_8_project", "trainable": true, "dtype": {"module": "keras", "config": {"name": "float32"}, "registeredName": null, "class_name": "DTypePolicy"}, "filters": 64, "strides": [1, 1], "padding": "same", "groups": 1, "activation": "linear", "useBias": false, "kernelInitializer": {"module": "keras.initializers", "config": {"seed": null}, "registeredName": null, "class_name": "GlorotUniform"}, "biasInitializer": {"module": "keras.initializers", "config": {}, "registeredName": null, "class_name": "Zeros"}, "kernelRegularizer": null, "biasRegularizer": null, "activityRegularizer": null, "kernelConstraint": null, "biasConstraint": null, "kernelSize": [1, 1], "dilationRate": [1, 1], "dataFormat": "channels_last"}, "name": "block_8_project", "class_name": "Conv2D", "inbound_nodes": [[["block_8_depthwise_relu", 0, 0]]]}, {"config": {"name": "block_8_project_BN", "trainable": true, "dtype": {"module": "keras", "config": {"name": "float32"}, "registeredName": null, "class_name": "DTypePolicy"}, "axis": -1, "momentum": 0.999, "epsilon": 0.001, "center": true, "scale": true, "betaInitializer": {"module": "keras.initializers", "config": {}, "registeredName": null, "class_name": "Zeros"}, "gammaInitializer": {"module": "keras.initializers", "config": {}, "registeredName": null, "class_name": "Ones"}, "movingMeanInitializer": {"module": "keras.initializers", "config": {}, "registeredName": null, "class_name": "Zeros"}, "movingVarianceInitializer": {"module": "keras.initializers", "config": {}, "registeredName": null, "class_name": "Ones"}, "betaRegularizer": null, "gammaRegularizer": null, "betaConstraint": null, "gammaConstraint": null, "synchronized": false}, "name": "block_8_project_BN", "class_name": "BatchNormalization", "inbound_nodes": [[["block_8_project", 0, 0]]]}, {"config": {"name": "block_8_add", "trainable": true, "dtype": {"module": "keras", "config": {"name": "float32"}, "registeredName": null, "class_name": "DTypePolicy"}}, "name": "block_8_add", "class_name": "Add", "inbound_nodes": [[["block_7_add", 0, 0], ["block_8_project_BN", 0, 0]]]}, {"config": {"name": "block_9_expand", "trainable": true, "dtype": {"module": "keras", "config": {"name": "float32"}, "registeredName": null, "class_name": "DTypePolicy"}, "filters": 384, "strides": [1, 1], "padding": "same", "groups": 1, "activation": "linear", "useBias": false, "kernelInitializer": {"module": "keras.initializers", "config": {"seed": null}, "registeredName": null, "class_name": "GlorotUniform"}, "biasInitializer": {"module": "keras.initializers", "config": {}, "registeredName": null, "class_name": "Zeros"}, "kernelRegularizer": null, "biasRegularizer": null, "activityRegularizer": null, "kernelConstraint": null, "biasConstraint": null, "kernelSize": [1, 1], "dilationRate": [1, 1], "dataFormat": "channels_last"}, "name": "block_9_expand", "class_name": "Conv2D", "inbound_nodes": [[["block_8_add", 0, 0]]]}, {"config": {"name": "block_9_expand_BN", "trainable": true, "dtype": {"module": "keras", "config": {"name": "float32"}, "registeredName": null, "class_name": "DTypePolicy"}, "axis": -1, "momentum": 0.999, "epsilon": 0.001, "center": true, "scale": true, "betaInitializer": {"module": "keras.initializers", "config": {}, "registeredName": null, "class_name": "Zeros"}, "gammaInitializer": {"module": "keras.initializers", "config": {}, "registeredName": null, "class_name": "Ones"}, "movingMeanInitializer": {"module": "keras.initializers", "config": {}, "registeredName": null, "class_name": "Zeros"}, "movingVarianceInitializer": {"module": "keras.initializers", "config": {}, "registeredName": null, "class_name": "Ones"}, "betaRegularizer": null, "gammaRegularizer": null, "betaConstraint": null, "gammaConstraint": null, "synchronized": false}, "name": "block_9_expand_BN", "class_name": "BatchNormalization", "inbound_nodes": [[["block_9_expand", 0, 0]]]}, {"config": {"name": "block_9_expand_relu", "trainable": true, "dtype": {"module": "keras", "config": {"name": "float32"}, "registeredName": null, "class_name": "DTypePolicy"}, "threshold": 0.0, "maxValue": 6.0, "negativeSlope": 0.0}, "name": "block_9_expand_relu", "class_name": "ReLU", "inbound_nodes": [[["block_9_expand_BN", 0, 0]]]}, {"config": {"name": "block_9_depthwise", "trainable": true, "dtype": {"module": "keras", "config": {"name": "float32"}, "registeredName": null, "class_name": "DTypePolicy"}, "strides": [1, 1], "padding": "same", "activation": "linear", "useBias": false, "depthwiseInitializer": {"module": "keras.initializers", "config": {"seed": null}, "registeredName": null, "class_name": "GlorotUniform"}, "biasInitializer": {"module": "keras.initializers", "config": {}, "registeredName": null, "class_name": "Zeros"}, "depthwiseRegularizer": null, "biasRegularizer": null, "activityRegularizer": null, "depthwiseConstraint": null, "biasConstraint": null, "kernelSize": [3, 3], "dilationRate": [1, 1], "dataFormat": "channels_last", "depthMultiplier": 1}, "name": "block_9_depthwise", "class_name": "DepthwiseConv2D", "inbound_nodes": [[["block_9_expand_relu", 0, 0]]]}, {"config": {"name": "block_9_depthwise_BN", "trainable": true, "dtype": {"module": "keras", "config": {"name": "float32"}, "registeredName": null, "class_name": "DTypePolicy"}, "axis": -1, "momentum": 0.999, "epsilon": 0.001, "center": true, "scale": true, "betaInitializer": {"module": "keras.initializers", "config": {}, "registeredName": null, "class_name": "Zeros"}, "gammaInitializer": {"module": "keras.initializers", "config": {}, "registeredName": null, "class_name": "Ones"}, "movingMeanInitializer": {"module": "keras.initializers", "config": {}, "registeredName": null, "class_name": "Zeros"}, "movingVarianceInitializer": {"module": "keras.initializers", "config": {}, "registeredName": null, "class_name": "Ones"}, "betaRegularizer": null, "gammaRegularizer": null, "betaConstraint": null, "gammaConstraint": null, "synchronized": false}, "name": "block_9_depthwise_BN", "class_name": "BatchNormalization", "inbound_nodes": [[["block_9_depthwise", 0, 0]]]}, {"config": {"name": "block_9_depthwise_relu", "trainable": true, "dtype": {"module": "keras", "config": {"name": "float32"}, "registeredName": null, "class_name": "DTypePolicy"}, "threshold": 0.0, "maxValue": 6.0, "negativeSlope": 0.0}, "name": "block_9_depthwise_relu", "class_name": "ReLU", "inbound_nodes": [[["block_9_depthwise_BN", 0, 0]]]}, {"config": {"name": "block_9_project", "trainable": true, "dtype": {"module": "keras", "config": {"name": "float32"}, "registeredName": null, "class_name": "DTypePolicy"}, "filters": 64, "strides": [1, 1], "padding": "same", "groups": 1, "activation": "linear", "useBias": false, "kernelInitializer": {"module": "keras.initializers", "config": {"seed": null}, "registeredName": null, "class_name": "GlorotUniform"}, "biasInitializer": {"module": "keras.initializers", "config": {}, "registeredName": null, "class_name": "Zeros"}, "kernelRegularizer": null, "biasRegularizer": null, "activityRegularizer": null, "kernelConstraint": null, "biasConstraint": null, "kernelSize": [1, 1], "dilationRate": [1, 1], "dataFormat": "channels_last"}, "name": "block_9_project", "class_name": "Conv2D", "inbound_nodes": [[["block_9_depthwise_relu", 0, 0]]]}, {"config": {"name": "block_9_project_BN", "trainable": true, "dtype": {"module": "keras", "config": {"name": "float32"}, "registeredName": null, "class_name": "DTypePolicy"}, "axis": -1, "momentum": 0.999, "epsilon": 0.001, "center": true, "scale": true, "betaInitializer": {"module": "keras.initializers", "config": {}, "registeredName": null, "class_name": "Zeros"}, "gammaInitializer": {"module": "keras.initializers", "config": {}, "registeredName": null, "class_name": "Ones"}, "movingMeanInitializer": {"module": "keras.initializers", "config": {}, "registeredName": null, "class_name": "Zeros"}, "movingVarianceInitializer": {"module": "keras.initializers", "config": {}, "registeredName": null, "class_name": "Ones"}, "betaRegularizer": null, "gammaRegularizer": null, "betaConstraint": null, "gammaConstraint": null, "synchronized": false}, "name": "block_9_project_BN", "class_name": "BatchNormalization", "inbound_nodes": [[["block_9_project", 0, 0]]]}, {"config": {"name": "block_9_add", "trainable": true, "dtype": {"module": "keras", "config": {"name": "float32"}, "registeredName": null, "class_name": "DTypePolicy"}}, "name": "block_9_add", "class_name": "Add", "inbound_nodes": [[["block_8_add", 0, 0], ["block_9_project_BN", 0, 0]]]}, {"config": {"name": "block_10_expand", "trainable": true, "dtype": {"module": "keras", "config": {"name": "float32"}, "registeredName": null, "class_name": "DTypePolicy"}, "filters": 384, "strides": [1, 1], "padding": "same", "groups": 1, "activation": "linear", "useBias": false, "kernelInitializer": {"module": "keras.initializers", "config": {"seed": null}, "registeredName": null, "class_name": "GlorotUniform"}, "biasInitializer": {"module": "keras.initializers", "config": {}, "registeredName": null, "class_name": "Zeros"}, "kernelRegularizer": null, "biasRegularizer": null, "activityRegularizer": null, "kernelConstraint": null, "biasConstraint": null, "kernelSize": [1, 1], "dilationRate": [1, 1], "dataFormat": "channels_last"}, "name": "block_10_expand", "class_name": "Conv2D", "inbound_nodes": [[["block_9_add", 0, 0]]]}, {"config": {"name": "block_10_expand_BN", "trainable": true, "dtype": {"module": "keras", "config": {"name": "float32"}, "registeredName": null, "class_name": "DTypePolicy"}, "axis": -1, "momentum": 0.999, "epsilon": 0.001, "center": true, "scale": true, "betaInitializer": {"module": "keras.initializers", "config": {}, "registeredName": null, "class_name": "Zeros"}, "gammaInitializer": {"module": "keras.initializers", "config": {}, "registeredName": null, "class_name": "Ones"}, "movingMeanInitializer": {"module": "keras.initializers", "config": {}, "registeredName": null, "class_name": "Zeros"}, "movingVarianceInitializer": {"module": "keras.initializers", "config": {}, "registeredName": null, "class_name": "Ones"}, "betaRegularizer": null, "gammaRegularizer": null, "betaConstraint": null, "gammaConstraint": null, "synchronized": false}, "name": "block_10_expand_BN", "class_name": "BatchNormalization", "inbound_nodes": [[["block_10_expand", 0, 0]]]}, {"config": {"name": "block_10_expand_relu", "trainable": true, "dtype": {"module": "keras", "config": {"name": "float32"}, "registeredName": null, "class_name": "DTypePolicy"}, "threshold": 0.0, "maxValue": 6.0, "negativeSlope": 0.0}, "name": "block_10_expand_relu", "class_name": "ReLU", "inbound_nodes": [[["block_10_expand_BN", 0, 0]]]}, {"config": {"name": "block_10_depthwise", "trainable": true, "dtype": {"module": "keras", "config": {"name": "float32"}, "registeredName": null, "class_name": "DTypePolicy"}, "strides": [1, 1], "padding": "same", "activation": "linear", "useBias": false, "depthwiseInitializer": {"module": "keras.initializers", "config": {"seed": null}, "registeredName": null, "class_name": "GlorotUniform"}, "biasInitializer": {"module": "keras.initializers", "config": {}, "registeredName": null, "class_name": "Zeros"}, "depthwiseRegularizer": null, "biasRegularizer": null, "activityRegularizer": null, "depthwiseConstraint": null, "biasConstraint": null, "kernelSize": [3, 3], "dilationRate": [1, 1], "dataFormat": "channels_last", "depthMultiplier": 1}, "name": "block_10_depthwise", "class_name": "DepthwiseConv2D", "inbound_nodes": [[["block_10_expand_relu", 0, 0]]]}, {"config": {"name": "block_10_depthwise_BN", "trainable": true, "dtype": {"module": "keras", "config": {"name": "float32"}, "registeredName": null, "class_name": "DTypePolicy"}, "axis": -1, "momentum": 0.999, "epsilon": 0.001, "center": true, "scale": true, "betaInitializer": {"module": "keras.initializers", "config": {}, "registeredName": null, "class_name": "Zeros"}, "gammaInitializer": {"module": "keras.initializers", "config": {}, "registeredName": null, "class_name": "Ones"}, "movingMeanInitializer": {"module": "keras.initializers", "config": {}, "registeredName": null, "class_name": "Zeros"}, "movingVarianceInitializer": {"module": "keras.initializers", "config": {}, "registeredName": null, "class_name": "Ones"}, "betaRegularizer": null, "gammaRegularizer": null, "betaConstraint": null, "gammaConstraint": null, "synchronized": false}, "name": "block_10_depthwise_BN", "class_name": "BatchNormalization", "inbound_nodes": [[["block_10_depthwise", 0, 0]]]}, {"config": {"name": "block_10_depthwise_relu", "trainable": true, "dtype": {"module": "keras", "config": {"name": "float32"}, "registeredName": null, "class_name": "DTypePolicy"}, "threshold": 0.0, "maxValue": 6.0, "negativeSlope": 0.0}, "name": "block_10_depthwise_relu", "class_name": "ReLU", "inbound_nodes": [[["block_10_depthwise_BN", 0, 0]]]}, {"config": {"name": "block_10_project", "trainable": true, "dtype": {"module": "keras", "config": {"name": "float32"}, "registeredName": null, "class_name": "DTypePolicy"}, "filters": 96, "strides": [1, 1], "padding": "same", "groups": 1, "activation": "linear", "useBias": false, "kernelInitializer": {"module": "keras.initializers", "config": {"seed": null}, "registeredName": null, "class_name": "GlorotUniform"}, "biasInitializer": {"module": "keras.initializers", "config": {}, "registeredName": null, "class_name": "Zeros"}, "kernelRegularizer": null, "biasRegularizer": null, "activityRegularizer": null, "kernelConstraint": null, "biasConstraint": null, "kernelSize": [1, 1], "dilationRate": [1, 1], "dataFormat": "channels_last"}, "name": "block_10_project", "class_name": "Conv2D", "inbound_nodes": [[["block_10_depthwise_relu", 0, 0]]]}, {"config": {"name": "block_10_project_BN", "trainable": true, "dtype": {"module": "keras", "config": {"name": "float32"}, "registeredName": null, "class_name": "DTypePolicy"}, "axis": -1, "momentum": 0.999, "epsilon": 0.001, "center": true, "scale": true, "betaInitializer": {"module": "keras.initializers", "config": {}, "registeredName": null, "class_name": "Zeros"}, "gammaInitializer": {"module": "keras.initializers", "config": {}, "registeredName": null, "class_name": "Ones"}, "movingMeanInitializer": {"module": "keras.initializers", "config": {}, "registeredName": null, "class_name": "Zeros"}, "movingVarianceInitializer": {"module": "keras.initializers", "config": {}, "registeredName": null, "class_name": "Ones"}, "betaRegularizer": null, "gammaRegularizer": null, "betaConstraint": null, "gammaConstraint": null, "synchronized": false}, "name": "block_10_project_BN", "class_name": "BatchNormalization", "inbound_nodes": [[["block_10_project", 0, 0]]]}, {"config": {"name": "block_11_expand", "trainable": true, "dtype": {"module": "keras", "config": {"name": "float32"}, "registeredName": null, "class_name": "DTypePolicy"}, "filters": 576, "strides": [1, 1], "padding": "same", "groups": 1, "activation": "linear", "useBias": false, "kernelInitializer": {"module": "keras.initializers", "config": {"seed": null}, "registeredName": null, "class_name": "GlorotUniform"}, "biasInitializer": {"module": "keras.initializers", "config": {}, "registeredName": null, "class_name": "Zeros"}, "kernelRegularizer": null, "biasRegularizer": null, "activityRegularizer": null, "kernelConstraint": null, "biasConstraint": null, "kernelSize": [1, 1], "dilationRate": [1, 1], "dataFormat": "channels_last"}, "name": "block_11_expand", "class_name": "Conv2D", "inbound_nodes": [[["block_10_project_BN", 0, 0]]]}, {"config": {"name": "block_11_expand_BN", "trainable": true, "dtype": {"module": "keras", "config": {"name": "float32"}, "registeredName": null, "class_name": "DTypePolicy"}, "axis": -1, "momentum": 0.999, "epsilon": 0.001, "center": true, "scale": true, "betaInitializer": {"module": "keras.initializers", "config": {}, "registeredName": null, "class_name": "Zeros"}, "gammaInitializer": {"module": "keras.initializers", "config": {}, "registeredName": null, "class_name": "Ones"}, "movingMeanInitializer": {"module": "keras.initializers", "config": {}, "registeredName": null, "class_name": "Zeros"}, "movingVarianceInitializer": {"module": "keras.initializers", "config": {}, "registeredName": null, "class_name": "Ones"}, "betaRegularizer": null, "gammaRegularizer": null, "betaConstraint": null, "gammaConstraint": null, "synchronized": false}, "name": "block_11_expand_BN", "class_name": "BatchNormalization", "inbound_nodes": [[["block_11_expand", 0, 0]]]}, {"config": {"name": "block_11_expand_relu", "trainable": true, "dtype": {"module": "keras", "config": {"name": "float32"}, "registeredName": null, "class_name": "DTypePolicy"}, "threshold": 0.0, "maxValue": 6.0, "negativeSlope": 0.0}, "name": "block_11_expand_relu", "class_name": "ReLU", "inbound_nodes": [[["block_11_expand_BN", 0, 0]]]}, {"config": {"name": "block_11_depthwise", "trainable": true, "dtype": {"module": "keras", "config": {"name": "float32"}, "registeredName": null, "class_name": "DTypePolicy"}, "strides": [1, 1], "padding": "same", "activation": "linear", "useBias": false, "depthwiseInitializer": {"module": "keras.initializers", "config": {"seed": null}, "registeredName": null, "class_name": "GlorotUniform"}, "biasInitializer": {"module": "keras.initializers", "config": {}, "registeredName": null, "class_name": "Zeros"}, "depthwiseRegularizer": null, "biasRegularizer": null, "activityRegularizer": null, "depthwiseConstraint": null, "biasConstraint": null, "kernelSize": [3, 3], "dilationRate": [1, 1], "dataFormat": "channels_last", "depthMultiplier": 1}, "name": "block_11_depthwise", "class_name": "DepthwiseConv2D", "inbound_nodes": [[["block_11_expand_relu", 0, 0]]]}, {"config": {"name": "block_11_depthwise_BN", "trainable": true, "dtype": {"module": "keras", "config": {"name": "float32"}, "registeredName": null, "class_name": "DTypePolicy"}, "axis": -1, "momentum": 0.999, "epsilon": 0.001, "center": true, "scale": true, "betaInitializer": {"module": "keras.initializers", "config": {}, "registeredName": null, "class_name": "Zeros"}, "gammaInitializer": {"module": "keras.initializers", "config": {}, "registeredName": null, "class_name": "Ones"}, "movingMeanInitializer": {"module": "keras.initializers", "config": {}, "registeredName": null, "class_name": "Zeros"}, "movingVarianceInitializer": {"module": "keras.initializers", "config": {}, "registeredName": null, "class_name": "Ones"}, "betaRegularizer": null, "gammaRegularizer": null, "betaConstraint": null, "gammaConstraint": null, "synchronized": false}, "name": "block_11_depthwise_BN", "class_name": "BatchNormalization", "inbound_nodes": [[["block_11_depthwise", 0, 0]]]}, {"config": {"name": "block_11_depthwise_relu", "trainable": true, "dtype": {"module": "keras", "config": {"name": "float32"}, "registeredName": null, "class_name": "DTypePolicy"}, "threshold": 0.0, "maxValue": 6.0, "negativeSlope": 0.0}, "name": "block_11_depthwise_relu", "class_name": "ReLU", "inbound_nodes": [[["block_11_depthwise_BN", 0, 0]]]}, {"config": {"name": "block_11_project", "trainable": true, "dtype": {"module": "keras", "config": {"name": "float32"}, "registeredName": null, "class_name": "DTypePolicy"}, "filters": 96, "strides": [1, 1], "padding": "same", "groups": 1, "activation": "linear", "useBias": false, "kernelInitializer": {"module": "keras.initializers", "config": {"seed": null}, "registeredName": null, "class_name": "GlorotUniform"}, "biasInitializer": {"module": "keras.initializers", "config": {}, "registeredName": null, "class_name": "Zeros"}, "kernelRegularizer": null, "biasRegularizer": null, "activityRegularizer": null, "kernelConstraint": null, "biasConstraint": null, "kernelSize": [1, 1], "dilationRate": [1, 1], "dataFormat": "channels_last"}, "name": "block_11_project", "class_name": "Conv2D", "inbound_nodes": [[["block_11_depthwise_relu", 0, 0]]]}, {"config": {"name": "block_11_project_BN", "trainable": true, "dtype": {"module": "keras", "config": {"name": "float32"}, "registeredName": null, "class_name": "DTypePolicy"}, "axis": -1, "momentum": 0.999, "epsilon": 0.001, "center": true, "scale": true, "betaInitializer": {"module": "keras.initializers", "config": {}, "registeredName": null, "class_name": "Zeros"}, "gammaInitializer": {"module": "keras.initializers", "config": {}, "registeredName": null, "class_name": "Ones"}, "movingMeanInitializer": {"module": "keras.initializers", "config": {}, "registeredName": null, "class_name": "Zeros"}, "movingVarianceInitializer": {"module": "keras.initializers", "config": {}, "registeredName": null, "class_name": "Ones"}, "betaRegularizer": null, "gammaRegularizer": null, "betaConstraint": null, "gammaConstraint": null, "synchronized": false}, "name": "block_11_project_BN", "class_name": "BatchNormalization", "inbound_nodes": [[["block_11_project", 0, 0]]]}, {"config": {"name": "block_11_add", "trainable": true, "dtype": {"module": "keras", "config": {"name": "float32"}, "registeredName": null, "class_name": "DTypePolicy"}}, "name": "block_11_add", "class_name": "Add", "inbound_nodes": [[["block_10_project_BN", 0, 0], ["block_11_project_BN", 0, 0]]]}, {"config": {"name": "block_12_expand", "trainable": true, "dtype": {"module": "keras", "config": {"name": "float32"}, "registeredName": null, "class_name": "DTypePolicy"}, "filters": 576, "strides": [1, 1], "padding": "same", "groups": 1, "activation": "linear", "useBias": false, "kernelInitializer": {"module": "keras.initializers", "config": {"seed": null}, "registeredName": null, "class_name": "GlorotUniform"}, "biasInitializer": {"module": "keras.initializers", "config": {}, "registeredName": null, "class_name": "Zeros"}, "kernelRegularizer": null, "biasRegularizer": null, "activityRegularizer": null, "kernelConstraint": null, "biasConstraint": null, "kernelSize": [1, 1], "dilationRate": [1, 1], "dataFormat": "channels_last"}, "name": "block_12_expand", "class_name": "Conv2D", "inbound_nodes": [[["block_11_add", 0, 0]]]}, {"config": {"name": "block_12_expand_BN", "trainable": true, "dtype": {"module": "keras", "config": {"name": "float32"}, "registeredName": null, "class_name": "DTypePolicy"}, "axis": -1, "momentum": 0.999, "epsilon": 0.001, "center": true, "scale": true, "betaInitializer": {"module": "keras.initializers", "config": {}, "registeredName": null, "class_name": "Zeros"}, "gammaInitializer": {"module": "keras.initializers", "config": {}, "registeredName": null, "class_name": "Ones"}, "movingMeanInitializer": {"module": "keras.initializers", "config": {}, "registeredName": null, "class_name": "Zeros"}, "movingVarianceInitializer": {"module": "keras.initializers", "config": {}, "registeredName": null, "class_name": "Ones"}, "betaRegularizer": null, "gammaRegularizer": null, "betaConstraint": null, "gammaConstraint": null, "synchronized": false}, "name": "block_12_expand_BN", "class_name": "BatchNormalization", "inbound_nodes": [[["block_12_expand", 0, 0]]]}, {"config": {"name": "block_12_expand_relu", "trainable": true, "dtype": {"module": "keras", "config": {"name": "float32"}, "registeredName": null, "class_name": "DTypePolicy"}, "threshold": 0.0, "maxValue": 6.0, "negativeSlope": 0.0}, "name": "block_12_expand_relu", "class_name": "ReLU", "inbound_nodes": [[["block_12_expand_BN", 0, 0]]]}, {"config": {"name": "block_12_depthwise", "trainable": true, "dtype": {"module": "keras", "config": {"name": "float32"}, "registeredName": null, "class_name": "DTypePolicy"}, "strides": [1, 1], "padding": "same", "activation": "linear", "useBias": false, "depthwiseInitializer": {"module": "keras.initializers", "config": {"seed": null}, "registeredName": null, "class_name": "GlorotUniform"}, "biasInitializer": {"module": "keras.initializers", "config": {}, "registeredName": null, "class_name": "Zeros"}, "depthwiseRegularizer": null, "biasRegularizer": null, "activityRegularizer": null, "depthwiseConstraint": null, "biasConstraint": null, "kernelSize": [3, 3], "dilationRate": [1, 1], "dataFormat": "channels_last", "depthMultiplier": 1}, "name": "block_12_depthwise", "class_name": "DepthwiseConv2D", "inbound_nodes": [[["block_12_expand_relu", 0, 0]]]}, {"config": {"name": "block_12_depthwise_BN", "trainable": true, "dtype": {"module": "keras", "config": {"name": "float32"}, "registeredName": null, "class_name": "DTypePolicy"}, "axis": -1, "momentum": 0.999, "epsilon": 0.001, "center": true, "scale": true, "betaInitializer": {"module": "keras.initializers", "config": {}, "registeredName": null, "class_name": "Zeros"}, "gammaInitializer": {"module": "keras.initializers", "config": {}, "registeredName": null, "class_name": "Ones"}, "movingMeanInitializer": {"module": "keras.initializers", "config": {}, "registeredName": null, "class_name": "Zeros"}, "movingVarianceInitializer": {"module": "keras.initializers", "config": {}, "registeredName": null, "class_name": "Ones"}, "betaRegularizer": null, "gammaRegularizer": null, "betaConstraint": null, "gammaConstraint": null, "synchronized": false}, "name": "block_12_depthwise_BN", "class_name": "BatchNormalization", "inbound_nodes": [[["block_12_depthwise", 0, 0]]]}, {"config": {"name": "block_12_depthwise_relu", "trainable": true, "dtype": {"module": "keras", "config": {"name": "float32"}, "registeredName": null, "class_name": "DTypePolicy"}, "threshold": 0.0, "maxValue": 6.0, "negativeSlope": 0.0}, "name": "block_12_depthwise_relu", "class_name": "ReLU", "inbound_nodes": [[["block_12_depthwise_BN", 0, 0]]]}, {"config": {"name": "block_12_project", "trainable": true, "dtype": {"module": "keras", "config": {"name": "float32"}, "registeredName": null, "class_name": "DTypePolicy"}, "filters": 96, "strides": [1, 1], "padding": "same", "groups": 1, "activation": "linear", "useBias": false, "kernelInitializer": {"module": "keras.initializers", "config": {"seed": null}, "registeredName": null, "class_name": "GlorotUniform"}, "biasInitializer": {"module": "keras.initializers", "config": {}, "registeredName": null, "class_name": "Zeros"}, "kernelRegularizer": null, "biasRegularizer": null, "activityRegularizer": null, "kernelConstraint": null, "biasConstraint": null, "kernelSize": [1, 1], "dilationRate": [1, 1], "dataFormat": "channels_last"}, "name": "block_12_project", "class_name": "Conv2D", "inbound_nodes": [[["block_12_depthwise_relu", 0, 0]]]}, {"config": {"name": "block_12_project_BN", "trainable": true, "dtype": {"module": "keras", "config": {"name": "float32"}, "registeredName": null, "class_name": "DTypePolicy"}, "axis": -1, "momentum": 0.999, "epsilon": 0.001, "center": true, "scale": true, "betaInitializer": {"module": "keras.initializers", "config": {}, "registeredName": null, "class_name": "Zeros"}, "gammaInitializer": {"module": "keras.initializers", "config": {}, "registeredName": null, "class_name": "Ones"}, "movingMeanInitializer": {"module": "keras.initializers", "config": {}, "registeredName": null, "class_name": "Zeros"}, "movingVarianceInitializer": {"module": "keras.initializers", "config": {}, "registeredName": null, "class_name": "Ones"}, "betaRegularizer": null, "gammaRegularizer": null, "betaConstraint": null, "gammaConstraint": null, "synchronized": false}, "name": "block_12_project_BN", "class_name": "BatchNormalization", "inbound_nodes": [[["block_12_project", 0, 0]]]}, {"config": {"name": "block_12_add", "trainable": true, "dtype": {"module": "keras", "config": {"name": "float32"}, "registeredName": null, "class_name": "DTypePolicy"}}, "name": "block_12_add", "class_name": "Add", "inbound_nodes": [[["block_11_add", 0, 0], ["block_12_project_BN", 0, 0]]]}, {"config": {"name": "block_13_expand", "trainable": true, "dtype": {"module": "keras", "config": {"name": "float32"}, "registeredName": null, "class_name": "DTypePolicy"}, "filters": 576, "strides": [1, 1], "padding": "same", "groups": 1, "activation": "linear", "useBias": false, "kernelInitializer": {"module": "keras.initializers", "config": {"seed": null}, "registeredName": null, "class_name": "GlorotUniform"}, "biasInitializer": {"module": "keras.initializers", "config": {}, "registeredName": null, "class_name": "Zeros"}, "kernelRegularizer": null, "biasRegularizer": null, "activityRegularizer": null, "kernelConstraint": null, "biasConstraint": null, "kernelSize": [1, 1], "dilationRate": [1, 1], "dataFormat": "channels_last"}, "name": "block_13_expand", "class_name": "Conv2D", "inbound_nodes": [[["block_12_add", 0, 0]]]}, {"config": {"name": "block_13_expand_BN", "trainable": true, "dtype": {"module": "keras", "config": {"name": "float32"}, "registeredName": null, "class_name": "DTypePolicy"}, "axis": -1, "momentum": 0.999, "epsilon": 0.001, "center": true, "scale": true, "betaInitializer": {"module": "keras.initializers", "config": {}, "registeredName": null, "class_name": "Zeros"}, "gammaInitializer": {"module": "keras.initializers", "config": {}, "registeredName": null, "class_name": "Ones"}, "movingMeanInitializer": {"module": "keras.initializers", "config": {}, "registeredName": null, "class_name": "Zeros"}, "movingVarianceInitializer": {"module": "keras.initializers", "config": {}, "registeredName": null, "class_name": "Ones"}, "betaRegularizer": null, "gammaRegularizer": null, "betaConstraint": null, "gammaConstraint": null, "synchronized": false}, "name": "block_13_expand_BN", "class_name": "BatchNormalization", "inbound_nodes": [[["block_13_expand", 0, 0]]]}, {"config": {"name": "block_13_expand_relu", "trainable": true, "dtype": {"module": "keras", "config": {"name": "float32"}, "registeredName": null, "class_name": "DTypePolicy"}, "threshold": 0.0, "maxValue": 6.0, "negativeSlope": 0.0}, "name": "block_13_expand_relu", "class_name": "ReLU", "inbound_nodes": [[["block_13_expand_BN", 0, 0]]]}, {"config": {"name": "block_13_pad", "trainable": true, "dtype": {"module": "keras", "config": {"name": "float32"}, "registeredName": null, "class_name": "DTypePolicy"}, "padding": [[0, 1], [0, 1]], "dataFormat": "channels_last"}, "name": "block_13_pad", "class_name": "ZeroPadding2D", "inbound_nodes": [[["block_13_expand_relu", 0, 0]]]}, {"config": {"name": "block_13_depthwise", "trainable": true, "dtype": {"module": "keras", "config": {"name": "float32"}, "registeredName": null, "class_name": "DTypePolicy"}, "strides": [2, 2], "padding": "valid", "activation": "linear", "useBias": false, "depthwiseInitializer": {"module": "keras.initializers", "config": {"seed": null}, "registeredName": null, "class_name": "GlorotUniform"}, "biasInitializer": {"module": "keras.initializers", "config": {}, "registeredName": null, "class_name": "Zeros"}, "depthwiseRegularizer": null, "biasRegularizer": null, "activityRegularizer": null, "depthwiseConstraint": null, "biasConstraint": null, "kernelSize": [3, 3], "dilationRate": [1, 1], "dataFormat": "channels_last", "depthMultiplier": 1}, "name": "block_13_depthwise", "class_name": "DepthwiseConv2D", "inbound_nodes": [[["block_13_pad", 0, 0]]]}, {"config": {"name": "block_13_depthwise_BN", "trainable": true, "dtype": {"module": "keras", "config": {"name": "float32"}, "registeredName": null, "class_name": "DTypePolicy"}, "axis": -1, "momentum": 0.999, "epsilon": 0.001, "center": true, "scale": true, "betaInitializer": {"module": "keras.initializers", "config": {}, "registeredName": null, "class_name": "Zeros"}, "gammaInitializer": {"module": "keras.initializers", "config": {}, "registeredName": null, "class_name": "Ones"}, "movingMeanInitializer": {"module": "keras.initializers", "config": {}, "registeredName": null, "class_name": "Zeros"}, "movingVarianceInitializer": {"module": "keras.initializers", "config": {}, "registeredName": null, "class_name": "Ones"}, "betaRegularizer": null, "gammaRegularizer": null, "betaConstraint": null, "gammaConstraint": null, "synchronized": false}, "name": "block_13_depthwise_BN", "class_name": "BatchNormalization", "inbound_nodes": [[["block_13_depthwise", 0, 0]]]}, {"config": {"name": "block_13_depthwise_relu", "trainable": true, "dtype": {"module": "keras", "config": {"name": "float32"}, "registeredName": null, "class_name": "DTypePolicy"}, "threshold": 0.0, "maxValue": 6.0, "negativeSlope": 0.0}, "name": "block_13_depthwise_relu", "class_name": "ReLU", "inbound_nodes": [[["block_13_depthwise_BN", 0, 0]]]}, {"config": {"name": "block_13_project", "trainable": true, "dtype": {"module": "keras", "config": {"name": "float32"}, "registeredName": null, "class_name": "DTypePolicy"}, "filters": 160, "strides": [1, 1], "padding": "same", "groups": 1, "activation": "linear", "useBias": false, "kernelInitializer": {"module": "keras.initializers", "config": {"seed": null}, "registeredName": null, "class_name": "GlorotUniform"}, "biasInitializer": {"module": "keras.initializers", "config": {}, "registeredName": null, "class_name": "Zeros"}, "kernelRegularizer": null, "biasRegularizer": null, "activityRegularizer": null, "kernelConstraint": null, "biasConstraint": null, "kernelSize": [1, 1], "dilationRate": [1, 1], "dataFormat": "channels_last"}, "name": "block_13_project", "class_name": "Conv2D", "inbound_nodes": [[["block_13_depthwise_relu", 0, 0]]]}, {"config": {"name": "block_13_project_BN", "trainable": true, "dtype": {"module": "keras", "config": {"name": "float32"}, "registeredName": null, "class_name": "DTypePolicy"}, "axis": -1, "momentum": 0.999, "epsilon": 0.001, "center": true, "scale": true, "betaInitializer": {"module": "keras.initializers", "config": {}, "registeredName": null, "class_name": "Zeros"}, "gammaInitializer": {"module": "keras.initializers", "config": {}, "registeredName": null, "class_name": "Ones"}, "movingMeanInitializer": {"module": "keras.initializers", "config": {}, "registeredName": null, "class_name": "Zeros"}, "movingVarianceInitializer": {"module": "keras.initializers", "config": {}, "registeredName": null, "class_name": "Ones"}, "betaRegularizer": null, "gammaRegularizer": null, "betaConstraint": null, "gammaConstraint": null, "synchronized": false}, "name": "block_13_project_BN", "class_name": "BatchNormalization", "inbound_nodes": [[["block_13_project", 0, 0]]]}, {"config": {"name": "block_14_expand", "trainable": true, "dtype": {"module": "keras", "config": {"name": "float32"}, "registeredName": null, "class_name": "DTypePolicy"}, "filters": 960, "strides": [1, 1], "padding": "same", "groups": 1, "activation": "linear", "useBias": false, "kernelInitializer": {"module": "keras.initializers", "config": {"seed": null}, "registeredName": null, "class_name": "GlorotUniform"}, "biasInitializer": {"module": "keras.initializers", "config": {}, "registeredName": null, "class_name": "Zeros"}, "kernelRegularizer": null, "biasRegularizer": null, "activityRegularizer": null, "kernelConstraint": null, "biasConstraint": null, "kernelSize": [1, 1], "dilationRate": [1, 1], "dataFormat": "channels_last"}, "name": "block_14_expand", "class_name": "Conv2D", "inbound_nodes": [[["block_13_project_BN", 0, 0]]]}, {"config": {"name": "block_14_expand_BN", "trainable": true, "dtype": {"module": "keras", "config": {"name": "float32"}, "registeredName": null, "class_name": "DTypePolicy"}, "axis": -1, "momentum": 0.999, "epsilon": 0.001, "center": true, "scale": true, "betaInitializer": {"module": "keras.initializers", "config": {}, "registeredName": null, "class_name": "Zeros"}, "gammaInitializer": {"module": "keras.initializers", "config": {}, "registeredName": null, "class_name": "Ones"}, "movingMeanInitializer": {"module": "keras.initializers", "config": {}, "registeredName": null, "class_name": "Zeros"}, "movingVarianceInitializer": {"module": "keras.initializers", "config": {}, "registeredName": null, "class_name": "Ones"}, "betaRegularizer": null, "gammaRegularizer": null, "betaConstraint": null, "gammaConstraint": null, "synchronized": false}, "name": "block_14_expand_BN", "class_name": "BatchNormalization", "inbound_nodes": [[["block_14_expand", 0, 0]]]}, {"config": {"name": "block_14_expand_relu", "trainable": true, "dtype": {"module": "keras", "config": {"name": "float32"}, "registeredName": null, "class_name": "DTypePolicy"}, "threshold": 0.0, "maxValue": 6.0, "negativeSlope": 0.0}, "name": "block_14_expand_relu", "class_name": "ReLU", "inbound_nodes": [[["block_14_expand_BN", 0, 0]]]}, {"config": {"name": "block_14_depthwise", "trainable": true, "dtype": {"module": "keras", "config": {"name": "float32"}, "registeredName": null, "class_name": "DTypePolicy"}, "strides": [1, 1], "padding": "same", "activation": "linear", "useBias": false, "depthwiseInitializer": {"module": "keras.initializers", "config": {"seed": null}, "registeredName": null, "class_name": "GlorotUniform"}, "biasInitializer": {"module": "keras.initializers", "config": {}, "registeredName": null, "class_name": "Zeros"}, "depthwiseRegularizer": null, "biasRegularizer": null, "activityRegularizer": null, "depthwiseConstraint": null, "biasConstraint": null, "kernelSize": [3, 3], "dilationRate": [1, 1], "dataFormat": "channels_last", "depthMultiplier": 1}, "name": "block_14_depthwise", "class_name": "DepthwiseConv2D", "inbound_nodes": [[["block_14_expand_relu", 0, 0]]]}, {"config": {"name": "block_14_depthwise_BN", "trainable": true, "dtype": {"module": "keras", "config": {"name": "float32"}, "registeredName": null, "class_name": "DTypePolicy"}, "axis": -1, "momentum": 0.999, "epsilon": 0.001, "center": true, "scale": true, "betaInitializer": {"module": "keras.initializers", "config": {}, "registeredName": null, "class_name": "Zeros"}, "gammaInitializer": {"module": "keras.initializers", "config": {}, "registeredName": null, "class_name": "Ones"}, "movingMeanInitializer": {"module": "keras.initializers", "config": {}, "registeredName": null, "class_name": "Zeros"}, "movingVarianceInitializer": {"module": "keras.initializers", "config": {}, "registeredName": null, "class_name": "Ones"}, "betaRegularizer": null, "gammaRegularizer": null, "betaConstraint": null, "gammaConstraint": null, "synchronized": false}, "name": "block_14_depthwise_BN", "class_name": "BatchNormalization", "inbound_nodes": [[["block_14_depthwise", 0, 0]]]}, {"config": {"name": "block_14_depthwise_relu", "trainable": true, "dtype": {"module": "keras", "config": {"name": "float32"}, "registeredName": null, "class_name": "DTypePolicy"}, "threshold": 0.0, "maxValue": 6.0, "negativeSlope": 0.0}, "name": "block_14_depthwise_relu", "class_name": "ReLU", "inbound_nodes": [[["block_14_depthwise_BN", 0, 0]]]}, {"config": {"name": "block_14_project", "trainable": true, "dtype": {"module": "keras", "config": {"name": "float32"}, "registeredName": null, "class_name": "DTypePolicy"}, "filters": 160, "strides": [1, 1], "padding": "same", "groups": 1, "activation": "linear", "useBias": false, "kernelInitializer": {"module": "keras.initializers", "config": {"seed": null}, "registeredName": null, "class_name": "GlorotUniform"}, "biasInitializer": {"module": "keras.initializers", "config": {}, "registeredName": null, "class_name": "Zeros"}, "kernelRegularizer": null, "biasRegularizer": null, "activityRegularizer": null, "kernelConstraint": null, "biasConstraint": null, "kernelSize": [1, 1], "dilationRate": [1, 1], "dataFormat": "channels_last"}, "name": "block_14_project", "class_name": "Conv2D", "inbound_nodes": [[["block_14_depthwise_relu", 0, 0]]]}, {"config": {"name": "block_14_project_BN", "trainable": true, "dtype": {"module": "keras", "config": {"name": "float32"}, "registeredName": null, "class_name": "DTypePolicy"}, "axis": -1, "momentum": 0.999, "epsilon": 0.001, "center": true, "scale": true, "betaInitializer": {"module": "keras.initializers", "config": {}, "registeredName": null, "class_name": "Zeros"}, "gammaInitializer": {"module": "keras.initializers", "config": {}, "registeredName": null, "class_name": "Ones"}, "movingMeanInitializer": {"module": "keras.initializers", "config": {}, "registeredName": null, "class_name": "Zeros"}, "movingVarianceInitializer": {"module": "keras.initializers", "config": {}, "registeredName": null, "class_name": "Ones"}, "betaRegularizer": null, "gammaRegularizer": null, "betaConstraint": null, "gammaConstraint": null, "synchronized": false}, "name": "block_14_project_BN", "class_name": "BatchNormalization", "inbound_nodes": [[["block_14_project", 0, 0]]]}, {"config": {"name": "block_14_add", "trainable": true, "dtype": {"module": "keras", "config": {"name": "float32"}, "registeredName": null, "class_name": "DTypePolicy"}}, "name": "block_14_add", "class_name": "Add", "inbound_nodes": [[["block_13_project_BN", 0, 0], ["block_14_project_BN", 0, 0]]]}, {"config": {"name": "block_15_expand", "trainable": true, "dtype": {"module": "keras", "config": {"name": "float32"}, "registeredName": null, "class_name": "DTypePolicy"}, "filters": 960, "strides": [1, 1], "padding": "same", "groups": 1, "activation": "linear", "useBias": false, "kernelInitializer": {"module": "keras.initializers", "config": {"seed": null}, "registeredName": null, "class_name": "GlorotUniform"}, "biasInitializer": {"module": "keras.initializers", "config": {}, "registeredName": null, "class_name": "Zeros"}, "kernelRegularizer": null, "biasRegularizer": null, "activityRegularizer": null, "kernelConstraint": null, "biasConstraint": null, "kernelSize": [1, 1], "dilationRate": [1, 1], "dataFormat": "channels_last"}, "name": "block_15_expand", "class_name": "Conv2D", "inbound_nodes": [[["block_14_add", 0, 0]]]}, {"config": {"name": "block_15_expand_BN", "trainable": true, "dtype": {"module": "keras", "config": {"name": "float32"}, "registeredName": null, "class_name": "DTypePolicy"}, "axis": -1, "momentum": 0.999, "epsilon": 0.001, "center": true, "scale": true, "betaInitializer": {"module": "keras.initializers", "config": {}, "registeredName": null, "class_name": "Zeros"}, "gammaInitializer": {"module": "keras.initializers", "config": {}, "registeredName": null, "class_name": "Ones"}, "movingMeanInitializer": {"module": "keras.initializers", "config": {}, "registeredName": null, "class_name": "Zeros"}, "movingVarianceInitializer": {"module": "keras.initializers", "config": {}, "registeredName": null, "class_name": "Ones"}, "betaRegularizer": null, "gammaRegularizer": null, "betaConstraint": null, "gammaConstraint": null, "synchronized": false}, "name": "block_15_expand_BN", "class_name": "BatchNormalization", "inbound_nodes": [[["block_15_expand", 0, 0]]]}, {"config": {"name": "block_15_expand_relu", "trainable": true, "dtype": {"module": "keras", "config": {"name": "float32"}, "registeredName": null, "class_name": "DTypePolicy"}, "threshold": 0.0, "maxValue": 6.0, "negativeSlope": 0.0}, "name": "block_15_expand_relu", "class_name": "ReLU", "inbound_nodes": [[["block_15_expand_BN", 0, 0]]]}, {"config": {"name": "block_15_depthwise", "trainable": true, "dtype": {"module": "keras", "config": {"name": "float32"}, "registeredName": null, "class_name": "DTypePolicy"}, "strides": [1, 1], "padding": "same", "activation": "linear", "useBias": false, "depthwiseInitializer": {"module": "keras.initializers", "config": {"seed": null}, "registeredName": null, "class_name": "GlorotUniform"}, "biasInitializer": {"module": "keras.initializers", "config": {}, "registeredName": null, "class_name": "Zeros"}, "depthwiseRegularizer": null, "biasRegularizer": null, "activityRegularizer": null, "depthwiseConstraint": null, "biasConstraint": null, "kernelSize": [3, 3], "dilationRate": [1, 1], "dataFormat": "channels_last", "depthMultiplier": 1}, "name": "block_15_depthwise", "class_name": "DepthwiseConv2D", "inbound_nodes": [[["block_15_expand_relu", 0, 0]]]}, {"config": {"name": "block_15_depthwise_BN", "trainable": true, "dtype": {"module": "keras", "config": {"name": "float32"}, "registeredName": null, "class_name": "DTypePolicy"}, "axis": -1, "momentum": 0.999, "epsilon": 0.001, "center": true, "scale": true, "betaInitializer": {"module": "keras.initializers", "config": {}, "registeredName": null, "class_name": "Zeros"}, "gammaInitializer": {"module": "keras.initializers", "config": {}, "registeredName": null, "class_name": "Ones"}, "movingMeanInitializer": {"module": "keras.initializers", "config": {}, "registeredName": null, "class_name": "Zeros"}, "movingVarianceInitializer": {"module": "keras.initializers", "config": {}, "registeredName": null, "class_name": "Ones"}, "betaRegularizer": null, "gammaRegularizer": null, "betaConstraint": null, "gammaConstraint": null, "synchronized": false}, "name": "block_15_depthwise_BN", "class_name": "BatchNormalization", "inbound_nodes": [[["block_15_depthwise", 0, 0]]]}, {"config": {"name": "block_15_depthwise_relu", "trainable": true, "dtype": {"module": "keras", "config": {"name": "float32"}, "registeredName": null, "class_name": "DTypePolicy"}, "threshold": 0.0, "maxValue": 6.0, "negativeSlope": 0.0}, "name": "block_15_depthwise_relu", "class_name": "ReLU", "inbound_nodes": [[["block_15_depthwise_BN", 0, 0]]]}, {"config": {"name": "block_15_project", "trainable": true, "dtype": {"module": "keras", "config": {"name": "float32"}, "registeredName": null, "class_name": "DTypePolicy"}, "filters": 160, "strides": [1, 1], "padding": "same", "groups": 1, "activation": "linear", "useBias": false, "kernelInitializer": {"module": "keras.initializers", "config": {"seed": null}, "registeredName": null, "class_name": "GlorotUniform"}, "biasInitializer": {"module": "keras.initializers", "config": {}, "registeredName": null, "class_name": "Zeros"}, "kernelRegularizer": null, "biasRegularizer": null, "activityRegularizer": null, "kernelConstraint": null, "biasConstraint": null, "kernelSize": [1, 1], "dilationRate": [1, 1], "dataFormat": "channels_last"}, "name": "block_15_project", "class_name": "Conv2D", "inbound_nodes": [[["block_15_depthwise_relu", 0, 0]]]}, {"config": {"name": "block_15_project_BN", "trainable": true, "dtype": {"module": "keras", "config": {"name": "float32"}, "registeredName": null, "class_name": "DTypePolicy"}, "axis": -1, "momentum": 0.999, "epsilon": 0.001, "center": true, "scale": true, "betaInitializer": {"module": "keras.initializers", "config": {}, "registeredName": null, "class_name": "Zeros"}, "gammaInitializer": {"module": "keras.initializers", "config": {}, "registeredName": null, "class_name": "Ones"}, "movingMeanInitializer": {"module": "keras.initializers", "config": {}, "registeredName": null, "class_name": "Zeros"}, "movingVarianceInitializer": {"module": "keras.initializers", "config": {}, "registeredName": null, "class_name": "Ones"}, "betaRegularizer": null, "gammaRegularizer": null, "betaConstraint": null, "gammaConstraint": null, "synchronized": false}, "name": "block_15_project_BN", "class_name": "BatchNormalization", "inbound_nodes": [[["block_15_project", 0, 0]]]}, {"config": {"name": "block_15_add", "trainable": true, "dtype": {"module": "keras", "config": {"name": "float32"}, "registeredName": null, "class_name": "DTypePolicy"}}, "name": "block_15_add", "class_name": "Add", "inbound_nodes": [[["block_14_add", 0, 0], ["block_15_project_BN", 0, 0]]]}, {"config": {"name": "block_16_expand", "trainable": true, "dtype": {"module": "keras", "config": {"name": "float32"}, "registeredName": null, "class_name": "DTypePolicy"}, "filters": 960, "strides": [1, 1], "padding": "same", "groups": 1, "activation": "linear", "useBias": false, "kernelInitializer": {"module": "keras.initializers", "config": {"seed": null}, "registeredName": null, "class_name": "GlorotUniform"}, "biasInitializer": {"module": "keras.initializers", "config": {}, "registeredName": null, "class_name": "Zeros"}, "kernelRegularizer": null, "biasRegularizer": null, "activityRegularizer": null, "kernelConstraint": null, "biasConstraint": null, "kernelSize": [1, 1], "dilationRate": [1, 1], "dataFormat": "channels_last"}, "name": "block_16_expand", "class_name": "Conv2D", "inbound_nodes": [[["block_15_add", 0, 0]]]}, {"config": {"name": "block_16_expand_BN", "trainable": true, "dtype": {"module": "keras", "config": {"name": "float32"}, "registeredName": null, "class_name": "DTypePolicy"}, "axis": -1, "momentum": 0.999, "epsilon": 0.001, "center": true, "scale": true, "betaInitializer": {"module": "keras.initializers", "config": {}, "registeredName": null, "class_name": "Zeros"}, "gammaInitializer": {"module": "keras.initializers", "config": {}, "registeredName": null, "class_name": "Ones"}, "movingMeanInitializer": {"module": "keras.initializers", "config": {}, "registeredName": null, "class_name": "Zeros"}, "movingVarianceInitializer": {"module": "keras.initializers", "config": {}, "registeredName": null, "class_name": "Ones"}, "betaRegularizer": null, "gammaRegularizer": null, "betaConstraint": null, "gammaConstraint": null, "synchronized": false}, "name": "block_16_expand_BN", "class_name": "BatchNormalization", "inbound_nodes": [[["block_16_expand", 0, 0]]]}, {"config": {"name": "block_16_expand_relu", "trainable": true, "dtype": {"module": "keras", "config": {"name": "float32"}, "registeredName": null, "class_name": "DTypePolicy"}, "threshold": 0.0, "maxValue": 6.0, "negativeSlope": 0.0}, "name": "block_16_expand_relu", "class_name": "ReLU", "inbound_nodes": [[["block_16_expand_BN", 0, 0]]]}, {"config": {"name": "block_16_depthwise", "trainable": true, "dtype": {"module": "keras", "config": {"name": "float32"}, "registeredName": null, "class_name": "DTypePolicy"}, "strides": [1, 1], "padding": "same", "activation": "linear", "useBias": false, "depthwiseInitializer": {"module": "keras.initializers", "config": {"seed": null}, "registeredName": null, "class_name": "GlorotUniform"}, "biasInitializer": {"module": "keras.initializers", "config": {}, "registeredName": null, "class_name": "Zeros"}, "depthwiseRegularizer": null, "biasRegularizer": null, "activityRegularizer": null, "depthwiseConstraint": null, "biasConstraint": null, "kernelSize": [3, 3], "dilationRate": [1, 1], "dataFormat": "channels_last", "depthMultiplier": 1}, "name": "block_16_depthwise", "class_name": "DepthwiseConv2D", "inbound_nodes": [[["block_16_expand_relu", 0, 0]]]}, {"config": {"name": "block_16_depthwise_BN", "trainable": true, "dtype": {"module": "keras", "config": {"name": "float32"}, "registeredName": null, "class_name": "DTypePolicy"}, "axis": -1, "momentum": 0.999, "epsilon": 0.001, "center": true, "scale": true, "betaInitializer": {"module": "keras.initializers", "config": {}, "registeredName": null, "class_name": "Zeros"}, "gammaInitializer": {"module": "keras.initializers", "config": {}, "registeredName": null, "class_name": "Ones"}, "movingMeanInitializer": {"module": "keras.initializers", "config": {}, "registeredName": null, "class_name": "Zeros"}, "movingVarianceInitializer": {"module": "keras.initializers", "config": {}, "registeredName": null, "class_name": "Ones"}, "betaRegularizer": null, "gammaRegularizer": null, "betaConstraint": null, "gammaConstraint": null, "synchronized": false}, "name": "block_16_depthwise_BN", "class_name": "BatchNormalization", "inbound_nodes": [[["block_16_depthwise", 0, 0]]]}, {"config": {"name": "block_16_depthwise_relu", "trainable": true, "dtype": {"module": "keras", "config": {"name": "float32"}, "registeredName": null, "class_name": "DTypePolicy"}, "threshold": 0.0, "maxValue": 6.0, "negativeSlope": 0.0}, "name": "block_16_depthwise_relu", "class_name": "ReLU", "inbound_nodes": [[["block_16_depthwise_BN", 0, 0]]]}, {"config": {"name": "block_16_project", "trainable": true, "dtype": {"module": "keras", "config": {"name": "float32"}, "registeredName": null, "class_name": "DTypePolicy"}, "filters": 320, "strides": [1, 1], "padding": "same", "groups": 1, "activation": "linear", "useBias": false, "kernelInitializer": {"module": "keras.initializers", "config": {"seed": null}, "registeredName": null, "class_name": "GlorotUniform"}, "biasInitializer": {"module": "keras.initializers", "config": {}, "registeredName": null, "class_name": "Zeros"}, "kernelRegularizer": null, "biasRegularizer": null, "activityRegularizer": null, "kernelConstraint": null, "biasConstraint": null, "kernelSize": [1, 1], "dilationRate": [1, 1], "dataFormat": "channels_last"}, "name": "block_16_project", "class_name": "Conv2D", "inbound_nodes": [[["block_16_depthwise_relu", 0, 0]]]}, {"config": {"name": "block_16_project_BN", "trainable": true, "dtype": {"module": "keras", "config": {"name": "float32"}, "registeredName": null, "class_name": "DTypePolicy"}, "axis": -1, "momentum": 0.999, "epsilon": 0.001, "center": true, "scale": true, "betaInitializer": {"module": "keras.initializers", "config": {}, "registeredName": null, "class_name": "Zeros"}, "gammaInitializer": {"module": "keras.initializers", "config": {}, "registeredName": null, "class_name": "Ones"}, "movingMeanInitializer": {"module": "keras.initializers", "config": {}, "registeredName": null, "class_name": "Zeros"}, "movingVarianceInitializer": {"module": "keras.initializers", "config": {}, "registeredName": null, "class_name": "Ones"}, "betaRegularizer": null, "gammaRegularizer": null, "betaConstraint": null, "gammaConstraint": null, "synchronized": false}, "name": "block_16_project_BN", "class_name": "BatchNormalization", "inbound_nodes": [[["block_16_project", 0, 0]]]}, {"config": {"name": "Conv_1", "trainable": true, "dtype": {"module": "keras", "config": {"name": "float32"}, "registeredName": null, "class_name": "DTypePolicy"}, "filters": 1280, "strides": [1, 1], "padding": "valid", "groups": 1, "activation": "linear", "useBias": false, "kernelInitializer": {"module": "keras.initializers", "config": {"seed": null}, "registeredName": null, "class_name": "GlorotUniform"}, "biasInitializer": {"module": "keras.initializers", "config": {}, "registeredName": null, "class_name": "Zeros"}, "kernelRegularizer": null, "biasRegularizer": null, "activityRegularizer": null, "kernelConstraint": null, "biasConstraint": null, "kernelSize": [1, 1], "dilationRate": [1, 1], "dataFormat": "channels_last"}, "name": "Conv_1", "class_name": "Conv2D", "inbound_nodes": [[["block_16_project_BN", 0, 0]]]}, {"config": {"name": "Conv_1_bn", "trainable": true, "dtype": {"module": "keras", "config": {"name": "float32"}, "registeredName": null, "class_name": "DTypePolicy"}, "axis": -1, "momentum": 0.999, "epsilon": 0.001, "center": true, "scale": true, "betaInitializer": {"module": "keras.initializers", "config": {}, "registeredName": null, "class_name": "Zeros"}, "gammaInitializer": {"module": "keras.initializers", "config": {}, "registeredName": null, "class_name": "Ones"}, "movingMeanInitializer": {"module": "keras.initializers", "config": {}, "registeredName": null, "class_name": "Zeros"}, "movingVarianceInitializer": {"module": "keras.initializers", "config": {}, "registeredName": null, "class_name": "Ones"}, "betaRegularizer": null, "gammaRegularizer": null, "betaConstraint": null, "gammaConstraint": null, "synchronized": false}, "name": "Conv_1_bn", "class_name": "BatchNormalization", "inbound_nodes": [[["Conv_1", 0, 0]]]}, {"config": {"name": "out_relu", "trainable": true, "dtype": {"module": "keras", "config": {"name": "float32"}, "registeredName": null, "class_name": "DTypePolicy"}, "threshold": 0.0, "maxValue": 6.0, "negativeSlope": 0.0}, "name": "out_relu", "class_name": "ReLU", "inbound_nodes": [[["Conv_1_bn", 0, 0]]]}, {"config": {"name": "global_average_pooling2d_1", "trainable": true, "dtype": {"module": "keras", "config": {"name": "float32"}, "registeredName": null, "class_name": "DTypePolicy"}, "keepdims": false, "dataFormat": "channels_last"}, "name": "global_average_pooling2d_1", "class_name": "GlobalAveragePooling2D", "inbound_nodes": [[["out_relu", 0, 0]]]}, {"config": {"name": "dropout_1", "trainable": true, "dtype": {"module": "keras", "config": {"name": "float32"}, "registeredName": null, "class_name": "DTypePolicy"}, "rate": 0.4, "seed": null, "noiseShape": null}, "name": "dropout_1", "class_name": "Dropout", "inbound_nodes": [[["global_average_pooling2d_1", 0, 0]]]}, {"config": {"name": "dense_1", "trainable": true, "dtype": {"module": "keras", "config": {"name": "float32"}, "registeredName": null, "class_name": "DTypePolicy"}, "units": 4, "activation": "softmax", "useBias": true, "kernelInitializer": {"module": "keras.initializers", "config": {"seed": null}, "registeredName": null, "class_name": "GlorotUniform"}, "biasInitializer": {"module": "keras.initializers", "config": {}, "registeredName": null, "class_name": "Zeros"}, "kernelRegularizer": null, "biasRegularizer": null, "kernelConstraint": null, "biasConstraint": null}, "name": "dense_1", "class_name": "Dense", "inbound_nodes": [[["dropout_1", 0, 0]]]}], "inputLayers": [["input_image", 0, 0]], "outputLayers": [["dense_1", 0, 0]]}}, "training_config": {"loss": "categorical_crossentropy", "loss_weights": null, "metrics": ["accuracy"], "weighted_metrics": null, "run_eagerly": false, "steps_per_execution": 1, "jit_compile": true, "optimizer_config": {"class_name": "Adam", "config": {"name": "adam", "learningRate": 9.999999747378752e-06, "weightDecay": null, "clipnorm": null, "globalClipnorm": null, "clipvalue": null, "useEma": false, "emaMomentum": 0.99, "emaOverwriteFrequency": null, "lossScaleFactor": null, "gradientAccumulationSteps": null, "beta1": 0.9, "beta2": 0.999, "epsilon": 1e-07, "amsgrad": false}}}}, "weightsManifest": [{"paths": ["group1-shard1of3.bin", "group1-shard2of3.bin", "group1-shard3of3.bin"], "weights": [{"name": "Conv1/kernel", "shape": [3, 3, 3, 32], "dtype": "float32"}, {"name": "Conv_1/kernel", "shape": [1, 1, 320, 1280], "dtype": "float32"}, {"name": "Conv_1_bn/gamma", "shape": [1280], "dtype": "float32"}, {"name": "Conv_1_bn/beta", "shape": [1280], "dtype": "float32"}, {"name": "Conv_1_bn/moving_mean", "shape": [1280], "dtype": "float32"}, {"name": "Conv_1_bn/moving_variance", "shape": [1280], "dtype": "float32"}, {"name": "block_10_depthwise/kernel", "shape": [3, 3, 384, 1], "dtype": "float32"}, {"name": "block_10_depthwise_BN/gamma", "shape": [384], "dtype": "float32"}, {"name": "block_10_depthwise_BN/beta", "shape": [384], "dtype": "float32"}, {"name": "block_10_depthwise_BN/moving_mean", "shape": [384], "dtype": "float32"}, {"name": "block_10_depthwise_BN/moving_variance", "shape": [384], "dtype": "float32"}, {"name": "block_10_expand/kernel", "shape": [1, 1, 64, 384], "dtype": "float32"}, {"name": "block_10_expand_BN/gamma", "shape": [384], "dtype": "float32"}, {"name": "block_10_expand_BN/beta", "shape": [384], "dtype": "float32"}, {"name": "block_10_expand_BN/moving_mean", "shape": [384], "dtype": "float32"}, {"name": "block_10_expand_BN/moving_variance", "shape": [384], "dtype": "float32"}, {"name": "block_10_project/kernel", "shape": [1, 1, 384, 96], "dtype": "float32"}, {"name": "block_10_project_BN/gamma", "shape": [96], "dtype": "float32"}, {"name": "block_10_project_BN/beta", "shape": [96], "dtype": "float32"}, {"name": "block_10_project_BN/moving_mean", "shape": [96], "dtype": "float32"}, {"name": "block_10_project_BN/moving_variance", "shape": [96], "dtype": "float32"}, {"name": "block_11_depthwise/kernel", "shape": [3, 3, 576, 1], "dtype": "float32"}, {"name": "block_11_depthwise_BN/gamma", "shape": [576], "dtype": "float32"}, {"name": "block_11_depthwise_BN/beta", "shape": [576], "dtype": "float32"}, {"name": "block_11_depthwise_BN/moving_mean", "shape": [576], "dtype": "float32"}, {"name": "block_11_depthwise_BN/moving_variance", "shape": [576], "dtype": "float32"}, {"name": "block_11_expand/kernel", "shape": [1, 1, 96, 576], "dtype": "float32"}, {"name": "block_11_expand_BN/gamma", "shape": [576], "dtype": "float32"}, {"name": "block_11_expand_BN/beta", "shape": [576], "dtype": "float32"}, {"name": "block_11_expand_BN/moving_mean", "shape": [576], "dtype": "float32"}, {"name": "block_11_expand_BN/moving_variance", "shape": [576], "dtype": "float32"}, {"name": "block_11_project/kernel", "shape": [1, 1, 576, 96], "dtype": "float32"}, {"name": "block_11_project_BN/gamma", "shape": [96], "dtype": "float32"}, {"name": "block_11_project_BN/beta", "shape": [96], "dtype": "float32"}, {"name": "block_11_project_BN/moving_mean", "shape": [96], "dtype": "float32"}, {"name": "block_11_project_BN/moving_variance", "shape": [96], "dtype": "float32"}, {"name": "block_12_depthwise/kernel", "shape": [3, 3, 576, 1], "dtype": "float32"}, {"name": "block_12_depthwise_BN/gamma", "shape": [576], "dtype": "float32"}, {"name": "block_12_depthwise_BN/beta", "shape": [576], "dtype": "float32"}, {"name": "block_12_depthwise_BN/moving_mean", "shape": [576], "dtype": "float32"}, {"name": "block_12_depthwise_BN/moving_variance", "shape": [576], "dtype": "float32"}, {"name": "block_12_expand/kernel", "shape": [1, 1, 96, 576], "dtype": "float32"}, {"name": "block_12_expand_BN/gamma", "shape": [576], "dtype": "float32"}, {"name": "block_12_expand_BN/beta", "shape": [576], "dtype": "float32"}, {"name": "block_12_expand_BN/moving_mean", "shape": [576], "dtype": "float32"}, {"name": "block_12_expand_BN/moving_variance", "shape": [576], "dtype": "float32"}, {"name": "block_12_project/kernel", "shape": [1, 1, 576, 96], "dtype": "float32"}, {"name": "block_12_project_BN/gamma", "shape": [96], "dtype": "float32"}, {"name": "block_12_project_BN/beta", "shape": [96], "dtype": "float32"}, {"name": "block_12_project_BN/moving_mean", "shape": [96], "dtype": "float32"}, {"name": "block_12_project_BN/moving_variance", "shape": [96], "dtype": "float32"}, {"name": "block_13_depthwise/kernel", "shape": [3, 3, 576, 1], "dtype": "float32"}, {"name": "block_13_depthwise_BN/gamma", "shape": [576], "dtype": "float32"}, {"name": "block_13_depthwise_BN/beta", "shape": [576], "dtype": "float32"}, {"name": "block_13_depthwise_BN/moving_mean", "shape": [576], "dtype": "float32"}, {"name": "block_13_depthwise_BN/moving_variance", "shape": [576], "dtype": "float32"}, {"name": "block_13_expand/kernel", "shape": [1, 1, 96, 576], "dtype": "float32"}, {"name": "block_13_expand_BN/gamma", "shape": [576], "dtype": "float32"}, {"name": "block_13_expand_BN/beta", "shape": [576], "dtype": "float32"}, {"name": "block_13_expand_BN/moving_mean", "shape": [576], "dtype": "float32"}, {"name": "block_13_expand_BN/moving_variance", "shape": [576], "dtype": "float32"}, {"name": "block_13_project/kernel", "shape": [1, 1, 576, 160], "dtype": "float32"}, {"name": "block_13_project_BN/gamma", "shape": [160], "dtype": "float32"}, {"name": "block_13_project_BN/beta", "shape": [160], "dtype": "float32"}, {"name": "block_13_project_BN/moving_mean", "shape": [160], "dtype": "float32"}, {"name": "block_13_project_BN/moving_variance", "shape": [160], "dtype": "float32"}, {"name": "block_14_depthwise/kernel", "shape": [3, 3, 960, 1], "dtype": "float32"}, {"name": "block_14_depthwise_BN/gamma", "shape": [960], "dtype": "float32"}, {"name": "block_14_depthwise_BN/beta", "shape": [960], "dtype": "float32"}, {"name": "block_14_depthwise_BN/moving_mean", "shape": [960], "dtype": "float32"}, {"name": "block_14_depthwise_BN/moving_variance", "shape": [960], "dtype": "float32"}, {"name": "block_14_expand/kernel", "shape": [1, 1, 160, 960], "dtype": "float32"}, {"name": "block_14_expand_BN/gamma", "shape": [960], "dtype": "float32"}, {"name": "block_14_expand_BN/beta", "shape": [960], "dtype": "float32"}, {"name": "block_14_expand_BN/moving_mean", "shape": [960], "dtype": "float32"}, {"name": "block_14_expand_BN/moving_variance", "shape": [960], "dtype": "float32"}, {"name": "block_14_project/kernel", "shape": [1, 1, 960, 160], "dtype": "float32"}, {"name": "block_14_project_BN/gamma", "shape": [160], "dtype": "float32"}, {"name": "block_14_project_BN/beta", "shape": [160], "dtype": "float32"}, {"name": "block_14_project_BN/moving_mean", "shape": [160], "dtype": "float32"}, {"name": "block_14_project_BN/moving_variance", "shape": [160], "dtype": "float32"}, {"name": "block_15_depthwise/kernel", "shape": [3, 3, 960, 1], "dtype": "float32"}, {"name": "block_15_depthwise_BN/gamma", "shape": [960], "dtype": "float32"}, {"name": "block_15_depthwise_BN/beta", "shape": [960], "dtype": "float32"}, {"name": "block_15_depthwise_BN/moving_mean", "shape": [960], "dtype": "float32"}, {"name": "block_15_depthwise_BN/moving_variance", "shape": [960], "dtype": "float32"}, {"name": "block_15_expand/kernel", "shape": [1, 1, 160, 960], "dtype": "float32"}, {"name": "block_15_expand_BN/gamma", "shape": [960], "dtype": "float32"}, {"name": "block_15_expand_BN/beta", "shape": [960], "dtype": "float32"}, {"name": "block_15_expand_BN/moving_mean", "shape": [960], "dtype": "float32"}, {"name": "block_15_expand_BN/moving_variance", "shape": [960], "dtype": "float32"}, {"name": "block_15_project/kernel", "shape": [1, 1, 960, 160], "dtype": "float32"}, {"name": "block_15_project_BN/gamma", "shape": [160], "dtype": "float32"}, {"name": "block_15_project_BN/beta", "shape": [160], "dtype": "float32"}, {"name": "block_15_project_BN/moving_mean", "shape": [160], "dtype": "float32"}, {"name": "block_15_project_BN/moving_variance", "shape": [160], "dtype": "float32"}, {"name": "block_16_depthwise/kernel", "shape": [3, 3, 960, 1], "dtype": "float32"}, {"name": "block_16_depthwise_BN/gamma", "shape": [960], "dtype": "float32"}, {"name": "block_16_depthwise_BN/beta", "shape": [960], "dtype": "float32"}, {"name": "block_16_depthwise_BN/moving_mean", "shape": [960], "dtype": "float32"}, {"name": "block_16_depthwise_BN/moving_variance", "shape": [960], "dtype": "float32"}, {"name": "block_16_expand/kernel", "shape": [1, 1, 160, 960], "dtype": "float32"}, {"name": "block_16_expand_BN/gamma", "shape": [960], "dtype": "float32"}, {"name": "block_16_expand_BN/beta", "shape": [960], "dtype": "float32"}, {"name": "block_16_expand_BN/moving_mean", "shape": [960], "dtype": "float32"}, {"name": "block_16_expand_BN/moving_variance", "shape": [960], "dtype": "float32"}, {"name": "block_16_project/kernel", "shape": [1, 1, 960, 320], "dtype": "float32"}, {"name": "block_16_project_BN/gamma", "shape": [320], "dtype": "float32"}, {"name": "block_16_project_BN/beta", "shape": [320], "dtype": "float32"}, {"name": "block_16_project_BN/moving_mean", "shape": [320], "dtype": "float32"}, {"name": "block_16_project_BN/moving_variance", "shape": [320], "dtype": "float32"}, {"name": "block_1_depthwise/kernel", "shape": [3, 3, 96, 1], "dtype": "float32"}, {"name": "block_1_depthwise_BN/gamma", "shape": [96], "dtype": "float32"}, {"name": "block_1_depthwise_BN/beta", "shape": [96], "dtype": "float32"}, {"name": "block_1_depthwise_BN/moving_mean", "shape": [96], "dtype": "float32"}, {"name": "block_1_depthwise_BN/moving_variance", "shape": [96], "dtype": "float32"}, {"name": "block_1_expand/kernel", "shape": [1, 1, 16, 96], "dtype": "float32"}, {"name": "block_1_expand_BN/gamma", "shape": [96], "dtype": "float32"}, {"name": "block_1_expand_BN/beta", "shape": [96], "dtype": "float32"}, {"name": "block_1_expand_BN/moving_mean", "shape": [96], "dtype": "float32"}, {"name": "block_1_expand_BN/moving_variance", "shape": [96], "dtype": "float32"}, {"name": "block_1_project/kernel", "shape": [1, 1, 96, 24], "dtype": "float32"}, {"name": "block_1_project_BN/gamma", "shape": [24], "dtype": "float32"}, {"name": "block_1_project_BN/beta", "shape": [24], "dtype": "float32"}, {"name": "block_1_project_BN/moving_mean", "shape": [24], "dtype": "float32"}, {"name": "block_1_project_BN/moving_variance", "shape": [24], "dtype": "float32"}, {"name": "block_2_depthwise/kernel", "shape": [3, 3, 144, 1], "dtype": "float32"}, {"name": "block_2_depthwise_BN/gamma", "shape": [144], "dtype": "float32"}, {"name": "block_2_depthwise_BN/beta", "shape": [144], "dtype": "float32"}, {"name": "block_2_depthwise_BN/moving_mean", "shape": [144], "dtype": "float32"}, {"name": "block_2_depthwise_BN/moving_variance", "shape": [144], "dtype": "float32"}, {"name": "block_2_expand/kernel", "shape": [1, 1, 24, 144], "dtype": "float32"}, {"name": "block_2_expand_BN/gamma", "shape": [144], "dtype": "float32"}, {"name": "block_2_expand_BN/beta", "shape": [144], "dtype": "float32"}, {"name": "block_2_expand_BN/moving_mean", "shape": [144], "dtype": "float32"}, {"name": "block_2_expand_BN/moving_variance", "shape": [144], "dtype": "float32"}, {"name": "block_2_project/kernel", "shape": [1, 1, 144, 24], "dtype": "float32"}, {"name": "block_2_project_BN/gamma", "shape": [24], "dtype": "float32"}, {"name": "block_2_project_BN/beta", "shape": [24], "dtype": "float32"}, {"name": "block_2_project_BN/moving_mean", "shape": [24], "dtype": "float32"}, {"name": "block_2_project_BN/moving_variance", "shape": [24], "dtype": "float32"}, {"name": "block_3_depthwise/kernel", "shape": [3, 3, 144, 1], "dtype": "float32"}, {"name": "block_3_depthwise_BN/gamma", "shape": [144], "dtype": "float32"}, {"name": "block_3_depthwise_BN/beta", "shape": [144], "dtype": "float32"}, {"name": "block_3_depthwise_BN/moving_mean", "shape": [144], "dtype": "float32"}, {"name": "block_3_depthwise_BN/moving_variance", "shape": [144], "dtype": "float32"}, {"name": "block_3_expand/kernel", "shape": [1, 1, 24, 144], "dtype": "float32"}, {"name": "block_3_expand_BN/gamma", "shape": [144], "dtype": "float32"}, {"name": "block_3_expand_BN/beta", "shape": [144], "dtype": "float32"}, {"name": "block_3_expand_BN/moving_mean", "shape": [144], "dtype": "float32"}, {"name": "block_3_expand_BN/moving_variance", "shape": [144], "dtype": "float32"}, {"name": "block_3_project/kernel", "shape": [1, 1, 144, 32], "dtype": "float32"}, {"name": "block_3_project_BN/gamma", "shape": [32], "dtype": "float32"}, {"name": "block_3_project_BN/beta", "shape": [32], "dtype": "float32"}, {"name": "block_3_project_BN/moving_mean", "shape": [32], "dtype": "float32"}, {"name": "block_3_project_BN/moving_variance", "shape": [32], "dtype": "float32"}, {"name": "block_4_depthwise/kernel", "shape": [3, 3, 192, 1], "dtype": "float32"}, {"name": "block_4_depthwise_BN/gamma", "shape": [192], "dtype": "float32"}, {"name": "block_4_depthwise_BN/beta", "shape": [192], "dtype": "float32"}, {"name": "block_4_depthwise_BN/moving_mean", "shape": [192], "dtype": "float32"}, {"name": "block_4_depthwise_BN/moving_variance", "shape": [192], "dtype": "float32"}, {"name": "block_4_expand/kernel", "shape": [1, 1, 32, 192], "dtype": "float32"}, {"name": "block_4_expand_BN/gamma", "shape": [192], "dtype": "float32"}, {"name": "block_4_expand_BN/beta", "shape": [192], "dtype": "float32"}, {"name": "block_4_expand_BN/moving_mean", "shape": [192], "dtype": "float32"}, {"name": "block_4_expand_BN/moving_variance", "shape": [192], "dtype": "float32"}, {"name": "block_4_project/kernel", "shape": [1, 1, 192, 32], "dtype": "float32"}, {"name": "block_4_project_BN/gamma", "shape": [32], "dtype": "float32"}, {"name": "block_4_project_BN/beta", "shape": [32], "dtype": "float32"}, {"name": "block_4_project_BN/moving_mean", "shape": [32], "dtype": "float32"}, {"name": "block_4_project_BN/moving_variance", "shape": [32], "dtype": "float32"}, {"name": "block_5_depthwise/kernel", "shape": [3, 3, 192, 1], "dtype": "float32"}, {"name": "block_5_depthwise_BN/gamma", "shape": [192], "dtype": "float32"}, {"name": "block_5_depthwise_BN/beta", "shape": [192], "dtype": "float32"}, {"name": "block_5_depthwise_BN/moving_mean", "shape": [192], "dtype": "float32"}, {"name": "block_5_depthwise_BN/moving_variance", "shape": [192], "dtype": "float32"}, {"name": "block_5_expand/kernel", "shape": [1, 1, 32, 192], "dtype": "float32"}, {"name": "block_5_expand_BN/gamma", "shape": [192], "dtype": "float32"}, {"name": "block_5_expand_BN/beta", "shape": [192], "dtype": "float32"}, {"name": "block_5_expand_BN/moving_mean", "shape": [192], "dtype": "float32"}, {"name": "block_5_expand_BN/moving_variance", "shape": [192], "dtype": "float32"}, {"name": "block_5_project/kernel", "shape": [1, 1, 192, 32], "dtype": "float32"}, {"name": "block_5_project_BN/gamma", "shape": [32], "dtype": "float32"}, {"name": "block_5_project_BN/beta", "shape": [32], "dtype": "float32"}, {"name": "block_5_project_BN/moving_mean", "shape": [32], "dtype": "float32"}, {"name": "block_5_project_BN/moving_variance", "shape": [32], "dtype": "float32"}, {"name": "block_6_depthwise/kernel", "shape": [3, 3, 192, 1], "dtype": "float32"}, {"name": "block_6_depthwise_BN/gamma", "shape": [192], "dtype": "float32"}, {"name": "block_6_depthwise_BN/beta", "shape": [192], "dtype": "float32"}, {"name": "block_6_depthwise_BN/moving_mean", "shape": [192], "dtype": "float32"}, {"name": "block_6_depthwise_BN/moving_variance", "shape": [192], "dtype": "float32"}, {"name": "block_6_expand/kernel", "shape": [1, 1, 32, 192], "dtype": "float32"}, {"name": "block_6_expand_BN/gamma", "shape": [192], "dtype": "float32"}, {"name": "block_6_expand_BN/beta", "shape": [192], "dtype": "float32"}, {"name": "block_6_expand_BN/moving_mean", "shape": [192], "dtype": "float32"}, {"name": "block_6_expand_BN/moving_variance", "shape": [192], "dtype": "float32"}, {"name": "block_6_project/kernel", "shape": [1, 1, 192, 64], "dtype": "float32"}, {"name": "block_6_project_BN/gamma", "shape": [64], "dtype": "float32"}, {"name": "block_6_project_BN/beta", "shape": [64], "dtype": "float32"}, {"name": "block_6_project_BN/moving_mean", "shape": [64], "dtype": "float32"}, {"name": "block_6_project_BN/moving_variance", "shape": [64], "dtype": "float32"}, {"name": "block_7_depthwise/kernel", "shape": [3, 3, 384, 1], "dtype": "float32"}, {"name": "block_7_depthwise_BN/gamma", "shape": [384], "dtype": "float32"}, {"name": "block_7_depthwise_BN/beta", "shape": [384], "dtype": "float32"}, {"name": "block_7_depthwise_BN/moving_mean", "shape": [384], "dtype": "float32"}, {"name": "block_7_depthwise_BN/moving_variance", "shape": [384], "dtype": "float32"}, {"name": "block_7_expand/kernel", "shape": [1, 1, 64, 384], "dtype": "float32"}, {"name": "block_7_expand_BN/gamma", "shape": [384], "dtype": "float32"}, {"name": "block_7_expand_BN/beta", "shape": [384], "dtype": "float32"}, {"name": "block_7_expand_BN/moving_mean", "shape": [384], "dtype": "float32"}, {"name": "block_7_expand_BN/moving_variance", "shape": [384], "dtype": "float32"}, {"name": "block_7_project/kernel", "shape": [1, 1, 384, 64], "dtype": "float32"}, {"name": "block_7_project_BN/gamma", "shape": [64], "dtype": "float32"}, {"name": "block_7_project_BN/beta", "shape": [64], "dtype": "float32"}, {"name": "block_7_project_BN/moving_mean", "shape": [64], "dtype": "float32"}, {"name": "block_7_project_BN/moving_variance", "shape": [64], "dtype": "float32"}, {"name": "block_8_depthwise/kernel", "shape": [3, 3, 384, 1], "dtype": "float32"}, {"name": "block_8_depthwise_BN/gamma", "shape": [384], "dtype": "float32"}, {"name": "block_8_depthwise_BN/beta", "shape": [384], "dtype": "float32"}, {"name": "block_8_depthwise_BN/moving_mean", "shape": [384], "dtype": "float32"}, {"name": "block_8_depthwise_BN/moving_variance", "shape": [384], "dtype": "float32"}, {"name": "block_8_expand/kernel", "shape": [1, 1, 64, 384], "dtype": "float32"}, {"name": "block_8_expand_BN/gamma", "shape": [384], "dtype": "float32"}, {"name": "block_8_expand_BN/beta", "shape": [384], "dtype": "float32"}, {"name": "block_8_expand_BN/moving_mean", "shape": [384], "dtype": "float32"}, {"name": "block_8_expand_BN/moving_variance", "shape": [384], "dtype": "float32"}, {"name": "block_8_project/kernel", "shape": [1, 1, 384, 64], "dtype": "float32"}, {"name": "block_8_project_BN/gamma", "shape": [64], "dtype": "float32"}, {"name": "block_8_project_BN/beta", "shape": [64], "dtype": "float32"}, {"name": "block_8_project_BN/moving_mean", "shape": [64], "dtype": "float32"}, {"name": "block_8_project_BN/moving_variance", "shape": [64], "dtype": "float32"}, {"name": "block_9_depthwise/kernel", "shape": [3, 3, 384, 1], "dtype": "float32"}, {"name": "block_9_depthwise_BN/gamma", "shape": [384], "dtype": "float32"}, {"name": "block_9_depthwise_BN/beta", "shape": [384], "dtype": "float32"}, {"name": "block_9_depthwise_BN/moving_mean", "shape": [384], "dtype": "float32"}, {"name": "block_9_depthwise_BN/moving_variance", "shape": [384], "dtype": "float32"}, {"name": "block_9_expand/kernel", "shape": [1, 1, 64, 384], "dtype": "float32"}, {"name": "block_9_expand_BN/gamma", "shape": [384], "dtype": "float32"}, {"name": "block_9_expand_BN/beta", "shape": [384], "dtype": "float32"}, {"name": "block_9_expand_BN/moving_mean", "shape": [384], "dtype": "float32"}, {"name": "block_9_expand_BN/moving_variance", "shape": [384], "dtype": "float32"}, {"name": "block_9_project/kernel", "shape": [1, 1, 384, 64], "dtype": "float32"}, {"name": "block_9_project_BN/gamma", "shape": [64], "dtype": "float32"}, {"name": "block_9_project_BN/beta", "shape": [64], "dtype": "float32"}, {"name": "block_9_project_BN/moving_mean", "shape": [64], "dtype": "float32"}, {"name": "block_9_project_BN/moving_variance", "shape": [64], "dtype": "float32"}, {"name": "bn_Conv1/gamma", "shape": [32], "dtype": "float32"}, {"name": "bn_Conv1/beta", "shape": [32], "dtype": "float32"}, {"name": "bn_Conv1/moving_mean", "shape": [32], "dtype": "float32"}, {"name": "bn_Conv1/moving_variance", "shape": [32], "dtype": "float32"}, {"name": "dense_1/kernel", "shape": [1280, 4], "dtype": "float32"}, {"name": "dense_1/bias", "shape": [4], "dtype": "float32"}, {"name": "expanded_conv_depthwise/kernel", "shape": [3, 3, 32, 1], "dtype": "float32"}, {"name": "expanded_conv_depthwise_BN/gamma", "shape": [32], "dtype": "float32"}, {"name": "expanded_conv_depthwise_BN/beta", "shape": [32], "dtype": "float32"}, {"name": "expanded_conv_depthwise_BN/moving_mean", "shape": [32], "dtype": "float32"}, {"name": "expanded_conv_depthwise_BN/moving_variance", "shape": [32], "dtype": "float32"}, {"name": "expanded_conv_project/kernel", "shape": [1, 1, 32, 16], "dtype": "float32"}, {"name": "expanded_conv_project_BN/gamma", "shape": [16], "dtype": "float32"}, {"name": "expanded_conv_project_BN/beta", "shape": [16], "dtype": "float32"}, {"name": "expanded_conv_project_BN/moving_mean", "shape": [16], "dtype": "float32"}, {"name": "expanded_conv_project_BN/moving_variance", "shape": [16], "dtype": "float32"}]}]}
